module @xla_computation_train_and_evaluate.6651  {
  func @main(%arg0: tensor<30x28x28x1x!pphlo.pfxp>, %arg1: tensor<30x!pphlo.pint>, %arg2: tensor<50x28x28x1x!pphlo.pfxp>, %arg3: tensor<50x!pphlo.pint>) -> tensor<!pphlo.pfxp> {
    %0 = "pphlo.constant"() {value = dense<2.000000e-02> : tensor<f32>} : () -> tensor<!pphlo.pfxp>
    %1 = "pphlo.constant"() {value = dense<0.000000e+00> : tensor<f32>} : () -> tensor<!pphlo.pfxp>
    %2 = "pphlo.constant"() {value = dense<0.000000e+00> : tensor<50x10xf32>} : () -> tensor<50x10x!pphlo.pfxp>
    %3 = "pphlo.constant"() {value = dense<0xFF800000> : tensor<f32>} : () -> tensor<!pphlo.pfxp>
    %4 = "pphlo.constant"() {value = dense<-1.000000e-01> : tensor<10xf32>} : () -> tensor<10x!pphlo.pfxp>
    %5 = "pphlo.constant"() {value = dense<-1.000000e-01> : tensor<256x10xf32>} : () -> tensor<256x10x!pphlo.pfxp>
    %6 = "pphlo.constant"() {value = dense<0.000000e+00> : tensor<50x256xf32>} : () -> tensor<50x256x!pphlo.pfxp>
    %7 = "pphlo.constant"() {value = dense<-1.000000e-01> : tensor<256xf32>} : () -> tensor<256x!pphlo.pfxp>
    %8 = "pphlo.constant"() {value = dense<-1.000000e-01> : tensor<3136x256xf32>} : () -> tensor<3136x256x!pphlo.pfxp>
    %9 = "pphlo.constant"() {value = dense<2.500000e-01> : tensor<50x7x7x64xf32>} : () -> tensor<50x7x7x64x!pphlo.pfxp>
    %10 = "pphlo.constant"() {value = dense<0.000000e+00> : tensor<50x14x14x64xf32>} : () -> tensor<50x14x14x64x!pphlo.pfxp>
    %11 = "pphlo.constant"() {value = dense<-1.000000e-01> : tensor<64xf32>} : () -> tensor<64x!pphlo.pfxp>
    %12 = "pphlo.constant"() {value = dense<-1.000000e-01> : tensor<3x3x32x64xf32>} : () -> tensor<3x3x32x64x!pphlo.pfxp>
    %13 = "pphlo.constant"() {value = dense<2.500000e-01> : tensor<50x14x14x32xf32>} : () -> tensor<50x14x14x32x!pphlo.pfxp>
    %14 = "pphlo.constant"() {value = dense<0.000000e+00> : tensor<50x28x28x32xf32>} : () -> tensor<50x28x28x32x!pphlo.pfxp>
    %15 = "pphlo.constant"() {value = dense<-1.000000e-01> : tensor<32xf32>} : () -> tensor<32x!pphlo.pfxp>
    %16 = "pphlo.constant"() {value = dense<-1.000000e-01> : tensor<3x3x1x32xf32>} : () -> tensor<3x3x1x32x!pphlo.pfxp>
    %17 = "pphlo.constant"() {value = dense<0.000000e+00> : tensor<30x28x28x32xf32>} : () -> tensor<30x28x28x32x!pphlo.pfxp>
    %18 = "pphlo.constant"() {value = dense<2.500000e-01> : tensor<30x14x14x32xf32>} : () -> tensor<30x14x14x32x!pphlo.pfxp>
    %19 = "pphlo.constant"() {value = dense<0.000000e+00> : tensor<30x14x14x64xf32>} : () -> tensor<30x14x14x64x!pphlo.pfxp>
    %20 = "pphlo.constant"() {value = dense<2.500000e-01> : tensor<30x3136xf32>} : () -> tensor<30x3136x!pphlo.pfxp>
    %21 = "pphlo.constant"() {value = dense<0.000000e+00> : tensor<30x256xf32>} : () -> tensor<30x256x!pphlo.pfxp>
    %22 = "pphlo.constant"() {value = dense<0.0710529536> : tensor<256x10xf32>} : () -> tensor<256x10x!pphlo.pfxp>
    %23 = "pphlo.constant"() {value = dense<1.99999988> : tensor<256x10xf32>} : () -> tensor<256x10x!pphlo.pfxp>
    %24 = "pphlo.constant"() {value = dense<1.41421354> : tensor<256x10xf32>} : () -> tensor<256x10x!pphlo.pfxp>
    %25 = "pphlo.constant"() {value = dense<-3.000000e+00> : tensor<256x10xf32>} : () -> tensor<256x10x!pphlo.pfxp>
    %26 = "pphlo.constant"() {value = dense<-2.500000e+00> : tensor<256x10xf32>} : () -> tensor<256x10x!pphlo.pfxp>
    %27 = "pphlo.constant"() {value = dense<-2.00214257E-4> : tensor<256x10xf32>} : () -> tensor<256x10x!pphlo.pfxp>
    %28 = "pphlo.constant"() {value = dense<2.81022636E-8> : tensor<256x10xf32>} : () -> tensor<256x10x!pphlo.pfxp>
    %29 = "pphlo.constant"() {value = dense<1.00950558E-4> : tensor<256x10xf32>} : () -> tensor<256x10x!pphlo.pfxp>
    %30 = "pphlo.constant"() {value = dense<3.43273939E-7> : tensor<256x10xf32>} : () -> tensor<256x10x!pphlo.pfxp>
    %31 = "pphlo.constant"() {value = dense<0.00134934322> : tensor<256x10xf32>} : () -> tensor<256x10x!pphlo.pfxp>
    %32 = "pphlo.constant"() {value = dense<-3.5233877E-6> : tensor<256x10xf32>} : () -> tensor<256x10x!pphlo.pfxp>
    %33 = "pphlo.constant"() {value = dense<-0.00367342844> : tensor<256x10xf32>} : () -> tensor<256x10x!pphlo.pfxp>
    %34 = "pphlo.constant"() {value = dense<-4.39150654E-6> : tensor<256x10xf32>} : () -> tensor<256x10x!pphlo.pfxp>
    %35 = "pphlo.constant"() {value = dense<0.00573950773> : tensor<256x10xf32>} : () -> tensor<256x10x!pphlo.pfxp>
    %36 = "pphlo.constant"() {value = dense<2.1858087E-4> : tensor<256x10xf32>} : () -> tensor<256x10x!pphlo.pfxp>
    %37 = "pphlo.constant"() {value = dense<-0.0076224613> : tensor<256x10xf32>} : () -> tensor<256x10x!pphlo.pfxp>
    %38 = "pphlo.constant"() {value = dense<-0.00125372503> : tensor<256x10xf32>} : () -> tensor<256x10x!pphlo.pfxp>
    %39 = "pphlo.constant"() {value = dense<0.00943887047> : tensor<256x10xf32>} : () -> tensor<256x10x!pphlo.pfxp>
    %40 = "pphlo.constant"() {value = dense<-0.00417768164> : tensor<256x10xf32>} : () -> tensor<256x10x!pphlo.pfxp>
    %41 = "pphlo.constant"() {value = dense<1.00167406> : tensor<256x10xf32>} : () -> tensor<256x10x!pphlo.pfxp>
    %42 = "pphlo.constant"() {value = dense<0.246640727> : tensor<256x10xf32>} : () -> tensor<256x10x!pphlo.pfxp>
    %43 = "pphlo.constant"() {value = dense<2.83297682> : tensor<256x10xf32>} : () -> tensor<256x10x!pphlo.pfxp>
    %44 = "pphlo.constant"() {value = dense<1.50140941> : tensor<256x10xf32>} : () -> tensor<256x10x!pphlo.pfxp>
    %45 = "pphlo.constant"() {value = dense<5.000000e+00> : tensor<256x10xf32>} : () -> tensor<256x10x!pphlo.pfxp>
    %46 = "pphlo.constant"() {value = dense<0x7F800000> : tensor<256x10xf32>} : () -> tensor<256x10x!pphlo.pfxp>
    %47 = "pphlo.constant"() {value = dense<1.000000e+00> : tensor<256x10xf32>} : () -> tensor<256x10x!pphlo.pfxp>
    %48 = "pphlo.constant"() {value = dense<-0.954499721> : tensor<2560xf32>} : () -> tensor<2560x!pphlo.pfxp>
    %49 = "pphlo.constant"() {value = dense<1.90899944> : tensor<2560xf32>} : () -> tensor<2560x!pphlo.pfxp>
    %50 = "pphlo.constant"() {value = dense<-1.000000e+00> : tensor<2560xf32>} : () -> tensor<2560x!pphlo.pfxp>
    %51 = "pphlo.constant"() {value = dense<1065353216> : tensor<2560xui32>} : () -> tensor<2560x!pphlo.pint>
    %52 = "pphlo.constant"() {value = dense<9> : tensor<2560xui32>} : () -> tensor<2560x!pphlo.pint>
    %53 = "pphlo.constant"() {value = dense<5> : tensor<1280xui32>} : () -> tensor<1280x!pphlo.pint>
    %54 = "pphlo.constant"() {value = dense<26> : tensor<1280xui32>} : () -> tensor<1280x!pphlo.pint>
    %55 = "pphlo.constant"() {value = dense<6> : tensor<1280xui32>} : () -> tensor<1280x!pphlo.pint>
    %56 = "pphlo.constant"() {value = dense<17> : tensor<1280xui32>} : () -> tensor<1280x!pphlo.pint>
    %57 = "pphlo.constant"() {value = dense<15> : tensor<1280xui32>} : () -> tensor<1280x!pphlo.pint>
    %58 = "pphlo.constant"() {value = dense<19> : tensor<1280xui32>} : () -> tensor<1280x!pphlo.pint>
    %59 = "pphlo.constant"() {value = dense<13> : tensor<1280xui32>} : () -> tensor<1280x!pphlo.pint>
    %60 = "pphlo.constant"() {value = dense<4> : tensor<1280xui32>} : () -> tensor<1280x!pphlo.pint>
    %61 = "pphlo.constant"() {value = dense<8> : tensor<1280xui32>} : () -> tensor<1280x!pphlo.pint>
    %62 = "pphlo.constant"() {value = dense<24> : tensor<1280xui32>} : () -> tensor<1280x!pphlo.pint>
    %63 = "pphlo.constant"() {value = dense<16> : tensor<1280xui32>} : () -> tensor<1280x!pphlo.pint>
    %64 = "pphlo.constant"() {value = dense<3> : tensor<1280xui32>} : () -> tensor<1280x!pphlo.pint>
    %65 = "pphlo.constant"() {value = dense<29> : tensor<1280xui32>} : () -> tensor<1280x!pphlo.pint>
    %66 = "pphlo.constant"() {value = dense<2> : tensor<1280xui32>} : () -> tensor<1280x!pphlo.pint>
    %67 = "pphlo.constant"() {value = dense<1> : tensor<1280xui32>} : () -> tensor<1280x!pphlo.pint>
    %68 = "pphlo.constant"() {value = dense<466688986> : tensor<ui32>} : () -> tensor<!pphlo.pint>
    %69 = "pphlo.constant"() {value = dense<5> : tensor<1xui32>} : () -> tensor<1x!pphlo.pint>
    %70 = "pphlo.constant"() {value = dense<26> : tensor<1xui32>} : () -> tensor<1x!pphlo.pint>
    %71 = "pphlo.constant"() {value = dense<6> : tensor<1xui32>} : () -> tensor<1x!pphlo.pint>
    %72 = "pphlo.constant"() {value = dense<17> : tensor<1xui32>} : () -> tensor<1x!pphlo.pint>
    %73 = "pphlo.constant"() {value = dense<15> : tensor<1xui32>} : () -> tensor<1x!pphlo.pint>
    %74 = "pphlo.constant"() {value = dense<19> : tensor<1xui32>} : () -> tensor<1x!pphlo.pint>
    %75 = "pphlo.constant"() {value = dense<13> : tensor<1xui32>} : () -> tensor<1x!pphlo.pint>
    %76 = "pphlo.constant"() {value = dense<4> : tensor<1xui32>} : () -> tensor<1x!pphlo.pint>
    %77 = "pphlo.constant"() {value = dense<8> : tensor<1xui32>} : () -> tensor<1x!pphlo.pint>
    %78 = "pphlo.constant"() {value = dense<24> : tensor<1xui32>} : () -> tensor<1x!pphlo.pint>
    %79 = "pphlo.constant"() {value = dense<16> : tensor<1xui32>} : () -> tensor<1x!pphlo.pint>
    %80 = "pphlo.constant"() {value = dense<3> : tensor<1xui32>} : () -> tensor<1x!pphlo.pint>
    %81 = "pphlo.constant"() {value = dense<29> : tensor<1xui32>} : () -> tensor<1x!pphlo.pint>
    %82 = "pphlo.constant"() {value = dense<2> : tensor<1xui32>} : () -> tensor<1x!pphlo.pint>
    %83 = "pphlo.constant"() {value = dense<1> : tensor<1xui32>} : () -> tensor<1x!pphlo.pint>
    %84 = "pphlo.constant"() {value = dense<3995620053> : tensor<1xui32>} : () -> tensor<1x!pphlo.pint>
    %85 = "pphlo.constant"() {value = dense<-1.99999988> : tensor<256x10xf32>} : () -> tensor<256x10x!pphlo.pfxp>
    %86 = "pphlo.constant"() {value = dense<0.000000e+00> : tensor<30x10xf32>} : () -> tensor<30x10x!pphlo.pfxp>
    %87 = "pphlo.constant"() {value = dense<-0.0333333351> : tensor<30x10xf32>} : () -> tensor<30x10x!pphlo.pfxp>
    %88 = "pphlo.constant"() {value = dense<30> : tensor<30xi32>} : () -> tensor<30x!pphlo.pint>
    %89 = "pphlo.constant"() {value = dense<0> : tensor<30xi32>} : () -> tensor<30x!pphlo.pint>
    %90 = "pphlo.constant"() {value = dense<0.0203008428> : tensor<3136x256xf32>} : () -> tensor<3136x256x!pphlo.pfxp>
    %91 = "pphlo.constant"() {value = dense<1.99999988> : tensor<3136x256xf32>} : () -> tensor<3136x256x!pphlo.pfxp>
    %92 = "pphlo.constant"() {value = dense<1.41421354> : tensor<3136x256xf32>} : () -> tensor<3136x256x!pphlo.pfxp>
    %93 = "pphlo.constant"() {value = dense<-3.000000e+00> : tensor<3136x256xf32>} : () -> tensor<3136x256x!pphlo.pfxp>
    %94 = "pphlo.constant"() {value = dense<-2.500000e+00> : tensor<3136x256xf32>} : () -> tensor<3136x256x!pphlo.pfxp>
    %95 = "pphlo.constant"() {value = dense<-2.00214257E-4> : tensor<3136x256xf32>} : () -> tensor<3136x256x!pphlo.pfxp>
    %96 = "pphlo.constant"() {value = dense<2.81022636E-8> : tensor<3136x256xf32>} : () -> tensor<3136x256x!pphlo.pfxp>
    %97 = "pphlo.constant"() {value = dense<1.00950558E-4> : tensor<3136x256xf32>} : () -> tensor<3136x256x!pphlo.pfxp>
    %98 = "pphlo.constant"() {value = dense<3.43273939E-7> : tensor<3136x256xf32>} : () -> tensor<3136x256x!pphlo.pfxp>
    %99 = "pphlo.constant"() {value = dense<0.00134934322> : tensor<3136x256xf32>} : () -> tensor<3136x256x!pphlo.pfxp>
    %100 = "pphlo.constant"() {value = dense<-3.5233877E-6> : tensor<3136x256xf32>} : () -> tensor<3136x256x!pphlo.pfxp>
    %101 = "pphlo.constant"() {value = dense<-0.00367342844> : tensor<3136x256xf32>} : () -> tensor<3136x256x!pphlo.pfxp>
    %102 = "pphlo.constant"() {value = dense<-4.39150654E-6> : tensor<3136x256xf32>} : () -> tensor<3136x256x!pphlo.pfxp>
    %103 = "pphlo.constant"() {value = dense<0.00573950773> : tensor<3136x256xf32>} : () -> tensor<3136x256x!pphlo.pfxp>
    %104 = "pphlo.constant"() {value = dense<2.1858087E-4> : tensor<3136x256xf32>} : () -> tensor<3136x256x!pphlo.pfxp>
    %105 = "pphlo.constant"() {value = dense<-0.0076224613> : tensor<3136x256xf32>} : () -> tensor<3136x256x!pphlo.pfxp>
    %106 = "pphlo.constant"() {value = dense<-0.00125372503> : tensor<3136x256xf32>} : () -> tensor<3136x256x!pphlo.pfxp>
    %107 = "pphlo.constant"() {value = dense<0.00943887047> : tensor<3136x256xf32>} : () -> tensor<3136x256x!pphlo.pfxp>
    %108 = "pphlo.constant"() {value = dense<-0.00417768164> : tensor<3136x256xf32>} : () -> tensor<3136x256x!pphlo.pfxp>
    %109 = "pphlo.constant"() {value = dense<1.00167406> : tensor<3136x256xf32>} : () -> tensor<3136x256x!pphlo.pfxp>
    %110 = "pphlo.constant"() {value = dense<0.246640727> : tensor<3136x256xf32>} : () -> tensor<3136x256x!pphlo.pfxp>
    %111 = "pphlo.constant"() {value = dense<2.83297682> : tensor<3136x256xf32>} : () -> tensor<3136x256x!pphlo.pfxp>
    %112 = "pphlo.constant"() {value = dense<1.50140941> : tensor<3136x256xf32>} : () -> tensor<3136x256x!pphlo.pfxp>
    %113 = "pphlo.constant"() {value = dense<5.000000e+00> : tensor<3136x256xf32>} : () -> tensor<3136x256x!pphlo.pfxp>
    %114 = "pphlo.constant"() {value = dense<0x7F800000> : tensor<3136x256xf32>} : () -> tensor<3136x256x!pphlo.pfxp>
    %115 = "pphlo.constant"() {value = dense<1.000000e+00> : tensor<3136x256xf32>} : () -> tensor<3136x256x!pphlo.pfxp>
    %116 = "pphlo.constant"() {value = dense<-0.954499721> : tensor<802816xf32>} : () -> tensor<802816x!pphlo.pfxp>
    %117 = "pphlo.constant"() {value = dense<1.90899944> : tensor<802816xf32>} : () -> tensor<802816x!pphlo.pfxp>
    %118 = "pphlo.constant"() {value = dense<-1.000000e+00> : tensor<802816xf32>} : () -> tensor<802816x!pphlo.pfxp>
    %119 = "pphlo.constant"() {value = dense<1065353216> : tensor<802816xui32>} : () -> tensor<802816x!pphlo.pint>
    %120 = "pphlo.constant"() {value = dense<9> : tensor<802816xui32>} : () -> tensor<802816x!pphlo.pint>
    %121 = "pphlo.constant"() {value = dense<5> : tensor<401408xui32>} : () -> tensor<401408x!pphlo.pint>
    %122 = "pphlo.constant"() {value = dense<26> : tensor<401408xui32>} : () -> tensor<401408x!pphlo.pint>
    %123 = "pphlo.constant"() {value = dense<6> : tensor<401408xui32>} : () -> tensor<401408x!pphlo.pint>
    %124 = "pphlo.constant"() {value = dense<17> : tensor<401408xui32>} : () -> tensor<401408x!pphlo.pint>
    %125 = "pphlo.constant"() {value = dense<15> : tensor<401408xui32>} : () -> tensor<401408x!pphlo.pint>
    %126 = "pphlo.constant"() {value = dense<19> : tensor<401408xui32>} : () -> tensor<401408x!pphlo.pint>
    %127 = "pphlo.constant"() {value = dense<13> : tensor<401408xui32>} : () -> tensor<401408x!pphlo.pint>
    %128 = "pphlo.constant"() {value = dense<4> : tensor<401408xui32>} : () -> tensor<401408x!pphlo.pint>
    %129 = "pphlo.constant"() {value = dense<8> : tensor<401408xui32>} : () -> tensor<401408x!pphlo.pint>
    %130 = "pphlo.constant"() {value = dense<24> : tensor<401408xui32>} : () -> tensor<401408x!pphlo.pint>
    %131 = "pphlo.constant"() {value = dense<16> : tensor<401408xui32>} : () -> tensor<401408x!pphlo.pint>
    %132 = "pphlo.constant"() {value = dense<3> : tensor<401408xui32>} : () -> tensor<401408x!pphlo.pint>
    %133 = "pphlo.constant"() {value = dense<29> : tensor<401408xui32>} : () -> tensor<401408x!pphlo.pint>
    %134 = "pphlo.constant"() {value = dense<2> : tensor<401408xui32>} : () -> tensor<401408x!pphlo.pint>
    %135 = "pphlo.constant"() {value = dense<1> : tensor<401408xui32>} : () -> tensor<401408x!pphlo.pint>
    %136 = "pphlo.constant"() {value = dense<706584679> : tensor<1xui32>} : () -> tensor<1x!pphlo.pint>
    %137 = "pphlo.constant"() {value = dense<-1.99999988> : tensor<3136x256xf32>} : () -> tensor<3136x256x!pphlo.pfxp>
    %138 = "pphlo.constant"() {value = dense<2.500000e-01> : tensor<30x7x7x64xf32>} : () -> tensor<30x7x7x64x!pphlo.pfxp>
    %139 = "pphlo.constant"() {value = dense<0.0669893697> : tensor<3x3x32x64xf32>} : () -> tensor<3x3x32x64x!pphlo.pfxp>
    %140 = "pphlo.constant"() {value = dense<1.99999988> : tensor<3x3x32x64xf32>} : () -> tensor<3x3x32x64x!pphlo.pfxp>
    %141 = "pphlo.constant"() {value = dense<1.41421354> : tensor<3x3x32x64xf32>} : () -> tensor<3x3x32x64x!pphlo.pfxp>
    %142 = "pphlo.constant"() {value = dense<-3.000000e+00> : tensor<3x3x32x64xf32>} : () -> tensor<3x3x32x64x!pphlo.pfxp>
    %143 = "pphlo.constant"() {value = dense<-2.500000e+00> : tensor<3x3x32x64xf32>} : () -> tensor<3x3x32x64x!pphlo.pfxp>
    %144 = "pphlo.constant"() {value = dense<-2.00214257E-4> : tensor<3x3x32x64xf32>} : () -> tensor<3x3x32x64x!pphlo.pfxp>
    %145 = "pphlo.constant"() {value = dense<2.81022636E-8> : tensor<3x3x32x64xf32>} : () -> tensor<3x3x32x64x!pphlo.pfxp>
    %146 = "pphlo.constant"() {value = dense<1.00950558E-4> : tensor<3x3x32x64xf32>} : () -> tensor<3x3x32x64x!pphlo.pfxp>
    %147 = "pphlo.constant"() {value = dense<3.43273939E-7> : tensor<3x3x32x64xf32>} : () -> tensor<3x3x32x64x!pphlo.pfxp>
    %148 = "pphlo.constant"() {value = dense<0.00134934322> : tensor<3x3x32x64xf32>} : () -> tensor<3x3x32x64x!pphlo.pfxp>
    %149 = "pphlo.constant"() {value = dense<-3.5233877E-6> : tensor<3x3x32x64xf32>} : () -> tensor<3x3x32x64x!pphlo.pfxp>
    %150 = "pphlo.constant"() {value = dense<-0.00367342844> : tensor<3x3x32x64xf32>} : () -> tensor<3x3x32x64x!pphlo.pfxp>
    %151 = "pphlo.constant"() {value = dense<-4.39150654E-6> : tensor<3x3x32x64xf32>} : () -> tensor<3x3x32x64x!pphlo.pfxp>
    %152 = "pphlo.constant"() {value = dense<0.00573950773> : tensor<3x3x32x64xf32>} : () -> tensor<3x3x32x64x!pphlo.pfxp>
    %153 = "pphlo.constant"() {value = dense<2.1858087E-4> : tensor<3x3x32x64xf32>} : () -> tensor<3x3x32x64x!pphlo.pfxp>
    %154 = "pphlo.constant"() {value = dense<-0.0076224613> : tensor<3x3x32x64xf32>} : () -> tensor<3x3x32x64x!pphlo.pfxp>
    %155 = "pphlo.constant"() {value = dense<-0.00125372503> : tensor<3x3x32x64xf32>} : () -> tensor<3x3x32x64x!pphlo.pfxp>
    %156 = "pphlo.constant"() {value = dense<0.00943887047> : tensor<3x3x32x64xf32>} : () -> tensor<3x3x32x64x!pphlo.pfxp>
    %157 = "pphlo.constant"() {value = dense<-0.00417768164> : tensor<3x3x32x64xf32>} : () -> tensor<3x3x32x64x!pphlo.pfxp>
    %158 = "pphlo.constant"() {value = dense<1.00167406> : tensor<3x3x32x64xf32>} : () -> tensor<3x3x32x64x!pphlo.pfxp>
    %159 = "pphlo.constant"() {value = dense<0.246640727> : tensor<3x3x32x64xf32>} : () -> tensor<3x3x32x64x!pphlo.pfxp>
    %160 = "pphlo.constant"() {value = dense<2.83297682> : tensor<3x3x32x64xf32>} : () -> tensor<3x3x32x64x!pphlo.pfxp>
    %161 = "pphlo.constant"() {value = dense<1.50140941> : tensor<3x3x32x64xf32>} : () -> tensor<3x3x32x64x!pphlo.pfxp>
    %162 = "pphlo.constant"() {value = dense<5.000000e+00> : tensor<3x3x32x64xf32>} : () -> tensor<3x3x32x64x!pphlo.pfxp>
    %163 = "pphlo.constant"() {value = dense<0x7F800000> : tensor<3x3x32x64xf32>} : () -> tensor<3x3x32x64x!pphlo.pfxp>
    %164 = "pphlo.constant"() {value = dense<1.000000e+00> : tensor<3x3x32x64xf32>} : () -> tensor<3x3x32x64x!pphlo.pfxp>
    %165 = "pphlo.constant"() {value = dense<-0.954499721> : tensor<18432xf32>} : () -> tensor<18432x!pphlo.pfxp>
    %166 = "pphlo.constant"() {value = dense<1.90899944> : tensor<18432xf32>} : () -> tensor<18432x!pphlo.pfxp>
    %167 = "pphlo.constant"() {value = dense<-1.000000e+00> : tensor<18432xf32>} : () -> tensor<18432x!pphlo.pfxp>
    %168 = "pphlo.constant"() {value = dense<1065353216> : tensor<18432xui32>} : () -> tensor<18432x!pphlo.pint>
    %169 = "pphlo.constant"() {value = dense<9> : tensor<18432xui32>} : () -> tensor<18432x!pphlo.pint>
    %170 = "pphlo.constant"() {value = dense<5> : tensor<9216xui32>} : () -> tensor<9216x!pphlo.pint>
    %171 = "pphlo.constant"() {value = dense<26> : tensor<9216xui32>} : () -> tensor<9216x!pphlo.pint>
    %172 = "pphlo.constant"() {value = dense<6> : tensor<9216xui32>} : () -> tensor<9216x!pphlo.pint>
    %173 = "pphlo.constant"() {value = dense<17> : tensor<9216xui32>} : () -> tensor<9216x!pphlo.pint>
    %174 = "pphlo.constant"() {value = dense<15> : tensor<9216xui32>} : () -> tensor<9216x!pphlo.pint>
    %175 = "pphlo.constant"() {value = dense<19> : tensor<9216xui32>} : () -> tensor<9216x!pphlo.pint>
    %176 = "pphlo.constant"() {value = dense<13> : tensor<9216xui32>} : () -> tensor<9216x!pphlo.pint>
    %177 = "pphlo.constant"() {value = dense<4> : tensor<9216xui32>} : () -> tensor<9216x!pphlo.pint>
    %178 = "pphlo.constant"() {value = dense<8> : tensor<9216xui32>} : () -> tensor<9216x!pphlo.pint>
    %179 = "pphlo.constant"() {value = dense<24> : tensor<9216xui32>} : () -> tensor<9216x!pphlo.pint>
    %180 = "pphlo.constant"() {value = dense<16> : tensor<9216xui32>} : () -> tensor<9216x!pphlo.pint>
    %181 = "pphlo.constant"() {value = dense<3> : tensor<9216xui32>} : () -> tensor<9216x!pphlo.pint>
    %182 = "pphlo.constant"() {value = dense<29> : tensor<9216xui32>} : () -> tensor<9216x!pphlo.pint>
    %183 = "pphlo.constant"() {value = dense<2> : tensor<9216xui32>} : () -> tensor<9216x!pphlo.pint>
    %184 = "pphlo.constant"() {value = dense<1> : tensor<9216xui32>} : () -> tensor<9216x!pphlo.pint>
    %185 = "pphlo.constant"() {value = dense<2095399837> : tensor<1xui32>} : () -> tensor<1x!pphlo.pint>
    %186 = "pphlo.constant"() {value = dense<-1.99999988> : tensor<3x3x32x64xf32>} : () -> tensor<3x3x32x64x!pphlo.pfxp>
    %187 = "pphlo.constant"() {value = dense<5> : tensor<15xui32>} : () -> tensor<15x!pphlo.pint>
    %188 = "pphlo.constant"() {value = dense<26> : tensor<15xui32>} : () -> tensor<15x!pphlo.pint>
    %189 = "pphlo.constant"() {value = dense<6> : tensor<15xui32>} : () -> tensor<15x!pphlo.pint>
    %190 = "pphlo.constant"() {value = dense<17> : tensor<15xui32>} : () -> tensor<15x!pphlo.pint>
    %191 = "pphlo.constant"() {value = dense<15> : tensor<15xui32>} : () -> tensor<15x!pphlo.pint>
    %192 = "pphlo.constant"() {value = dense<19> : tensor<15xui32>} : () -> tensor<15x!pphlo.pint>
    %193 = "pphlo.constant"() {value = dense<13> : tensor<15xui32>} : () -> tensor<15x!pphlo.pint>
    %194 = "pphlo.constant"() {value = dense<4> : tensor<15xui32>} : () -> tensor<15x!pphlo.pint>
    %195 = "pphlo.constant"() {value = dense<8> : tensor<15xui32>} : () -> tensor<15x!pphlo.pint>
    %196 = "pphlo.constant"() {value = dense<24> : tensor<15xui32>} : () -> tensor<15x!pphlo.pint>
    %197 = "pphlo.constant"() {value = dense<16> : tensor<15xui32>} : () -> tensor<15x!pphlo.pint>
    %198 = "pphlo.constant"() {value = dense<3> : tensor<15xui32>} : () -> tensor<15x!pphlo.pint>
    %199 = "pphlo.constant"() {value = dense<29> : tensor<15xui32>} : () -> tensor<15x!pphlo.pint>
    %200 = "pphlo.constant"() {value = dense<2> : tensor<15xui32>} : () -> tensor<15x!pphlo.pint>
    %201 = "pphlo.constant"() {value = dense<1> : tensor<15xui32>} : () -> tensor<15x!pphlo.pint>
    %202 = "pphlo.constant"() {value = dense<5> : tensor<2xui32>} : () -> tensor<2x!pphlo.pint>
    %203 = "pphlo.constant"() {value = dense<26> : tensor<2xui32>} : () -> tensor<2x!pphlo.pint>
    %204 = "pphlo.constant"() {value = dense<6> : tensor<2xui32>} : () -> tensor<2x!pphlo.pint>
    %205 = "pphlo.constant"() {value = dense<17> : tensor<2xui32>} : () -> tensor<2x!pphlo.pint>
    %206 = "pphlo.constant"() {value = dense<15> : tensor<2xui32>} : () -> tensor<2x!pphlo.pint>
    %207 = "pphlo.constant"() {value = dense<19> : tensor<2xui32>} : () -> tensor<2x!pphlo.pint>
    %208 = "pphlo.constant"() {value = dense<13> : tensor<2xui32>} : () -> tensor<2x!pphlo.pint>
    %209 = "pphlo.constant"() {value = dense<4> : tensor<2xui32>} : () -> tensor<2x!pphlo.pint>
    %210 = "pphlo.constant"() {value = dense<8> : tensor<2xui32>} : () -> tensor<2x!pphlo.pint>
    %211 = "pphlo.constant"() {value = dense<24> : tensor<2xui32>} : () -> tensor<2x!pphlo.pint>
    %212 = "pphlo.constant"() {value = dense<16> : tensor<2xui32>} : () -> tensor<2x!pphlo.pint>
    %213 = "pphlo.constant"() {value = dense<3> : tensor<2xui32>} : () -> tensor<2x!pphlo.pint>
    %214 = "pphlo.constant"() {value = dense<29> : tensor<2xui32>} : () -> tensor<2x!pphlo.pint>
    %215 = "pphlo.constant"() {value = dense<2> : tensor<2xui32>} : () -> tensor<2x!pphlo.pint>
    %216 = "pphlo.constant"() {value = dense<1> : tensor<2xui32>} : () -> tensor<2x!pphlo.pint>
    %217 = "pphlo.constant"() {value = dense<0.378949106> : tensor<3x3x1x32xf32>} : () -> tensor<3x3x1x32x!pphlo.pfxp>
    %218 = "pphlo.constant"() {value = dense<1.99999988> : tensor<3x3x1x32xf32>} : () -> tensor<3x3x1x32x!pphlo.pfxp>
    %219 = "pphlo.constant"() {value = dense<1.41421354> : tensor<3x3x1x32xf32>} : () -> tensor<3x3x1x32x!pphlo.pfxp>
    %220 = "pphlo.constant"() {value = dense<-3.000000e+00> : tensor<3x3x1x32xf32>} : () -> tensor<3x3x1x32x!pphlo.pfxp>
    %221 = "pphlo.constant"() {value = dense<-2.500000e+00> : tensor<3x3x1x32xf32>} : () -> tensor<3x3x1x32x!pphlo.pfxp>
    %222 = "pphlo.constant"() {value = dense<-2.00214257E-4> : tensor<3x3x1x32xf32>} : () -> tensor<3x3x1x32x!pphlo.pfxp>
    %223 = "pphlo.constant"() {value = dense<2.81022636E-8> : tensor<3x3x1x32xf32>} : () -> tensor<3x3x1x32x!pphlo.pfxp>
    %224 = "pphlo.constant"() {value = dense<1.00950558E-4> : tensor<3x3x1x32xf32>} : () -> tensor<3x3x1x32x!pphlo.pfxp>
    %225 = "pphlo.constant"() {value = dense<3.43273939E-7> : tensor<3x3x1x32xf32>} : () -> tensor<3x3x1x32x!pphlo.pfxp>
    %226 = "pphlo.constant"() {value = dense<0.00134934322> : tensor<3x3x1x32xf32>} : () -> tensor<3x3x1x32x!pphlo.pfxp>
    %227 = "pphlo.constant"() {value = dense<-3.5233877E-6> : tensor<3x3x1x32xf32>} : () -> tensor<3x3x1x32x!pphlo.pfxp>
    %228 = "pphlo.constant"() {value = dense<-0.00367342844> : tensor<3x3x1x32xf32>} : () -> tensor<3x3x1x32x!pphlo.pfxp>
    %229 = "pphlo.constant"() {value = dense<-4.39150654E-6> : tensor<3x3x1x32xf32>} : () -> tensor<3x3x1x32x!pphlo.pfxp>
    %230 = "pphlo.constant"() {value = dense<0.00573950773> : tensor<3x3x1x32xf32>} : () -> tensor<3x3x1x32x!pphlo.pfxp>
    %231 = "pphlo.constant"() {value = dense<2.1858087E-4> : tensor<3x3x1x32xf32>} : () -> tensor<3x3x1x32x!pphlo.pfxp>
    %232 = "pphlo.constant"() {value = dense<-0.0076224613> : tensor<3x3x1x32xf32>} : () -> tensor<3x3x1x32x!pphlo.pfxp>
    %233 = "pphlo.constant"() {value = dense<-0.00125372503> : tensor<3x3x1x32xf32>} : () -> tensor<3x3x1x32x!pphlo.pfxp>
    %234 = "pphlo.constant"() {value = dense<0.00943887047> : tensor<3x3x1x32xf32>} : () -> tensor<3x3x1x32x!pphlo.pfxp>
    %235 = "pphlo.constant"() {value = dense<-0.00417768164> : tensor<3x3x1x32xf32>} : () -> tensor<3x3x1x32x!pphlo.pfxp>
    %236 = "pphlo.constant"() {value = dense<1.00167406> : tensor<3x3x1x32xf32>} : () -> tensor<3x3x1x32x!pphlo.pfxp>
    %237 = "pphlo.constant"() {value = dense<0.246640727> : tensor<3x3x1x32xf32>} : () -> tensor<3x3x1x32x!pphlo.pfxp>
    %238 = "pphlo.constant"() {value = dense<2.83297682> : tensor<3x3x1x32xf32>} : () -> tensor<3x3x1x32x!pphlo.pfxp>
    %239 = "pphlo.constant"() {value = dense<1.50140941> : tensor<3x3x1x32xf32>} : () -> tensor<3x3x1x32x!pphlo.pfxp>
    %240 = "pphlo.constant"() {value = dense<5.000000e+00> : tensor<3x3x1x32xf32>} : () -> tensor<3x3x1x32x!pphlo.pfxp>
    %241 = "pphlo.constant"() {value = dense<0x7F800000> : tensor<3x3x1x32xf32>} : () -> tensor<3x3x1x32x!pphlo.pfxp>
    %242 = "pphlo.constant"() {value = dense<1.000000e+00> : tensor<3x3x1x32xf32>} : () -> tensor<3x3x1x32x!pphlo.pfxp>
    %243 = "pphlo.constant"() {value = dense<-0.954499721> : tensor<288xf32>} : () -> tensor<288x!pphlo.pfxp>
    %244 = "pphlo.constant"() {value = dense<1.90899944> : tensor<288xf32>} : () -> tensor<288x!pphlo.pfxp>
    %245 = "pphlo.constant"() {value = dense<-1.000000e+00> : tensor<288xf32>} : () -> tensor<288x!pphlo.pfxp>
    %246 = "pphlo.constant"() {value = dense<1065353216> : tensor<288xui32>} : () -> tensor<288x!pphlo.pint>
    %247 = "pphlo.constant"() {value = dense<9> : tensor<288xui32>} : () -> tensor<288x!pphlo.pint>
    %248 = "pphlo.constant"() {value = dense<5> : tensor<144xui32>} : () -> tensor<144x!pphlo.pint>
    %249 = "pphlo.constant"() {value = dense<26> : tensor<144xui32>} : () -> tensor<144x!pphlo.pint>
    %250 = "pphlo.constant"() {value = dense<6> : tensor<144xui32>} : () -> tensor<144x!pphlo.pint>
    %251 = "pphlo.constant"() {value = dense<17> : tensor<144xui32>} : () -> tensor<144x!pphlo.pint>
    %252 = "pphlo.constant"() {value = dense<15> : tensor<144xui32>} : () -> tensor<144x!pphlo.pint>
    %253 = "pphlo.constant"() {value = dense<19> : tensor<144xui32>} : () -> tensor<144x!pphlo.pint>
    %254 = "pphlo.constant"() {value = dense<13> : tensor<144xui32>} : () -> tensor<144x!pphlo.pint>
    %255 = "pphlo.constant"() {value = dense<4> : tensor<144xui32>} : () -> tensor<144x!pphlo.pint>
    %256 = "pphlo.constant"() {value = dense<8> : tensor<144xui32>} : () -> tensor<144x!pphlo.pint>
    %257 = "pphlo.constant"() {value = dense<24> : tensor<144xui32>} : () -> tensor<144x!pphlo.pint>
    %258 = "pphlo.constant"() {value = dense<16> : tensor<144xui32>} : () -> tensor<144x!pphlo.pint>
    %259 = "pphlo.constant"() {value = dense<3> : tensor<144xui32>} : () -> tensor<144x!pphlo.pint>
    %260 = "pphlo.constant"() {value = dense<29> : tensor<144xui32>} : () -> tensor<144x!pphlo.pint>
    %261 = "pphlo.constant"() {value = dense<2> : tensor<144xui32>} : () -> tensor<144x!pphlo.pint>
    %262 = "pphlo.constant"() {value = dense<1> : tensor<144xui32>} : () -> tensor<144x!pphlo.pint>
    %263 = "pphlo.constant"() {value = dense<3798891600> : tensor<1xui32>} : () -> tensor<1x!pphlo.pint>
    %264 = "pphlo.constant"() {value = dense<466688986> : tensor<2xui32>} : () -> tensor<2x!pphlo.pint>
    %265 = "pphlo.constant"() {value = dense<466688990> : tensor<2xui32>} : () -> tensor<2x!pphlo.pint>
    %266 = "pphlo.constant"() {value = dense<466688987> : tensor<2xui32>} : () -> tensor<2x!pphlo.pint>
    %267 = "pphlo.constant"() {value = dense<-1.99999988> : tensor<3x3x1x32xf32>} : () -> tensor<3x3x1x32x!pphlo.pfxp>
    %268 = "pphlo.broadcast"(%arg3) {broadcast_dimensions = dense<0> : tensor<1xi64>} : (tensor<50x!pphlo.pint>) -> tensor<50x10x!pphlo.pint>
    %269 = "pphlo.iota"() {iota_dimension = 0 : i64} : () -> tensor<10x!pphlo.pint>
    %270 = "pphlo.broadcast"(%269) {broadcast_dimensions = dense<1> : tensor<1xi64>} : (tensor<10x!pphlo.pint>) -> tensor<50x10x!pphlo.pint>
    %271 = "pphlo.equal"(%268, %270) : (tensor<50x10x!pphlo.pint>, tensor<50x10x!pphlo.pint>) -> tensor<50x10x!pphlo.pint>
    %272 = "pphlo.iota"() {iota_dimension = 0 : i64} : () -> tensor<288x!pphlo.pint>
    %273 = "pphlo.slice"(%272) {limit_indices = dense<144> : tensor<1xi64>, start_indices = dense<0> : tensor<1xi64>, strides = dense<1> : tensor<1xi64>} : (tensor<288x!pphlo.pint>) -> tensor<144x!pphlo.pint>
    %274 = "pphlo.iota"() {iota_dimension = 0 : i64} : () -> tensor<4x!pphlo.pint>
    %275 = "pphlo.slice"(%274) {limit_indices = dense<2> : tensor<1xi64>, start_indices = dense<0> : tensor<1xi64>, strides = dense<1> : tensor<1xi64>} : (tensor<4x!pphlo.pint>) -> tensor<2x!pphlo.pint>
    %276 = "pphlo.slice"(%274) {limit_indices = dense<4> : tensor<1xi64>, start_indices = dense<2> : tensor<1xi64>, strides = dense<1> : tensor<1xi64>} : (tensor<4x!pphlo.pint>) -> tensor<2x!pphlo.pint>
    %277 = "pphlo.add"(%275, %276) : (tensor<2x!pphlo.pint>, tensor<2x!pphlo.pint>) -> tensor<2x!pphlo.pint>
    %278 = "pphlo.shift_left"(%276, %208) : (tensor<2x!pphlo.pint>, tensor<2x!pphlo.pint>) -> tensor<2x!pphlo.pint>
    %279 = "pphlo.shift_right_logical"(%276, %207) : (tensor<2x!pphlo.pint>, tensor<2x!pphlo.pint>) -> tensor<2x!pphlo.pint>
    %280 = "pphlo.or"(%278, %279) : (tensor<2x!pphlo.pint>, tensor<2x!pphlo.pint>) -> tensor<2x!pphlo.pint>
    %281 = "pphlo.xor"(%277, %280) : (tensor<2x!pphlo.pint>, tensor<2x!pphlo.pint>) -> tensor<2x!pphlo.pint>
    %282 = "pphlo.add"(%277, %281) : (tensor<2x!pphlo.pint>, tensor<2x!pphlo.pint>) -> tensor<2x!pphlo.pint>
    %283 = "pphlo.shift_left"(%281, %206) : (tensor<2x!pphlo.pint>, tensor<2x!pphlo.pint>) -> tensor<2x!pphlo.pint>
    %284 = "pphlo.shift_right_logical"(%281, %205) : (tensor<2x!pphlo.pint>, tensor<2x!pphlo.pint>) -> tensor<2x!pphlo.pint>
    %285 = "pphlo.or"(%283, %284) : (tensor<2x!pphlo.pint>, tensor<2x!pphlo.pint>) -> tensor<2x!pphlo.pint>
    %286 = "pphlo.xor"(%282, %285) : (tensor<2x!pphlo.pint>, tensor<2x!pphlo.pint>) -> tensor<2x!pphlo.pint>
    %287 = "pphlo.add"(%282, %286) : (tensor<2x!pphlo.pint>, tensor<2x!pphlo.pint>) -> tensor<2x!pphlo.pint>
    %288 = "pphlo.shift_left"(%286, %203) : (tensor<2x!pphlo.pint>, tensor<2x!pphlo.pint>) -> tensor<2x!pphlo.pint>
    %289 = "pphlo.shift_right_logical"(%286, %204) : (tensor<2x!pphlo.pint>, tensor<2x!pphlo.pint>) -> tensor<2x!pphlo.pint>
    %290 = "pphlo.or"(%288, %289) : (tensor<2x!pphlo.pint>, tensor<2x!pphlo.pint>) -> tensor<2x!pphlo.pint>
    %291 = "pphlo.xor"(%287, %290) : (tensor<2x!pphlo.pint>, tensor<2x!pphlo.pint>) -> tensor<2x!pphlo.pint>
    %292 = "pphlo.add"(%287, %291) : (tensor<2x!pphlo.pint>, tensor<2x!pphlo.pint>) -> tensor<2x!pphlo.pint>
    %293 = "pphlo.shift_left"(%291, %204) : (tensor<2x!pphlo.pint>, tensor<2x!pphlo.pint>) -> tensor<2x!pphlo.pint>
    %294 = "pphlo.shift_right_logical"(%291, %203) : (tensor<2x!pphlo.pint>, tensor<2x!pphlo.pint>) -> tensor<2x!pphlo.pint>
    %295 = "pphlo.or"(%293, %294) : (tensor<2x!pphlo.pint>, tensor<2x!pphlo.pint>) -> tensor<2x!pphlo.pint>
    %296 = "pphlo.xor"(%292, %295) : (tensor<2x!pphlo.pint>, tensor<2x!pphlo.pint>) -> tensor<2x!pphlo.pint>
    %297 = "pphlo.add"(%296, %266) : (tensor<2x!pphlo.pint>, tensor<2x!pphlo.pint>) -> tensor<2x!pphlo.pint>
    %298 = "pphlo.add"(%292, %297) : (tensor<2x!pphlo.pint>, tensor<2x!pphlo.pint>) -> tensor<2x!pphlo.pint>
    %299 = "pphlo.shift_left"(%297, %205) : (tensor<2x!pphlo.pint>, tensor<2x!pphlo.pint>) -> tensor<2x!pphlo.pint>
    %300 = "pphlo.shift_right_logical"(%297, %206) : (tensor<2x!pphlo.pint>, tensor<2x!pphlo.pint>) -> tensor<2x!pphlo.pint>
    %301 = "pphlo.or"(%299, %300) : (tensor<2x!pphlo.pint>, tensor<2x!pphlo.pint>) -> tensor<2x!pphlo.pint>
    %302 = "pphlo.xor"(%298, %301) : (tensor<2x!pphlo.pint>, tensor<2x!pphlo.pint>) -> tensor<2x!pphlo.pint>
    %303 = "pphlo.add"(%298, %302) : (tensor<2x!pphlo.pint>, tensor<2x!pphlo.pint>) -> tensor<2x!pphlo.pint>
    %304 = "pphlo.shift_left"(%302, %214) : (tensor<2x!pphlo.pint>, tensor<2x!pphlo.pint>) -> tensor<2x!pphlo.pint>
    %305 = "pphlo.shift_right_logical"(%302, %213) : (tensor<2x!pphlo.pint>, tensor<2x!pphlo.pint>) -> tensor<2x!pphlo.pint>
    %306 = "pphlo.or"(%304, %305) : (tensor<2x!pphlo.pint>, tensor<2x!pphlo.pint>) -> tensor<2x!pphlo.pint>
    %307 = "pphlo.xor"(%303, %306) : (tensor<2x!pphlo.pint>, tensor<2x!pphlo.pint>) -> tensor<2x!pphlo.pint>
    %308 = "pphlo.add"(%303, %307) : (tensor<2x!pphlo.pint>, tensor<2x!pphlo.pint>) -> tensor<2x!pphlo.pint>
    %309 = "pphlo.shift_left"(%307, %212) : (tensor<2x!pphlo.pint>, tensor<2x!pphlo.pint>) -> tensor<2x!pphlo.pint>
    %310 = "pphlo.shift_right_logical"(%307, %212) : (tensor<2x!pphlo.pint>, tensor<2x!pphlo.pint>) -> tensor<2x!pphlo.pint>
    %311 = "pphlo.or"(%309, %310) : (tensor<2x!pphlo.pint>, tensor<2x!pphlo.pint>) -> tensor<2x!pphlo.pint>
    %312 = "pphlo.xor"(%308, %311) : (tensor<2x!pphlo.pint>, tensor<2x!pphlo.pint>) -> tensor<2x!pphlo.pint>
    %313 = "pphlo.add"(%308, %312) : (tensor<2x!pphlo.pint>, tensor<2x!pphlo.pint>) -> tensor<2x!pphlo.pint>
    %314 = "pphlo.add"(%313, %264) : (tensor<2x!pphlo.pint>, tensor<2x!pphlo.pint>) -> tensor<2x!pphlo.pint>
    %315 = "pphlo.shift_left"(%312, %211) : (tensor<2x!pphlo.pint>, tensor<2x!pphlo.pint>) -> tensor<2x!pphlo.pint>
    %316 = "pphlo.shift_right_logical"(%312, %210) : (tensor<2x!pphlo.pint>, tensor<2x!pphlo.pint>) -> tensor<2x!pphlo.pint>
    %317 = "pphlo.or"(%315, %316) : (tensor<2x!pphlo.pint>, tensor<2x!pphlo.pint>) -> tensor<2x!pphlo.pint>
    %318 = "pphlo.xor"(%313, %317) : (tensor<2x!pphlo.pint>, tensor<2x!pphlo.pint>) -> tensor<2x!pphlo.pint>
    %319 = "pphlo.add"(%318, %215) : (tensor<2x!pphlo.pint>, tensor<2x!pphlo.pint>) -> tensor<2x!pphlo.pint>
    %320 = "pphlo.add"(%314, %319) : (tensor<2x!pphlo.pint>, tensor<2x!pphlo.pint>) -> tensor<2x!pphlo.pint>
    %321 = "pphlo.shift_left"(%319, %208) : (tensor<2x!pphlo.pint>, tensor<2x!pphlo.pint>) -> tensor<2x!pphlo.pint>
    %322 = "pphlo.shift_right_logical"(%319, %207) : (tensor<2x!pphlo.pint>, tensor<2x!pphlo.pint>) -> tensor<2x!pphlo.pint>
    %323 = "pphlo.or"(%321, %322) : (tensor<2x!pphlo.pint>, tensor<2x!pphlo.pint>) -> tensor<2x!pphlo.pint>
    %324 = "pphlo.xor"(%320, %323) : (tensor<2x!pphlo.pint>, tensor<2x!pphlo.pint>) -> tensor<2x!pphlo.pint>
    %325 = "pphlo.add"(%320, %324) : (tensor<2x!pphlo.pint>, tensor<2x!pphlo.pint>) -> tensor<2x!pphlo.pint>
    %326 = "pphlo.shift_left"(%324, %206) : (tensor<2x!pphlo.pint>, tensor<2x!pphlo.pint>) -> tensor<2x!pphlo.pint>
    %327 = "pphlo.shift_right_logical"(%324, %205) : (tensor<2x!pphlo.pint>, tensor<2x!pphlo.pint>) -> tensor<2x!pphlo.pint>
    %328 = "pphlo.or"(%326, %327) : (tensor<2x!pphlo.pint>, tensor<2x!pphlo.pint>) -> tensor<2x!pphlo.pint>
    %329 = "pphlo.xor"(%325, %328) : (tensor<2x!pphlo.pint>, tensor<2x!pphlo.pint>) -> tensor<2x!pphlo.pint>
    %330 = "pphlo.add"(%325, %329) : (tensor<2x!pphlo.pint>, tensor<2x!pphlo.pint>) -> tensor<2x!pphlo.pint>
    %331 = "pphlo.shift_left"(%329, %203) : (tensor<2x!pphlo.pint>, tensor<2x!pphlo.pint>) -> tensor<2x!pphlo.pint>
    %332 = "pphlo.shift_right_logical"(%329, %204) : (tensor<2x!pphlo.pint>, tensor<2x!pphlo.pint>) -> tensor<2x!pphlo.pint>
    %333 = "pphlo.or"(%331, %332) : (tensor<2x!pphlo.pint>, tensor<2x!pphlo.pint>) -> tensor<2x!pphlo.pint>
    %334 = "pphlo.xor"(%330, %333) : (tensor<2x!pphlo.pint>, tensor<2x!pphlo.pint>) -> tensor<2x!pphlo.pint>
    %335 = "pphlo.add"(%330, %334) : (tensor<2x!pphlo.pint>, tensor<2x!pphlo.pint>) -> tensor<2x!pphlo.pint>
    %336 = "pphlo.shift_left"(%334, %204) : (tensor<2x!pphlo.pint>, tensor<2x!pphlo.pint>) -> tensor<2x!pphlo.pint>
    %337 = "pphlo.shift_right_logical"(%334, %203) : (tensor<2x!pphlo.pint>, tensor<2x!pphlo.pint>) -> tensor<2x!pphlo.pint>
    %338 = "pphlo.or"(%336, %337) : (tensor<2x!pphlo.pint>, tensor<2x!pphlo.pint>) -> tensor<2x!pphlo.pint>
    %339 = "pphlo.xor"(%335, %338) : (tensor<2x!pphlo.pint>, tensor<2x!pphlo.pint>) -> tensor<2x!pphlo.pint>
    %340 = "pphlo.add"(%339, %213) : (tensor<2x!pphlo.pint>, tensor<2x!pphlo.pint>) -> tensor<2x!pphlo.pint>
    %341 = "pphlo.add"(%335, %340) : (tensor<2x!pphlo.pint>, tensor<2x!pphlo.pint>) -> tensor<2x!pphlo.pint>
    %342 = "pphlo.shift_left"(%340, %205) : (tensor<2x!pphlo.pint>, tensor<2x!pphlo.pint>) -> tensor<2x!pphlo.pint>
    %343 = "pphlo.shift_right_logical"(%340, %206) : (tensor<2x!pphlo.pint>, tensor<2x!pphlo.pint>) -> tensor<2x!pphlo.pint>
    %344 = "pphlo.or"(%342, %343) : (tensor<2x!pphlo.pint>, tensor<2x!pphlo.pint>) -> tensor<2x!pphlo.pint>
    %345 = "pphlo.xor"(%341, %344) : (tensor<2x!pphlo.pint>, tensor<2x!pphlo.pint>) -> tensor<2x!pphlo.pint>
    %346 = "pphlo.add"(%341, %345) : (tensor<2x!pphlo.pint>, tensor<2x!pphlo.pint>) -> tensor<2x!pphlo.pint>
    %347 = "pphlo.shift_left"(%345, %214) : (tensor<2x!pphlo.pint>, tensor<2x!pphlo.pint>) -> tensor<2x!pphlo.pint>
    %348 = "pphlo.shift_right_logical"(%345, %213) : (tensor<2x!pphlo.pint>, tensor<2x!pphlo.pint>) -> tensor<2x!pphlo.pint>
    %349 = "pphlo.or"(%347, %348) : (tensor<2x!pphlo.pint>, tensor<2x!pphlo.pint>) -> tensor<2x!pphlo.pint>
    %350 = "pphlo.xor"(%346, %349) : (tensor<2x!pphlo.pint>, tensor<2x!pphlo.pint>) -> tensor<2x!pphlo.pint>
    %351 = "pphlo.add"(%346, %350) : (tensor<2x!pphlo.pint>, tensor<2x!pphlo.pint>) -> tensor<2x!pphlo.pint>
    %352 = "pphlo.shift_left"(%350, %212) : (tensor<2x!pphlo.pint>, tensor<2x!pphlo.pint>) -> tensor<2x!pphlo.pint>
    %353 = "pphlo.shift_right_logical"(%350, %212) : (tensor<2x!pphlo.pint>, tensor<2x!pphlo.pint>) -> tensor<2x!pphlo.pint>
    %354 = "pphlo.or"(%352, %353) : (tensor<2x!pphlo.pint>, tensor<2x!pphlo.pint>) -> tensor<2x!pphlo.pint>
    %355 = "pphlo.xor"(%351, %354) : (tensor<2x!pphlo.pint>, tensor<2x!pphlo.pint>) -> tensor<2x!pphlo.pint>
    %356 = "pphlo.add"(%351, %355) : (tensor<2x!pphlo.pint>, tensor<2x!pphlo.pint>) -> tensor<2x!pphlo.pint>
    %357 = "pphlo.shift_left"(%355, %211) : (tensor<2x!pphlo.pint>, tensor<2x!pphlo.pint>) -> tensor<2x!pphlo.pint>
    %358 = "pphlo.shift_right_logical"(%355, %210) : (tensor<2x!pphlo.pint>, tensor<2x!pphlo.pint>) -> tensor<2x!pphlo.pint>
    %359 = "pphlo.or"(%357, %358) : (tensor<2x!pphlo.pint>, tensor<2x!pphlo.pint>) -> tensor<2x!pphlo.pint>
    %360 = "pphlo.xor"(%356, %359) : (tensor<2x!pphlo.pint>, tensor<2x!pphlo.pint>) -> tensor<2x!pphlo.pint>
    %361 = "pphlo.add"(%360, %265) : (tensor<2x!pphlo.pint>, tensor<2x!pphlo.pint>) -> tensor<2x!pphlo.pint>
    %362 = "pphlo.add"(%356, %361) : (tensor<2x!pphlo.pint>, tensor<2x!pphlo.pint>) -> tensor<2x!pphlo.pint>
    %363 = "pphlo.shift_left"(%361, %208) : (tensor<2x!pphlo.pint>, tensor<2x!pphlo.pint>) -> tensor<2x!pphlo.pint>
    %364 = "pphlo.shift_right_logical"(%361, %207) : (tensor<2x!pphlo.pint>, tensor<2x!pphlo.pint>) -> tensor<2x!pphlo.pint>
    %365 = "pphlo.or"(%363, %364) : (tensor<2x!pphlo.pint>, tensor<2x!pphlo.pint>) -> tensor<2x!pphlo.pint>
    %366 = "pphlo.xor"(%362, %365) : (tensor<2x!pphlo.pint>, tensor<2x!pphlo.pint>) -> tensor<2x!pphlo.pint>
    %367 = "pphlo.add"(%362, %366) : (tensor<2x!pphlo.pint>, tensor<2x!pphlo.pint>) -> tensor<2x!pphlo.pint>
    %368 = "pphlo.shift_left"(%366, %206) : (tensor<2x!pphlo.pint>, tensor<2x!pphlo.pint>) -> tensor<2x!pphlo.pint>
    %369 = "pphlo.shift_right_logical"(%366, %205) : (tensor<2x!pphlo.pint>, tensor<2x!pphlo.pint>) -> tensor<2x!pphlo.pint>
    %370 = "pphlo.or"(%368, %369) : (tensor<2x!pphlo.pint>, tensor<2x!pphlo.pint>) -> tensor<2x!pphlo.pint>
    %371 = "pphlo.xor"(%367, %370) : (tensor<2x!pphlo.pint>, tensor<2x!pphlo.pint>) -> tensor<2x!pphlo.pint>
    %372 = "pphlo.add"(%367, %371) : (tensor<2x!pphlo.pint>, tensor<2x!pphlo.pint>) -> tensor<2x!pphlo.pint>
    %373 = "pphlo.shift_left"(%371, %203) : (tensor<2x!pphlo.pint>, tensor<2x!pphlo.pint>) -> tensor<2x!pphlo.pint>
    %374 = "pphlo.shift_right_logical"(%371, %204) : (tensor<2x!pphlo.pint>, tensor<2x!pphlo.pint>) -> tensor<2x!pphlo.pint>
    %375 = "pphlo.or"(%373, %374) : (tensor<2x!pphlo.pint>, tensor<2x!pphlo.pint>) -> tensor<2x!pphlo.pint>
    %376 = "pphlo.xor"(%372, %375) : (tensor<2x!pphlo.pint>, tensor<2x!pphlo.pint>) -> tensor<2x!pphlo.pint>
    %377 = "pphlo.add"(%372, %376) : (tensor<2x!pphlo.pint>, tensor<2x!pphlo.pint>) -> tensor<2x!pphlo.pint>
    %378 = "pphlo.add"(%377, %264) : (tensor<2x!pphlo.pint>, tensor<2x!pphlo.pint>) -> tensor<2x!pphlo.pint>
    %379 = "pphlo.shift_left"(%376, %204) : (tensor<2x!pphlo.pint>, tensor<2x!pphlo.pint>) -> tensor<2x!pphlo.pint>
    %380 = "pphlo.shift_right_logical"(%376, %203) : (tensor<2x!pphlo.pint>, tensor<2x!pphlo.pint>) -> tensor<2x!pphlo.pint>
    %381 = "pphlo.or"(%379, %380) : (tensor<2x!pphlo.pint>, tensor<2x!pphlo.pint>) -> tensor<2x!pphlo.pint>
    %382 = "pphlo.xor"(%377, %381) : (tensor<2x!pphlo.pint>, tensor<2x!pphlo.pint>) -> tensor<2x!pphlo.pint>
    %383 = "pphlo.add"(%382, %202) : (tensor<2x!pphlo.pint>, tensor<2x!pphlo.pint>) -> tensor<2x!pphlo.pint>
    %384 = "pphlo.concatenate"(%378, %383) {dimension = 0 : i64} : (tensor<2x!pphlo.pint>, tensor<2x!pphlo.pint>) -> tensor<4x!pphlo.pint>
    %385 = "pphlo.reshape"(%384) : (tensor<4x!pphlo.pint>) -> tensor<2x2x!pphlo.pint>
    %386 = "pphlo.slice"(%385) {limit_indices = dense<[2, 1]> : tensor<2xi64>, start_indices = dense<[1, 0]> : tensor<2xi64>, strides = dense<1> : tensor<2xi64>} : (tensor<2x2x!pphlo.pint>) -> tensor<1x1x!pphlo.pint>
    %387 = "pphlo.reshape"(%386) : (tensor<1x1x!pphlo.pint>) -> tensor<1x!pphlo.pint>
    %388 = "pphlo.slice"(%385) {limit_indices = dense<2> : tensor<2xi64>, start_indices = dense<[1, 0]> : tensor<2xi64>, strides = dense<1> : tensor<2xi64>} : (tensor<2x2x!pphlo.pint>) -> tensor<1x2x!pphlo.pint>
    %389 = "pphlo.reshape"(%388) : (tensor<1x2x!pphlo.pint>) -> tensor<2x!pphlo.pint>
    %390 = "pphlo.slice"(%389) {limit_indices = dense<2> : tensor<1xi64>, start_indices = dense<1> : tensor<1xi64>, strides = dense<1> : tensor<1xi64>} : (tensor<2x!pphlo.pint>) -> tensor<1x!pphlo.pint>
    %391 = "pphlo.add"(%390, %263) : (tensor<1x!pphlo.pint>, tensor<1x!pphlo.pint>) -> tensor<1x!pphlo.pint>
    %392 = "pphlo.add"(%387, %391) : (tensor<1x!pphlo.pint>, tensor<1x!pphlo.pint>) -> tensor<1x!pphlo.pint>
    %393 = "pphlo.shift_left"(%391, %75) : (tensor<1x!pphlo.pint>, tensor<1x!pphlo.pint>) -> tensor<1x!pphlo.pint>
    %394 = "pphlo.shift_right_logical"(%391, %74) : (tensor<1x!pphlo.pint>, tensor<1x!pphlo.pint>) -> tensor<1x!pphlo.pint>
    %395 = "pphlo.or"(%393, %394) : (tensor<1x!pphlo.pint>, tensor<1x!pphlo.pint>) -> tensor<1x!pphlo.pint>
    %396 = "pphlo.xor"(%392, %395) : (tensor<1x!pphlo.pint>, tensor<1x!pphlo.pint>) -> tensor<1x!pphlo.pint>
    %397 = "pphlo.add"(%392, %396) : (tensor<1x!pphlo.pint>, tensor<1x!pphlo.pint>) -> tensor<1x!pphlo.pint>
    %398 = "pphlo.shift_left"(%396, %73) : (tensor<1x!pphlo.pint>, tensor<1x!pphlo.pint>) -> tensor<1x!pphlo.pint>
    %399 = "pphlo.shift_right_logical"(%396, %72) : (tensor<1x!pphlo.pint>, tensor<1x!pphlo.pint>) -> tensor<1x!pphlo.pint>
    %400 = "pphlo.or"(%398, %399) : (tensor<1x!pphlo.pint>, tensor<1x!pphlo.pint>) -> tensor<1x!pphlo.pint>
    %401 = "pphlo.xor"(%397, %400) : (tensor<1x!pphlo.pint>, tensor<1x!pphlo.pint>) -> tensor<1x!pphlo.pint>
    %402 = "pphlo.add"(%397, %401) : (tensor<1x!pphlo.pint>, tensor<1x!pphlo.pint>) -> tensor<1x!pphlo.pint>
    %403 = "pphlo.shift_left"(%401, %70) : (tensor<1x!pphlo.pint>, tensor<1x!pphlo.pint>) -> tensor<1x!pphlo.pint>
    %404 = "pphlo.shift_right_logical"(%401, %71) : (tensor<1x!pphlo.pint>, tensor<1x!pphlo.pint>) -> tensor<1x!pphlo.pint>
    %405 = "pphlo.or"(%403, %404) : (tensor<1x!pphlo.pint>, tensor<1x!pphlo.pint>) -> tensor<1x!pphlo.pint>
    %406 = "pphlo.xor"(%402, %405) : (tensor<1x!pphlo.pint>, tensor<1x!pphlo.pint>) -> tensor<1x!pphlo.pint>
    %407 = "pphlo.add"(%402, %406) : (tensor<1x!pphlo.pint>, tensor<1x!pphlo.pint>) -> tensor<1x!pphlo.pint>
    %408 = "pphlo.add"(%407, %390) : (tensor<1x!pphlo.pint>, tensor<1x!pphlo.pint>) -> tensor<1x!pphlo.pint>
    %409 = "pphlo.shift_left"(%406, %71) : (tensor<1x!pphlo.pint>, tensor<1x!pphlo.pint>) -> tensor<1x!pphlo.pint>
    %410 = "pphlo.shift_right_logical"(%406, %70) : (tensor<1x!pphlo.pint>, tensor<1x!pphlo.pint>) -> tensor<1x!pphlo.pint>
    %411 = "pphlo.or"(%409, %410) : (tensor<1x!pphlo.pint>, tensor<1x!pphlo.pint>) -> tensor<1x!pphlo.pint>
    %412 = "pphlo.xor"(%407, %411) : (tensor<1x!pphlo.pint>, tensor<1x!pphlo.pint>) -> tensor<1x!pphlo.pint>
    %413 = "pphlo.reshape"(%386) : (tensor<1x1x!pphlo.pint>) -> tensor<!pphlo.pint>
    %414 = "pphlo.reshape"(%390) : (tensor<1x!pphlo.pint>) -> tensor<!pphlo.pint>
    %415 = "pphlo.xor"(%413, %414) : (tensor<!pphlo.pint>, tensor<!pphlo.pint>) -> tensor<!pphlo.pint>
    %416 = "pphlo.xor"(%415, %68) : (tensor<!pphlo.pint>, tensor<!pphlo.pint>) -> tensor<!pphlo.pint>
    %417 = "pphlo.reshape"(%416) : (tensor<!pphlo.pint>) -> tensor<1x!pphlo.pint>
    %418 = "pphlo.add"(%412, %417) : (tensor<1x!pphlo.pint>, tensor<1x!pphlo.pint>) -> tensor<1x!pphlo.pint>
    %419 = "pphlo.add"(%418, %83) : (tensor<1x!pphlo.pint>, tensor<1x!pphlo.pint>) -> tensor<1x!pphlo.pint>
    %420 = "pphlo.add"(%408, %419) : (tensor<1x!pphlo.pint>, tensor<1x!pphlo.pint>) -> tensor<1x!pphlo.pint>
    %421 = "pphlo.shift_left"(%419, %72) : (tensor<1x!pphlo.pint>, tensor<1x!pphlo.pint>) -> tensor<1x!pphlo.pint>
    %422 = "pphlo.shift_right_logical"(%419, %73) : (tensor<1x!pphlo.pint>, tensor<1x!pphlo.pint>) -> tensor<1x!pphlo.pint>
    %423 = "pphlo.or"(%421, %422) : (tensor<1x!pphlo.pint>, tensor<1x!pphlo.pint>) -> tensor<1x!pphlo.pint>
    %424 = "pphlo.xor"(%420, %423) : (tensor<1x!pphlo.pint>, tensor<1x!pphlo.pint>) -> tensor<1x!pphlo.pint>
    %425 = "pphlo.add"(%420, %424) : (tensor<1x!pphlo.pint>, tensor<1x!pphlo.pint>) -> tensor<1x!pphlo.pint>
    %426 = "pphlo.shift_left"(%424, %81) : (tensor<1x!pphlo.pint>, tensor<1x!pphlo.pint>) -> tensor<1x!pphlo.pint>
    %427 = "pphlo.shift_right_logical"(%424, %80) : (tensor<1x!pphlo.pint>, tensor<1x!pphlo.pint>) -> tensor<1x!pphlo.pint>
    %428 = "pphlo.or"(%426, %427) : (tensor<1x!pphlo.pint>, tensor<1x!pphlo.pint>) -> tensor<1x!pphlo.pint>
    %429 = "pphlo.xor"(%425, %428) : (tensor<1x!pphlo.pint>, tensor<1x!pphlo.pint>) -> tensor<1x!pphlo.pint>
    %430 = "pphlo.add"(%425, %429) : (tensor<1x!pphlo.pint>, tensor<1x!pphlo.pint>) -> tensor<1x!pphlo.pint>
    %431 = "pphlo.shift_left"(%429, %79) : (tensor<1x!pphlo.pint>, tensor<1x!pphlo.pint>) -> tensor<1x!pphlo.pint>
    %432 = "pphlo.shift_right_logical"(%429, %79) : (tensor<1x!pphlo.pint>, tensor<1x!pphlo.pint>) -> tensor<1x!pphlo.pint>
    %433 = "pphlo.or"(%431, %432) : (tensor<1x!pphlo.pint>, tensor<1x!pphlo.pint>) -> tensor<1x!pphlo.pint>
    %434 = "pphlo.xor"(%430, %433) : (tensor<1x!pphlo.pint>, tensor<1x!pphlo.pint>) -> tensor<1x!pphlo.pint>
    %435 = "pphlo.add"(%430, %434) : (tensor<1x!pphlo.pint>, tensor<1x!pphlo.pint>) -> tensor<1x!pphlo.pint>
    %436 = "pphlo.add"(%435, %417) : (tensor<1x!pphlo.pint>, tensor<1x!pphlo.pint>) -> tensor<1x!pphlo.pint>
    %437 = "pphlo.shift_left"(%434, %78) : (tensor<1x!pphlo.pint>, tensor<1x!pphlo.pint>) -> tensor<1x!pphlo.pint>
    %438 = "pphlo.shift_right_logical"(%434, %77) : (tensor<1x!pphlo.pint>, tensor<1x!pphlo.pint>) -> tensor<1x!pphlo.pint>
    %439 = "pphlo.or"(%437, %438) : (tensor<1x!pphlo.pint>, tensor<1x!pphlo.pint>) -> tensor<1x!pphlo.pint>
    %440 = "pphlo.xor"(%435, %439) : (tensor<1x!pphlo.pint>, tensor<1x!pphlo.pint>) -> tensor<1x!pphlo.pint>
    %441 = "pphlo.add"(%440, %387) : (tensor<1x!pphlo.pint>, tensor<1x!pphlo.pint>) -> tensor<1x!pphlo.pint>
    %442 = "pphlo.add"(%441, %82) : (tensor<1x!pphlo.pint>, tensor<1x!pphlo.pint>) -> tensor<1x!pphlo.pint>
    %443 = "pphlo.add"(%436, %442) : (tensor<1x!pphlo.pint>, tensor<1x!pphlo.pint>) -> tensor<1x!pphlo.pint>
    %444 = "pphlo.shift_left"(%442, %75) : (tensor<1x!pphlo.pint>, tensor<1x!pphlo.pint>) -> tensor<1x!pphlo.pint>
    %445 = "pphlo.shift_right_logical"(%442, %74) : (tensor<1x!pphlo.pint>, tensor<1x!pphlo.pint>) -> tensor<1x!pphlo.pint>
    %446 = "pphlo.or"(%444, %445) : (tensor<1x!pphlo.pint>, tensor<1x!pphlo.pint>) -> tensor<1x!pphlo.pint>
    %447 = "pphlo.xor"(%443, %446) : (tensor<1x!pphlo.pint>, tensor<1x!pphlo.pint>) -> tensor<1x!pphlo.pint>
    %448 = "pphlo.add"(%443, %447) : (tensor<1x!pphlo.pint>, tensor<1x!pphlo.pint>) -> tensor<1x!pphlo.pint>
    %449 = "pphlo.shift_left"(%447, %73) : (tensor<1x!pphlo.pint>, tensor<1x!pphlo.pint>) -> tensor<1x!pphlo.pint>
    %450 = "pphlo.shift_right_logical"(%447, %72) : (tensor<1x!pphlo.pint>, tensor<1x!pphlo.pint>) -> tensor<1x!pphlo.pint>
    %451 = "pphlo.or"(%449, %450) : (tensor<1x!pphlo.pint>, tensor<1x!pphlo.pint>) -> tensor<1x!pphlo.pint>
    %452 = "pphlo.xor"(%448, %451) : (tensor<1x!pphlo.pint>, tensor<1x!pphlo.pint>) -> tensor<1x!pphlo.pint>
    %453 = "pphlo.add"(%448, %452) : (tensor<1x!pphlo.pint>, tensor<1x!pphlo.pint>) -> tensor<1x!pphlo.pint>
    %454 = "pphlo.shift_left"(%452, %70) : (tensor<1x!pphlo.pint>, tensor<1x!pphlo.pint>) -> tensor<1x!pphlo.pint>
    %455 = "pphlo.shift_right_logical"(%452, %71) : (tensor<1x!pphlo.pint>, tensor<1x!pphlo.pint>) -> tensor<1x!pphlo.pint>
    %456 = "pphlo.or"(%454, %455) : (tensor<1x!pphlo.pint>, tensor<1x!pphlo.pint>) -> tensor<1x!pphlo.pint>
    %457 = "pphlo.xor"(%453, %456) : (tensor<1x!pphlo.pint>, tensor<1x!pphlo.pint>) -> tensor<1x!pphlo.pint>
    %458 = "pphlo.add"(%453, %457) : (tensor<1x!pphlo.pint>, tensor<1x!pphlo.pint>) -> tensor<1x!pphlo.pint>
    %459 = "pphlo.add"(%458, %387) : (tensor<1x!pphlo.pint>, tensor<1x!pphlo.pint>) -> tensor<1x!pphlo.pint>
    %460 = "pphlo.shift_left"(%457, %71) : (tensor<1x!pphlo.pint>, tensor<1x!pphlo.pint>) -> tensor<1x!pphlo.pint>
    %461 = "pphlo.shift_right_logical"(%457, %70) : (tensor<1x!pphlo.pint>, tensor<1x!pphlo.pint>) -> tensor<1x!pphlo.pint>
    %462 = "pphlo.or"(%460, %461) : (tensor<1x!pphlo.pint>, tensor<1x!pphlo.pint>) -> tensor<1x!pphlo.pint>
    %463 = "pphlo.xor"(%458, %462) : (tensor<1x!pphlo.pint>, tensor<1x!pphlo.pint>) -> tensor<1x!pphlo.pint>
    %464 = "pphlo.add"(%463, %390) : (tensor<1x!pphlo.pint>, tensor<1x!pphlo.pint>) -> tensor<1x!pphlo.pint>
    %465 = "pphlo.add"(%464, %80) : (tensor<1x!pphlo.pint>, tensor<1x!pphlo.pint>) -> tensor<1x!pphlo.pint>
    %466 = "pphlo.add"(%459, %465) : (tensor<1x!pphlo.pint>, tensor<1x!pphlo.pint>) -> tensor<1x!pphlo.pint>
    %467 = "pphlo.shift_left"(%465, %72) : (tensor<1x!pphlo.pint>, tensor<1x!pphlo.pint>) -> tensor<1x!pphlo.pint>
    %468 = "pphlo.shift_right_logical"(%465, %73) : (tensor<1x!pphlo.pint>, tensor<1x!pphlo.pint>) -> tensor<1x!pphlo.pint>
    %469 = "pphlo.or"(%467, %468) : (tensor<1x!pphlo.pint>, tensor<1x!pphlo.pint>) -> tensor<1x!pphlo.pint>
    %470 = "pphlo.xor"(%466, %469) : (tensor<1x!pphlo.pint>, tensor<1x!pphlo.pint>) -> tensor<1x!pphlo.pint>
    %471 = "pphlo.add"(%466, %470) : (tensor<1x!pphlo.pint>, tensor<1x!pphlo.pint>) -> tensor<1x!pphlo.pint>
    %472 = "pphlo.shift_left"(%470, %81) : (tensor<1x!pphlo.pint>, tensor<1x!pphlo.pint>) -> tensor<1x!pphlo.pint>
    %473 = "pphlo.shift_right_logical"(%470, %80) : (tensor<1x!pphlo.pint>, tensor<1x!pphlo.pint>) -> tensor<1x!pphlo.pint>
    %474 = "pphlo.or"(%472, %473) : (tensor<1x!pphlo.pint>, tensor<1x!pphlo.pint>) -> tensor<1x!pphlo.pint>
    %475 = "pphlo.xor"(%471, %474) : (tensor<1x!pphlo.pint>, tensor<1x!pphlo.pint>) -> tensor<1x!pphlo.pint>
    %476 = "pphlo.add"(%471, %475) : (tensor<1x!pphlo.pint>, tensor<1x!pphlo.pint>) -> tensor<1x!pphlo.pint>
    %477 = "pphlo.shift_left"(%475, %79) : (tensor<1x!pphlo.pint>, tensor<1x!pphlo.pint>) -> tensor<1x!pphlo.pint>
    %478 = "pphlo.shift_right_logical"(%475, %79) : (tensor<1x!pphlo.pint>, tensor<1x!pphlo.pint>) -> tensor<1x!pphlo.pint>
    %479 = "pphlo.or"(%477, %478) : (tensor<1x!pphlo.pint>, tensor<1x!pphlo.pint>) -> tensor<1x!pphlo.pint>
    %480 = "pphlo.xor"(%476, %479) : (tensor<1x!pphlo.pint>, tensor<1x!pphlo.pint>) -> tensor<1x!pphlo.pint>
    %481 = "pphlo.add"(%476, %480) : (tensor<1x!pphlo.pint>, tensor<1x!pphlo.pint>) -> tensor<1x!pphlo.pint>
    %482 = "pphlo.add"(%481, %390) : (tensor<1x!pphlo.pint>, tensor<1x!pphlo.pint>) -> tensor<1x!pphlo.pint>
    %483 = "pphlo.shift_left"(%480, %78) : (tensor<1x!pphlo.pint>, tensor<1x!pphlo.pint>) -> tensor<1x!pphlo.pint>
    %484 = "pphlo.shift_right_logical"(%480, %77) : (tensor<1x!pphlo.pint>, tensor<1x!pphlo.pint>) -> tensor<1x!pphlo.pint>
    %485 = "pphlo.or"(%483, %484) : (tensor<1x!pphlo.pint>, tensor<1x!pphlo.pint>) -> tensor<1x!pphlo.pint>
    %486 = "pphlo.xor"(%481, %485) : (tensor<1x!pphlo.pint>, tensor<1x!pphlo.pint>) -> tensor<1x!pphlo.pint>
    %487 = "pphlo.add"(%486, %417) : (tensor<1x!pphlo.pint>, tensor<1x!pphlo.pint>) -> tensor<1x!pphlo.pint>
    %488 = "pphlo.add"(%487, %76) : (tensor<1x!pphlo.pint>, tensor<1x!pphlo.pint>) -> tensor<1x!pphlo.pint>
    %489 = "pphlo.add"(%482, %488) : (tensor<1x!pphlo.pint>, tensor<1x!pphlo.pint>) -> tensor<1x!pphlo.pint>
    %490 = "pphlo.shift_left"(%488, %75) : (tensor<1x!pphlo.pint>, tensor<1x!pphlo.pint>) -> tensor<1x!pphlo.pint>
    %491 = "pphlo.shift_right_logical"(%488, %74) : (tensor<1x!pphlo.pint>, tensor<1x!pphlo.pint>) -> tensor<1x!pphlo.pint>
    %492 = "pphlo.or"(%490, %491) : (tensor<1x!pphlo.pint>, tensor<1x!pphlo.pint>) -> tensor<1x!pphlo.pint>
    %493 = "pphlo.xor"(%489, %492) : (tensor<1x!pphlo.pint>, tensor<1x!pphlo.pint>) -> tensor<1x!pphlo.pint>
    %494 = "pphlo.add"(%489, %493) : (tensor<1x!pphlo.pint>, tensor<1x!pphlo.pint>) -> tensor<1x!pphlo.pint>
    %495 = "pphlo.shift_left"(%493, %73) : (tensor<1x!pphlo.pint>, tensor<1x!pphlo.pint>) -> tensor<1x!pphlo.pint>
    %496 = "pphlo.shift_right_logical"(%493, %72) : (tensor<1x!pphlo.pint>, tensor<1x!pphlo.pint>) -> tensor<1x!pphlo.pint>
    %497 = "pphlo.or"(%495, %496) : (tensor<1x!pphlo.pint>, tensor<1x!pphlo.pint>) -> tensor<1x!pphlo.pint>
    %498 = "pphlo.xor"(%494, %497) : (tensor<1x!pphlo.pint>, tensor<1x!pphlo.pint>) -> tensor<1x!pphlo.pint>
    %499 = "pphlo.add"(%494, %498) : (tensor<1x!pphlo.pint>, tensor<1x!pphlo.pint>) -> tensor<1x!pphlo.pint>
    %500 = "pphlo.shift_left"(%498, %70) : (tensor<1x!pphlo.pint>, tensor<1x!pphlo.pint>) -> tensor<1x!pphlo.pint>
    %501 = "pphlo.shift_right_logical"(%498, %71) : (tensor<1x!pphlo.pint>, tensor<1x!pphlo.pint>) -> tensor<1x!pphlo.pint>
    %502 = "pphlo.or"(%500, %501) : (tensor<1x!pphlo.pint>, tensor<1x!pphlo.pint>) -> tensor<1x!pphlo.pint>
    %503 = "pphlo.xor"(%499, %502) : (tensor<1x!pphlo.pint>, tensor<1x!pphlo.pint>) -> tensor<1x!pphlo.pint>
    %504 = "pphlo.add"(%499, %503) : (tensor<1x!pphlo.pint>, tensor<1x!pphlo.pint>) -> tensor<1x!pphlo.pint>
    %505 = "pphlo.add"(%504, %417) : (tensor<1x!pphlo.pint>, tensor<1x!pphlo.pint>) -> tensor<1x!pphlo.pint>
    %506 = "pphlo.shift_left"(%503, %71) : (tensor<1x!pphlo.pint>, tensor<1x!pphlo.pint>) -> tensor<1x!pphlo.pint>
    %507 = "pphlo.shift_right_logical"(%503, %70) : (tensor<1x!pphlo.pint>, tensor<1x!pphlo.pint>) -> tensor<1x!pphlo.pint>
    %508 = "pphlo.or"(%506, %507) : (tensor<1x!pphlo.pint>, tensor<1x!pphlo.pint>) -> tensor<1x!pphlo.pint>
    %509 = "pphlo.xor"(%504, %508) : (tensor<1x!pphlo.pint>, tensor<1x!pphlo.pint>) -> tensor<1x!pphlo.pint>
    %510 = "pphlo.add"(%509, %387) : (tensor<1x!pphlo.pint>, tensor<1x!pphlo.pint>) -> tensor<1x!pphlo.pint>
    %511 = "pphlo.add"(%510, %71) : (tensor<1x!pphlo.pint>, tensor<1x!pphlo.pint>) -> tensor<1x!pphlo.pint>
    %512 = "pphlo.add"(%505, %511) : (tensor<1x!pphlo.pint>, tensor<1x!pphlo.pint>) -> tensor<1x!pphlo.pint>
    %513 = "pphlo.shift_left"(%511, %75) : (tensor<1x!pphlo.pint>, tensor<1x!pphlo.pint>) -> tensor<1x!pphlo.pint>
    %514 = "pphlo.shift_right_logical"(%511, %74) : (tensor<1x!pphlo.pint>, tensor<1x!pphlo.pint>) -> tensor<1x!pphlo.pint>
    %515 = "pphlo.or"(%513, %514) : (tensor<1x!pphlo.pint>, tensor<1x!pphlo.pint>) -> tensor<1x!pphlo.pint>
    %516 = "pphlo.xor"(%512, %515) : (tensor<1x!pphlo.pint>, tensor<1x!pphlo.pint>) -> tensor<1x!pphlo.pint>
    %517 = "pphlo.add"(%512, %516) : (tensor<1x!pphlo.pint>, tensor<1x!pphlo.pint>) -> tensor<1x!pphlo.pint>
    %518 = "pphlo.shift_left"(%516, %73) : (tensor<1x!pphlo.pint>, tensor<1x!pphlo.pint>) -> tensor<1x!pphlo.pint>
    %519 = "pphlo.shift_right_logical"(%516, %72) : (tensor<1x!pphlo.pint>, tensor<1x!pphlo.pint>) -> tensor<1x!pphlo.pint>
    %520 = "pphlo.or"(%518, %519) : (tensor<1x!pphlo.pint>, tensor<1x!pphlo.pint>) -> tensor<1x!pphlo.pint>
    %521 = "pphlo.xor"(%517, %520) : (tensor<1x!pphlo.pint>, tensor<1x!pphlo.pint>) -> tensor<1x!pphlo.pint>
    %522 = "pphlo.add"(%517, %521) : (tensor<1x!pphlo.pint>, tensor<1x!pphlo.pint>) -> tensor<1x!pphlo.pint>
    %523 = "pphlo.shift_left"(%521, %70) : (tensor<1x!pphlo.pint>, tensor<1x!pphlo.pint>) -> tensor<1x!pphlo.pint>
    %524 = "pphlo.shift_right_logical"(%521, %71) : (tensor<1x!pphlo.pint>, tensor<1x!pphlo.pint>) -> tensor<1x!pphlo.pint>
    %525 = "pphlo.or"(%523, %524) : (tensor<1x!pphlo.pint>, tensor<1x!pphlo.pint>) -> tensor<1x!pphlo.pint>
    %526 = "pphlo.xor"(%522, %525) : (tensor<1x!pphlo.pint>, tensor<1x!pphlo.pint>) -> tensor<1x!pphlo.pint>
    %527 = "pphlo.add"(%522, %526) : (tensor<1x!pphlo.pint>, tensor<1x!pphlo.pint>) -> tensor<1x!pphlo.pint>
    %528 = "pphlo.add"(%510, %69) : (tensor<1x!pphlo.pint>, tensor<1x!pphlo.pint>) -> tensor<1x!pphlo.pint>
    %529 = "pphlo.add"(%527, %528) : (tensor<1x!pphlo.pint>, tensor<1x!pphlo.pint>) -> tensor<1x!pphlo.pint>
    %530 = "pphlo.shift_left"(%526, %71) : (tensor<1x!pphlo.pint>, tensor<1x!pphlo.pint>) -> tensor<1x!pphlo.pint>
    %531 = "pphlo.shift_right_logical"(%526, %70) : (tensor<1x!pphlo.pint>, tensor<1x!pphlo.pint>) -> tensor<1x!pphlo.pint>
    %532 = "pphlo.or"(%530, %531) : (tensor<1x!pphlo.pint>, tensor<1x!pphlo.pint>) -> tensor<1x!pphlo.pint>
    %533 = "pphlo.xor"(%527, %532) : (tensor<1x!pphlo.pint>, tensor<1x!pphlo.pint>) -> tensor<1x!pphlo.pint>
    %534 = "pphlo.reshape"(%505) : (tensor<1x!pphlo.pint>) -> tensor<!pphlo.pint>
    %535 = "pphlo.reshape"(%528) : (tensor<1x!pphlo.pint>) -> tensor<!pphlo.pint>
    %536 = "pphlo.xor"(%534, %535) : (tensor<!pphlo.pint>, tensor<!pphlo.pint>) -> tensor<!pphlo.pint>
    %537 = "pphlo.xor"(%536, %68) : (tensor<!pphlo.pint>, tensor<!pphlo.pint>) -> tensor<!pphlo.pint>
    %538 = "pphlo.reshape"(%537) : (tensor<!pphlo.pint>) -> tensor<1x!pphlo.pint>
    %539 = "pphlo.add"(%533, %538) : (tensor<1x!pphlo.pint>, tensor<1x!pphlo.pint>) -> tensor<1x!pphlo.pint>
    %540 = "pphlo.add"(%539, %83) : (tensor<1x!pphlo.pint>, tensor<1x!pphlo.pint>) -> tensor<1x!pphlo.pint>
    %541 = "pphlo.add"(%529, %540) : (tensor<1x!pphlo.pint>, tensor<1x!pphlo.pint>) -> tensor<1x!pphlo.pint>
    %542 = "pphlo.shift_left"(%540, %72) : (tensor<1x!pphlo.pint>, tensor<1x!pphlo.pint>) -> tensor<1x!pphlo.pint>
    %543 = "pphlo.shift_right_logical"(%540, %73) : (tensor<1x!pphlo.pint>, tensor<1x!pphlo.pint>) -> tensor<1x!pphlo.pint>
    %544 = "pphlo.or"(%542, %543) : (tensor<1x!pphlo.pint>, tensor<1x!pphlo.pint>) -> tensor<1x!pphlo.pint>
    %545 = "pphlo.xor"(%541, %544) : (tensor<1x!pphlo.pint>, tensor<1x!pphlo.pint>) -> tensor<1x!pphlo.pint>
    %546 = "pphlo.add"(%541, %545) : (tensor<1x!pphlo.pint>, tensor<1x!pphlo.pint>) -> tensor<1x!pphlo.pint>
    %547 = "pphlo.shift_left"(%545, %81) : (tensor<1x!pphlo.pint>, tensor<1x!pphlo.pint>) -> tensor<1x!pphlo.pint>
    %548 = "pphlo.shift_right_logical"(%545, %80) : (tensor<1x!pphlo.pint>, tensor<1x!pphlo.pint>) -> tensor<1x!pphlo.pint>
    %549 = "pphlo.or"(%547, %548) : (tensor<1x!pphlo.pint>, tensor<1x!pphlo.pint>) -> tensor<1x!pphlo.pint>
    %550 = "pphlo.xor"(%546, %549) : (tensor<1x!pphlo.pint>, tensor<1x!pphlo.pint>) -> tensor<1x!pphlo.pint>
    %551 = "pphlo.add"(%546, %550) : (tensor<1x!pphlo.pint>, tensor<1x!pphlo.pint>) -> tensor<1x!pphlo.pint>
    %552 = "pphlo.shift_left"(%550, %79) : (tensor<1x!pphlo.pint>, tensor<1x!pphlo.pint>) -> tensor<1x!pphlo.pint>
    %553 = "pphlo.shift_right_logical"(%550, %79) : (tensor<1x!pphlo.pint>, tensor<1x!pphlo.pint>) -> tensor<1x!pphlo.pint>
    %554 = "pphlo.or"(%552, %553) : (tensor<1x!pphlo.pint>, tensor<1x!pphlo.pint>) -> tensor<1x!pphlo.pint>
    %555 = "pphlo.xor"(%551, %554) : (tensor<1x!pphlo.pint>, tensor<1x!pphlo.pint>) -> tensor<1x!pphlo.pint>
    %556 = "pphlo.add"(%551, %555) : (tensor<1x!pphlo.pint>, tensor<1x!pphlo.pint>) -> tensor<1x!pphlo.pint>
    %557 = "pphlo.add"(%556, %538) : (tensor<1x!pphlo.pint>, tensor<1x!pphlo.pint>) -> tensor<1x!pphlo.pint>
    %558 = "pphlo.shift_left"(%555, %78) : (tensor<1x!pphlo.pint>, tensor<1x!pphlo.pint>) -> tensor<1x!pphlo.pint>
    %559 = "pphlo.shift_right_logical"(%555, %77) : (tensor<1x!pphlo.pint>, tensor<1x!pphlo.pint>) -> tensor<1x!pphlo.pint>
    %560 = "pphlo.or"(%558, %559) : (tensor<1x!pphlo.pint>, tensor<1x!pphlo.pint>) -> tensor<1x!pphlo.pint>
    %561 = "pphlo.xor"(%556, %560) : (tensor<1x!pphlo.pint>, tensor<1x!pphlo.pint>) -> tensor<1x!pphlo.pint>
    %562 = "pphlo.add"(%561, %505) : (tensor<1x!pphlo.pint>, tensor<1x!pphlo.pint>) -> tensor<1x!pphlo.pint>
    %563 = "pphlo.add"(%562, %82) : (tensor<1x!pphlo.pint>, tensor<1x!pphlo.pint>) -> tensor<1x!pphlo.pint>
    %564 = "pphlo.add"(%557, %563) : (tensor<1x!pphlo.pint>, tensor<1x!pphlo.pint>) -> tensor<1x!pphlo.pint>
    %565 = "pphlo.shift_left"(%563, %75) : (tensor<1x!pphlo.pint>, tensor<1x!pphlo.pint>) -> tensor<1x!pphlo.pint>
    %566 = "pphlo.shift_right_logical"(%563, %74) : (tensor<1x!pphlo.pint>, tensor<1x!pphlo.pint>) -> tensor<1x!pphlo.pint>
    %567 = "pphlo.or"(%565, %566) : (tensor<1x!pphlo.pint>, tensor<1x!pphlo.pint>) -> tensor<1x!pphlo.pint>
    %568 = "pphlo.xor"(%564, %567) : (tensor<1x!pphlo.pint>, tensor<1x!pphlo.pint>) -> tensor<1x!pphlo.pint>
    %569 = "pphlo.add"(%564, %568) : (tensor<1x!pphlo.pint>, tensor<1x!pphlo.pint>) -> tensor<1x!pphlo.pint>
    %570 = "pphlo.shift_left"(%568, %73) : (tensor<1x!pphlo.pint>, tensor<1x!pphlo.pint>) -> tensor<1x!pphlo.pint>
    %571 = "pphlo.shift_right_logical"(%568, %72) : (tensor<1x!pphlo.pint>, tensor<1x!pphlo.pint>) -> tensor<1x!pphlo.pint>
    %572 = "pphlo.or"(%570, %571) : (tensor<1x!pphlo.pint>, tensor<1x!pphlo.pint>) -> tensor<1x!pphlo.pint>
    %573 = "pphlo.xor"(%569, %572) : (tensor<1x!pphlo.pint>, tensor<1x!pphlo.pint>) -> tensor<1x!pphlo.pint>
    %574 = "pphlo.add"(%569, %573) : (tensor<1x!pphlo.pint>, tensor<1x!pphlo.pint>) -> tensor<1x!pphlo.pint>
    %575 = "pphlo.shift_left"(%573, %70) : (tensor<1x!pphlo.pint>, tensor<1x!pphlo.pint>) -> tensor<1x!pphlo.pint>
    %576 = "pphlo.shift_right_logical"(%573, %71) : (tensor<1x!pphlo.pint>, tensor<1x!pphlo.pint>) -> tensor<1x!pphlo.pint>
    %577 = "pphlo.or"(%575, %576) : (tensor<1x!pphlo.pint>, tensor<1x!pphlo.pint>) -> tensor<1x!pphlo.pint>
    %578 = "pphlo.xor"(%574, %577) : (tensor<1x!pphlo.pint>, tensor<1x!pphlo.pint>) -> tensor<1x!pphlo.pint>
    %579 = "pphlo.add"(%574, %578) : (tensor<1x!pphlo.pint>, tensor<1x!pphlo.pint>) -> tensor<1x!pphlo.pint>
    %580 = "pphlo.add"(%579, %505) : (tensor<1x!pphlo.pint>, tensor<1x!pphlo.pint>) -> tensor<1x!pphlo.pint>
    %581 = "pphlo.shift_left"(%578, %71) : (tensor<1x!pphlo.pint>, tensor<1x!pphlo.pint>) -> tensor<1x!pphlo.pint>
    %582 = "pphlo.shift_right_logical"(%578, %70) : (tensor<1x!pphlo.pint>, tensor<1x!pphlo.pint>) -> tensor<1x!pphlo.pint>
    %583 = "pphlo.or"(%581, %582) : (tensor<1x!pphlo.pint>, tensor<1x!pphlo.pint>) -> tensor<1x!pphlo.pint>
    %584 = "pphlo.xor"(%579, %583) : (tensor<1x!pphlo.pint>, tensor<1x!pphlo.pint>) -> tensor<1x!pphlo.pint>
    %585 = "pphlo.add"(%584, %528) : (tensor<1x!pphlo.pint>, tensor<1x!pphlo.pint>) -> tensor<1x!pphlo.pint>
    %586 = "pphlo.add"(%585, %80) : (tensor<1x!pphlo.pint>, tensor<1x!pphlo.pint>) -> tensor<1x!pphlo.pint>
    %587 = "pphlo.add"(%580, %586) : (tensor<1x!pphlo.pint>, tensor<1x!pphlo.pint>) -> tensor<1x!pphlo.pint>
    %588 = "pphlo.shift_left"(%586, %72) : (tensor<1x!pphlo.pint>, tensor<1x!pphlo.pint>) -> tensor<1x!pphlo.pint>
    %589 = "pphlo.shift_right_logical"(%586, %73) : (tensor<1x!pphlo.pint>, tensor<1x!pphlo.pint>) -> tensor<1x!pphlo.pint>
    %590 = "pphlo.or"(%588, %589) : (tensor<1x!pphlo.pint>, tensor<1x!pphlo.pint>) -> tensor<1x!pphlo.pint>
    %591 = "pphlo.xor"(%587, %590) : (tensor<1x!pphlo.pint>, tensor<1x!pphlo.pint>) -> tensor<1x!pphlo.pint>
    %592 = "pphlo.add"(%587, %591) : (tensor<1x!pphlo.pint>, tensor<1x!pphlo.pint>) -> tensor<1x!pphlo.pint>
    %593 = "pphlo.shift_left"(%591, %81) : (tensor<1x!pphlo.pint>, tensor<1x!pphlo.pint>) -> tensor<1x!pphlo.pint>
    %594 = "pphlo.shift_right_logical"(%591, %80) : (tensor<1x!pphlo.pint>, tensor<1x!pphlo.pint>) -> tensor<1x!pphlo.pint>
    %595 = "pphlo.or"(%593, %594) : (tensor<1x!pphlo.pint>, tensor<1x!pphlo.pint>) -> tensor<1x!pphlo.pint>
    %596 = "pphlo.xor"(%592, %595) : (tensor<1x!pphlo.pint>, tensor<1x!pphlo.pint>) -> tensor<1x!pphlo.pint>
    %597 = "pphlo.add"(%592, %596) : (tensor<1x!pphlo.pint>, tensor<1x!pphlo.pint>) -> tensor<1x!pphlo.pint>
    %598 = "pphlo.shift_left"(%596, %79) : (tensor<1x!pphlo.pint>, tensor<1x!pphlo.pint>) -> tensor<1x!pphlo.pint>
    %599 = "pphlo.shift_right_logical"(%596, %79) : (tensor<1x!pphlo.pint>, tensor<1x!pphlo.pint>) -> tensor<1x!pphlo.pint>
    %600 = "pphlo.or"(%598, %599) : (tensor<1x!pphlo.pint>, tensor<1x!pphlo.pint>) -> tensor<1x!pphlo.pint>
    %601 = "pphlo.xor"(%597, %600) : (tensor<1x!pphlo.pint>, tensor<1x!pphlo.pint>) -> tensor<1x!pphlo.pint>
    %602 = "pphlo.add"(%597, %601) : (tensor<1x!pphlo.pint>, tensor<1x!pphlo.pint>) -> tensor<1x!pphlo.pint>
    %603 = "pphlo.add"(%602, %528) : (tensor<1x!pphlo.pint>, tensor<1x!pphlo.pint>) -> tensor<1x!pphlo.pint>
    %604 = "pphlo.shift_left"(%601, %78) : (tensor<1x!pphlo.pint>, tensor<1x!pphlo.pint>) -> tensor<1x!pphlo.pint>
    %605 = "pphlo.shift_right_logical"(%601, %77) : (tensor<1x!pphlo.pint>, tensor<1x!pphlo.pint>) -> tensor<1x!pphlo.pint>
    %606 = "pphlo.or"(%604, %605) : (tensor<1x!pphlo.pint>, tensor<1x!pphlo.pint>) -> tensor<1x!pphlo.pint>
    %607 = "pphlo.xor"(%602, %606) : (tensor<1x!pphlo.pint>, tensor<1x!pphlo.pint>) -> tensor<1x!pphlo.pint>
    %608 = "pphlo.add"(%607, %538) : (tensor<1x!pphlo.pint>, tensor<1x!pphlo.pint>) -> tensor<1x!pphlo.pint>
    %609 = "pphlo.add"(%608, %76) : (tensor<1x!pphlo.pint>, tensor<1x!pphlo.pint>) -> tensor<1x!pphlo.pint>
    %610 = "pphlo.add"(%603, %609) : (tensor<1x!pphlo.pint>, tensor<1x!pphlo.pint>) -> tensor<1x!pphlo.pint>
    %611 = "pphlo.shift_left"(%609, %75) : (tensor<1x!pphlo.pint>, tensor<1x!pphlo.pint>) -> tensor<1x!pphlo.pint>
    %612 = "pphlo.shift_right_logical"(%609, %74) : (tensor<1x!pphlo.pint>, tensor<1x!pphlo.pint>) -> tensor<1x!pphlo.pint>
    %613 = "pphlo.or"(%611, %612) : (tensor<1x!pphlo.pint>, tensor<1x!pphlo.pint>) -> tensor<1x!pphlo.pint>
    %614 = "pphlo.xor"(%610, %613) : (tensor<1x!pphlo.pint>, tensor<1x!pphlo.pint>) -> tensor<1x!pphlo.pint>
    %615 = "pphlo.add"(%610, %614) : (tensor<1x!pphlo.pint>, tensor<1x!pphlo.pint>) -> tensor<1x!pphlo.pint>
    %616 = "pphlo.shift_left"(%614, %73) : (tensor<1x!pphlo.pint>, tensor<1x!pphlo.pint>) -> tensor<1x!pphlo.pint>
    %617 = "pphlo.shift_right_logical"(%614, %72) : (tensor<1x!pphlo.pint>, tensor<1x!pphlo.pint>) -> tensor<1x!pphlo.pint>
    %618 = "pphlo.or"(%616, %617) : (tensor<1x!pphlo.pint>, tensor<1x!pphlo.pint>) -> tensor<1x!pphlo.pint>
    %619 = "pphlo.xor"(%615, %618) : (tensor<1x!pphlo.pint>, tensor<1x!pphlo.pint>) -> tensor<1x!pphlo.pint>
    %620 = "pphlo.add"(%615, %619) : (tensor<1x!pphlo.pint>, tensor<1x!pphlo.pint>) -> tensor<1x!pphlo.pint>
    %621 = "pphlo.shift_left"(%619, %70) : (tensor<1x!pphlo.pint>, tensor<1x!pphlo.pint>) -> tensor<1x!pphlo.pint>
    %622 = "pphlo.shift_right_logical"(%619, %71) : (tensor<1x!pphlo.pint>, tensor<1x!pphlo.pint>) -> tensor<1x!pphlo.pint>
    %623 = "pphlo.or"(%621, %622) : (tensor<1x!pphlo.pint>, tensor<1x!pphlo.pint>) -> tensor<1x!pphlo.pint>
    %624 = "pphlo.xor"(%620, %623) : (tensor<1x!pphlo.pint>, tensor<1x!pphlo.pint>) -> tensor<1x!pphlo.pint>
    %625 = "pphlo.add"(%620, %624) : (tensor<1x!pphlo.pint>, tensor<1x!pphlo.pint>) -> tensor<1x!pphlo.pint>
    %626 = "pphlo.add"(%625, %538) : (tensor<1x!pphlo.pint>, tensor<1x!pphlo.pint>) -> tensor<1x!pphlo.pint>
    %627 = "pphlo.reshape"(%626) : (tensor<1x!pphlo.pint>) -> tensor<!pphlo.pint>
    %628 = "pphlo.broadcast"(%627) {broadcast_dimensions = dense<> : tensor<0xi64>} : (tensor<!pphlo.pint>) -> tensor<144x!pphlo.pint>
    %629 = "pphlo.add"(%273, %628) : (tensor<144x!pphlo.pint>, tensor<144x!pphlo.pint>) -> tensor<144x!pphlo.pint>
    %630 = "pphlo.slice"(%272) {limit_indices = dense<288> : tensor<1xi64>, start_indices = dense<144> : tensor<1xi64>, strides = dense<1> : tensor<1xi64>} : (tensor<288x!pphlo.pint>) -> tensor<144x!pphlo.pint>
    %631 = "pphlo.shift_left"(%624, %71) : (tensor<1x!pphlo.pint>, tensor<1x!pphlo.pint>) -> tensor<1x!pphlo.pint>
    %632 = "pphlo.shift_right_logical"(%624, %70) : (tensor<1x!pphlo.pint>, tensor<1x!pphlo.pint>) -> tensor<1x!pphlo.pint>
    %633 = "pphlo.or"(%631, %632) : (tensor<1x!pphlo.pint>, tensor<1x!pphlo.pint>) -> tensor<1x!pphlo.pint>
    %634 = "pphlo.xor"(%625, %633) : (tensor<1x!pphlo.pint>, tensor<1x!pphlo.pint>) -> tensor<1x!pphlo.pint>
    %635 = "pphlo.add"(%634, %505) : (tensor<1x!pphlo.pint>, tensor<1x!pphlo.pint>) -> tensor<1x!pphlo.pint>
    %636 = "pphlo.add"(%635, %69) : (tensor<1x!pphlo.pint>, tensor<1x!pphlo.pint>) -> tensor<1x!pphlo.pint>
    %637 = "pphlo.reshape"(%636) : (tensor<1x!pphlo.pint>) -> tensor<!pphlo.pint>
    %638 = "pphlo.broadcast"(%637) {broadcast_dimensions = dense<> : tensor<0xi64>} : (tensor<!pphlo.pint>) -> tensor<144x!pphlo.pint>
    %639 = "pphlo.add"(%630, %638) : (tensor<144x!pphlo.pint>, tensor<144x!pphlo.pint>) -> tensor<144x!pphlo.pint>
    %640 = "pphlo.add"(%629, %639) : (tensor<144x!pphlo.pint>, tensor<144x!pphlo.pint>) -> tensor<144x!pphlo.pint>
    %641 = "pphlo.shift_left"(%639, %254) : (tensor<144x!pphlo.pint>, tensor<144x!pphlo.pint>) -> tensor<144x!pphlo.pint>
    %642 = "pphlo.shift_right_logical"(%639, %253) : (tensor<144x!pphlo.pint>, tensor<144x!pphlo.pint>) -> tensor<144x!pphlo.pint>
    %643 = "pphlo.or"(%641, %642) : (tensor<144x!pphlo.pint>, tensor<144x!pphlo.pint>) -> tensor<144x!pphlo.pint>
    %644 = "pphlo.xor"(%640, %643) : (tensor<144x!pphlo.pint>, tensor<144x!pphlo.pint>) -> tensor<144x!pphlo.pint>
    %645 = "pphlo.add"(%640, %644) : (tensor<144x!pphlo.pint>, tensor<144x!pphlo.pint>) -> tensor<144x!pphlo.pint>
    %646 = "pphlo.shift_left"(%644, %252) : (tensor<144x!pphlo.pint>, tensor<144x!pphlo.pint>) -> tensor<144x!pphlo.pint>
    %647 = "pphlo.shift_right_logical"(%644, %251) : (tensor<144x!pphlo.pint>, tensor<144x!pphlo.pint>) -> tensor<144x!pphlo.pint>
    %648 = "pphlo.or"(%646, %647) : (tensor<144x!pphlo.pint>, tensor<144x!pphlo.pint>) -> tensor<144x!pphlo.pint>
    %649 = "pphlo.xor"(%645, %648) : (tensor<144x!pphlo.pint>, tensor<144x!pphlo.pint>) -> tensor<144x!pphlo.pint>
    %650 = "pphlo.add"(%645, %649) : (tensor<144x!pphlo.pint>, tensor<144x!pphlo.pint>) -> tensor<144x!pphlo.pint>
    %651 = "pphlo.shift_left"(%649, %249) : (tensor<144x!pphlo.pint>, tensor<144x!pphlo.pint>) -> tensor<144x!pphlo.pint>
    %652 = "pphlo.shift_right_logical"(%649, %250) : (tensor<144x!pphlo.pint>, tensor<144x!pphlo.pint>) -> tensor<144x!pphlo.pint>
    %653 = "pphlo.or"(%651, %652) : (tensor<144x!pphlo.pint>, tensor<144x!pphlo.pint>) -> tensor<144x!pphlo.pint>
    %654 = "pphlo.xor"(%650, %653) : (tensor<144x!pphlo.pint>, tensor<144x!pphlo.pint>) -> tensor<144x!pphlo.pint>
    %655 = "pphlo.add"(%650, %654) : (tensor<144x!pphlo.pint>, tensor<144x!pphlo.pint>) -> tensor<144x!pphlo.pint>
    %656 = "pphlo.add"(%655, %638) : (tensor<144x!pphlo.pint>, tensor<144x!pphlo.pint>) -> tensor<144x!pphlo.pint>
    %657 = "pphlo.shift_left"(%654, %250) : (tensor<144x!pphlo.pint>, tensor<144x!pphlo.pint>) -> tensor<144x!pphlo.pint>
    %658 = "pphlo.shift_right_logical"(%654, %249) : (tensor<144x!pphlo.pint>, tensor<144x!pphlo.pint>) -> tensor<144x!pphlo.pint>
    %659 = "pphlo.or"(%657, %658) : (tensor<144x!pphlo.pint>, tensor<144x!pphlo.pint>) -> tensor<144x!pphlo.pint>
    %660 = "pphlo.xor"(%655, %659) : (tensor<144x!pphlo.pint>, tensor<144x!pphlo.pint>) -> tensor<144x!pphlo.pint>
    %661 = "pphlo.xor"(%627, %637) : (tensor<!pphlo.pint>, tensor<!pphlo.pint>) -> tensor<!pphlo.pint>
    %662 = "pphlo.xor"(%661, %68) : (tensor<!pphlo.pint>, tensor<!pphlo.pint>) -> tensor<!pphlo.pint>
    %663 = "pphlo.broadcast"(%662) {broadcast_dimensions = dense<> : tensor<0xi64>} : (tensor<!pphlo.pint>) -> tensor<144x!pphlo.pint>
    %664 = "pphlo.add"(%660, %663) : (tensor<144x!pphlo.pint>, tensor<144x!pphlo.pint>) -> tensor<144x!pphlo.pint>
    %665 = "pphlo.add"(%664, %262) : (tensor<144x!pphlo.pint>, tensor<144x!pphlo.pint>) -> tensor<144x!pphlo.pint>
    %666 = "pphlo.add"(%656, %665) : (tensor<144x!pphlo.pint>, tensor<144x!pphlo.pint>) -> tensor<144x!pphlo.pint>
    %667 = "pphlo.shift_left"(%665, %251) : (tensor<144x!pphlo.pint>, tensor<144x!pphlo.pint>) -> tensor<144x!pphlo.pint>
    %668 = "pphlo.shift_right_logical"(%665, %252) : (tensor<144x!pphlo.pint>, tensor<144x!pphlo.pint>) -> tensor<144x!pphlo.pint>
    %669 = "pphlo.or"(%667, %668) : (tensor<144x!pphlo.pint>, tensor<144x!pphlo.pint>) -> tensor<144x!pphlo.pint>
    %670 = "pphlo.xor"(%666, %669) : (tensor<144x!pphlo.pint>, tensor<144x!pphlo.pint>) -> tensor<144x!pphlo.pint>
    %671 = "pphlo.add"(%666, %670) : (tensor<144x!pphlo.pint>, tensor<144x!pphlo.pint>) -> tensor<144x!pphlo.pint>
    %672 = "pphlo.shift_left"(%670, %260) : (tensor<144x!pphlo.pint>, tensor<144x!pphlo.pint>) -> tensor<144x!pphlo.pint>
    %673 = "pphlo.shift_right_logical"(%670, %259) : (tensor<144x!pphlo.pint>, tensor<144x!pphlo.pint>) -> tensor<144x!pphlo.pint>
    %674 = "pphlo.or"(%672, %673) : (tensor<144x!pphlo.pint>, tensor<144x!pphlo.pint>) -> tensor<144x!pphlo.pint>
    %675 = "pphlo.xor"(%671, %674) : (tensor<144x!pphlo.pint>, tensor<144x!pphlo.pint>) -> tensor<144x!pphlo.pint>
    %676 = "pphlo.add"(%671, %675) : (tensor<144x!pphlo.pint>, tensor<144x!pphlo.pint>) -> tensor<144x!pphlo.pint>
    %677 = "pphlo.shift_left"(%675, %258) : (tensor<144x!pphlo.pint>, tensor<144x!pphlo.pint>) -> tensor<144x!pphlo.pint>
    %678 = "pphlo.shift_right_logical"(%675, %258) : (tensor<144x!pphlo.pint>, tensor<144x!pphlo.pint>) -> tensor<144x!pphlo.pint>
    %679 = "pphlo.or"(%677, %678) : (tensor<144x!pphlo.pint>, tensor<144x!pphlo.pint>) -> tensor<144x!pphlo.pint>
    %680 = "pphlo.xor"(%676, %679) : (tensor<144x!pphlo.pint>, tensor<144x!pphlo.pint>) -> tensor<144x!pphlo.pint>
    %681 = "pphlo.add"(%676, %680) : (tensor<144x!pphlo.pint>, tensor<144x!pphlo.pint>) -> tensor<144x!pphlo.pint>
    %682 = "pphlo.add"(%681, %663) : (tensor<144x!pphlo.pint>, tensor<144x!pphlo.pint>) -> tensor<144x!pphlo.pint>
    %683 = "pphlo.shift_left"(%680, %257) : (tensor<144x!pphlo.pint>, tensor<144x!pphlo.pint>) -> tensor<144x!pphlo.pint>
    %684 = "pphlo.shift_right_logical"(%680, %256) : (tensor<144x!pphlo.pint>, tensor<144x!pphlo.pint>) -> tensor<144x!pphlo.pint>
    %685 = "pphlo.or"(%683, %684) : (tensor<144x!pphlo.pint>, tensor<144x!pphlo.pint>) -> tensor<144x!pphlo.pint>
    %686 = "pphlo.xor"(%681, %685) : (tensor<144x!pphlo.pint>, tensor<144x!pphlo.pint>) -> tensor<144x!pphlo.pint>
    %687 = "pphlo.add"(%686, %628) : (tensor<144x!pphlo.pint>, tensor<144x!pphlo.pint>) -> tensor<144x!pphlo.pint>
    %688 = "pphlo.add"(%687, %261) : (tensor<144x!pphlo.pint>, tensor<144x!pphlo.pint>) -> tensor<144x!pphlo.pint>
    %689 = "pphlo.add"(%682, %688) : (tensor<144x!pphlo.pint>, tensor<144x!pphlo.pint>) -> tensor<144x!pphlo.pint>
    %690 = "pphlo.shift_left"(%688, %254) : (tensor<144x!pphlo.pint>, tensor<144x!pphlo.pint>) -> tensor<144x!pphlo.pint>
    %691 = "pphlo.shift_right_logical"(%688, %253) : (tensor<144x!pphlo.pint>, tensor<144x!pphlo.pint>) -> tensor<144x!pphlo.pint>
    %692 = "pphlo.or"(%690, %691) : (tensor<144x!pphlo.pint>, tensor<144x!pphlo.pint>) -> tensor<144x!pphlo.pint>
    %693 = "pphlo.xor"(%689, %692) : (tensor<144x!pphlo.pint>, tensor<144x!pphlo.pint>) -> tensor<144x!pphlo.pint>
    %694 = "pphlo.add"(%689, %693) : (tensor<144x!pphlo.pint>, tensor<144x!pphlo.pint>) -> tensor<144x!pphlo.pint>
    %695 = "pphlo.shift_left"(%693, %252) : (tensor<144x!pphlo.pint>, tensor<144x!pphlo.pint>) -> tensor<144x!pphlo.pint>
    %696 = "pphlo.shift_right_logical"(%693, %251) : (tensor<144x!pphlo.pint>, tensor<144x!pphlo.pint>) -> tensor<144x!pphlo.pint>
    %697 = "pphlo.or"(%695, %696) : (tensor<144x!pphlo.pint>, tensor<144x!pphlo.pint>) -> tensor<144x!pphlo.pint>
    %698 = "pphlo.xor"(%694, %697) : (tensor<144x!pphlo.pint>, tensor<144x!pphlo.pint>) -> tensor<144x!pphlo.pint>
    %699 = "pphlo.add"(%694, %698) : (tensor<144x!pphlo.pint>, tensor<144x!pphlo.pint>) -> tensor<144x!pphlo.pint>
    %700 = "pphlo.shift_left"(%698, %249) : (tensor<144x!pphlo.pint>, tensor<144x!pphlo.pint>) -> tensor<144x!pphlo.pint>
    %701 = "pphlo.shift_right_logical"(%698, %250) : (tensor<144x!pphlo.pint>, tensor<144x!pphlo.pint>) -> tensor<144x!pphlo.pint>
    %702 = "pphlo.or"(%700, %701) : (tensor<144x!pphlo.pint>, tensor<144x!pphlo.pint>) -> tensor<144x!pphlo.pint>
    %703 = "pphlo.xor"(%699, %702) : (tensor<144x!pphlo.pint>, tensor<144x!pphlo.pint>) -> tensor<144x!pphlo.pint>
    %704 = "pphlo.add"(%699, %703) : (tensor<144x!pphlo.pint>, tensor<144x!pphlo.pint>) -> tensor<144x!pphlo.pint>
    %705 = "pphlo.add"(%704, %628) : (tensor<144x!pphlo.pint>, tensor<144x!pphlo.pint>) -> tensor<144x!pphlo.pint>
    %706 = "pphlo.shift_left"(%703, %250) : (tensor<144x!pphlo.pint>, tensor<144x!pphlo.pint>) -> tensor<144x!pphlo.pint>
    %707 = "pphlo.shift_right_logical"(%703, %249) : (tensor<144x!pphlo.pint>, tensor<144x!pphlo.pint>) -> tensor<144x!pphlo.pint>
    %708 = "pphlo.or"(%706, %707) : (tensor<144x!pphlo.pint>, tensor<144x!pphlo.pint>) -> tensor<144x!pphlo.pint>
    %709 = "pphlo.xor"(%704, %708) : (tensor<144x!pphlo.pint>, tensor<144x!pphlo.pint>) -> tensor<144x!pphlo.pint>
    %710 = "pphlo.add"(%709, %638) : (tensor<144x!pphlo.pint>, tensor<144x!pphlo.pint>) -> tensor<144x!pphlo.pint>
    %711 = "pphlo.add"(%710, %259) : (tensor<144x!pphlo.pint>, tensor<144x!pphlo.pint>) -> tensor<144x!pphlo.pint>
    %712 = "pphlo.add"(%705, %711) : (tensor<144x!pphlo.pint>, tensor<144x!pphlo.pint>) -> tensor<144x!pphlo.pint>
    %713 = "pphlo.shift_left"(%711, %251) : (tensor<144x!pphlo.pint>, tensor<144x!pphlo.pint>) -> tensor<144x!pphlo.pint>
    %714 = "pphlo.shift_right_logical"(%711, %252) : (tensor<144x!pphlo.pint>, tensor<144x!pphlo.pint>) -> tensor<144x!pphlo.pint>
    %715 = "pphlo.or"(%713, %714) : (tensor<144x!pphlo.pint>, tensor<144x!pphlo.pint>) -> tensor<144x!pphlo.pint>
    %716 = "pphlo.xor"(%712, %715) : (tensor<144x!pphlo.pint>, tensor<144x!pphlo.pint>) -> tensor<144x!pphlo.pint>
    %717 = "pphlo.add"(%712, %716) : (tensor<144x!pphlo.pint>, tensor<144x!pphlo.pint>) -> tensor<144x!pphlo.pint>
    %718 = "pphlo.shift_left"(%716, %260) : (tensor<144x!pphlo.pint>, tensor<144x!pphlo.pint>) -> tensor<144x!pphlo.pint>
    %719 = "pphlo.shift_right_logical"(%716, %259) : (tensor<144x!pphlo.pint>, tensor<144x!pphlo.pint>) -> tensor<144x!pphlo.pint>
    %720 = "pphlo.or"(%718, %719) : (tensor<144x!pphlo.pint>, tensor<144x!pphlo.pint>) -> tensor<144x!pphlo.pint>
    %721 = "pphlo.xor"(%717, %720) : (tensor<144x!pphlo.pint>, tensor<144x!pphlo.pint>) -> tensor<144x!pphlo.pint>
    %722 = "pphlo.add"(%717, %721) : (tensor<144x!pphlo.pint>, tensor<144x!pphlo.pint>) -> tensor<144x!pphlo.pint>
    %723 = "pphlo.shift_left"(%721, %258) : (tensor<144x!pphlo.pint>, tensor<144x!pphlo.pint>) -> tensor<144x!pphlo.pint>
    %724 = "pphlo.shift_right_logical"(%721, %258) : (tensor<144x!pphlo.pint>, tensor<144x!pphlo.pint>) -> tensor<144x!pphlo.pint>
    %725 = "pphlo.or"(%723, %724) : (tensor<144x!pphlo.pint>, tensor<144x!pphlo.pint>) -> tensor<144x!pphlo.pint>
    %726 = "pphlo.xor"(%722, %725) : (tensor<144x!pphlo.pint>, tensor<144x!pphlo.pint>) -> tensor<144x!pphlo.pint>
    %727 = "pphlo.add"(%722, %726) : (tensor<144x!pphlo.pint>, tensor<144x!pphlo.pint>) -> tensor<144x!pphlo.pint>
    %728 = "pphlo.add"(%727, %638) : (tensor<144x!pphlo.pint>, tensor<144x!pphlo.pint>) -> tensor<144x!pphlo.pint>
    %729 = "pphlo.shift_left"(%726, %257) : (tensor<144x!pphlo.pint>, tensor<144x!pphlo.pint>) -> tensor<144x!pphlo.pint>
    %730 = "pphlo.shift_right_logical"(%726, %256) : (tensor<144x!pphlo.pint>, tensor<144x!pphlo.pint>) -> tensor<144x!pphlo.pint>
    %731 = "pphlo.or"(%729, %730) : (tensor<144x!pphlo.pint>, tensor<144x!pphlo.pint>) -> tensor<144x!pphlo.pint>
    %732 = "pphlo.xor"(%727, %731) : (tensor<144x!pphlo.pint>, tensor<144x!pphlo.pint>) -> tensor<144x!pphlo.pint>
    %733 = "pphlo.add"(%732, %663) : (tensor<144x!pphlo.pint>, tensor<144x!pphlo.pint>) -> tensor<144x!pphlo.pint>
    %734 = "pphlo.add"(%733, %255) : (tensor<144x!pphlo.pint>, tensor<144x!pphlo.pint>) -> tensor<144x!pphlo.pint>
    %735 = "pphlo.add"(%728, %734) : (tensor<144x!pphlo.pint>, tensor<144x!pphlo.pint>) -> tensor<144x!pphlo.pint>
    %736 = "pphlo.shift_left"(%734, %254) : (tensor<144x!pphlo.pint>, tensor<144x!pphlo.pint>) -> tensor<144x!pphlo.pint>
    %737 = "pphlo.shift_right_logical"(%734, %253) : (tensor<144x!pphlo.pint>, tensor<144x!pphlo.pint>) -> tensor<144x!pphlo.pint>
    %738 = "pphlo.or"(%736, %737) : (tensor<144x!pphlo.pint>, tensor<144x!pphlo.pint>) -> tensor<144x!pphlo.pint>
    %739 = "pphlo.xor"(%735, %738) : (tensor<144x!pphlo.pint>, tensor<144x!pphlo.pint>) -> tensor<144x!pphlo.pint>
    %740 = "pphlo.add"(%735, %739) : (tensor<144x!pphlo.pint>, tensor<144x!pphlo.pint>) -> tensor<144x!pphlo.pint>
    %741 = "pphlo.shift_left"(%739, %252) : (tensor<144x!pphlo.pint>, tensor<144x!pphlo.pint>) -> tensor<144x!pphlo.pint>
    %742 = "pphlo.shift_right_logical"(%739, %251) : (tensor<144x!pphlo.pint>, tensor<144x!pphlo.pint>) -> tensor<144x!pphlo.pint>
    %743 = "pphlo.or"(%741, %742) : (tensor<144x!pphlo.pint>, tensor<144x!pphlo.pint>) -> tensor<144x!pphlo.pint>
    %744 = "pphlo.xor"(%740, %743) : (tensor<144x!pphlo.pint>, tensor<144x!pphlo.pint>) -> tensor<144x!pphlo.pint>
    %745 = "pphlo.add"(%740, %744) : (tensor<144x!pphlo.pint>, tensor<144x!pphlo.pint>) -> tensor<144x!pphlo.pint>
    %746 = "pphlo.shift_left"(%744, %249) : (tensor<144x!pphlo.pint>, tensor<144x!pphlo.pint>) -> tensor<144x!pphlo.pint>
    %747 = "pphlo.shift_right_logical"(%744, %250) : (tensor<144x!pphlo.pint>, tensor<144x!pphlo.pint>) -> tensor<144x!pphlo.pint>
    %748 = "pphlo.or"(%746, %747) : (tensor<144x!pphlo.pint>, tensor<144x!pphlo.pint>) -> tensor<144x!pphlo.pint>
    %749 = "pphlo.xor"(%745, %748) : (tensor<144x!pphlo.pint>, tensor<144x!pphlo.pint>) -> tensor<144x!pphlo.pint>
    %750 = "pphlo.add"(%745, %749) : (tensor<144x!pphlo.pint>, tensor<144x!pphlo.pint>) -> tensor<144x!pphlo.pint>
    %751 = "pphlo.add"(%750, %663) : (tensor<144x!pphlo.pint>, tensor<144x!pphlo.pint>) -> tensor<144x!pphlo.pint>
    %752 = "pphlo.shift_left"(%749, %250) : (tensor<144x!pphlo.pint>, tensor<144x!pphlo.pint>) -> tensor<144x!pphlo.pint>
    %753 = "pphlo.shift_right_logical"(%749, %249) : (tensor<144x!pphlo.pint>, tensor<144x!pphlo.pint>) -> tensor<144x!pphlo.pint>
    %754 = "pphlo.or"(%752, %753) : (tensor<144x!pphlo.pint>, tensor<144x!pphlo.pint>) -> tensor<144x!pphlo.pint>
    %755 = "pphlo.xor"(%750, %754) : (tensor<144x!pphlo.pint>, tensor<144x!pphlo.pint>) -> tensor<144x!pphlo.pint>
    %756 = "pphlo.add"(%755, %628) : (tensor<144x!pphlo.pint>, tensor<144x!pphlo.pint>) -> tensor<144x!pphlo.pint>
    %757 = "pphlo.add"(%756, %248) : (tensor<144x!pphlo.pint>, tensor<144x!pphlo.pint>) -> tensor<144x!pphlo.pint>
    %758 = "pphlo.concatenate"(%751, %757) {dimension = 0 : i64} : (tensor<144x!pphlo.pint>, tensor<144x!pphlo.pint>) -> tensor<288x!pphlo.pint>
    %759 = "pphlo.shift_right_logical"(%758, %247) : (tensor<288x!pphlo.pint>, tensor<288x!pphlo.pint>) -> tensor<288x!pphlo.pint>
    %760 = "pphlo.or"(%759, %246) : (tensor<288x!pphlo.pint>, tensor<288x!pphlo.pint>) -> tensor<288x!pphlo.pint>
    %761 = "pphlo.bitcast_convert"(%760) {elsize = 32 : i64} : (tensor<288x!pphlo.pint>) -> tensor<288x!pphlo.pfxp>
    %762 = "pphlo.add"(%761, %245) : (tensor<288x!pphlo.pfxp>, tensor<288x!pphlo.pfxp>) -> tensor<288x!pphlo.pfxp>
    %763 = "pphlo.multiply"(%762, %244) : (tensor<288x!pphlo.pfxp>, tensor<288x!pphlo.pfxp>) -> tensor<288x!pphlo.pfxp>
    %764 = "pphlo.add"(%763, %243) : (tensor<288x!pphlo.pfxp>, tensor<288x!pphlo.pfxp>) -> tensor<288x!pphlo.pfxp>
    %765 = "pphlo.maximum"(%764, %243) : (tensor<288x!pphlo.pfxp>, tensor<288x!pphlo.pfxp>) -> tensor<288x!pphlo.pfxp>
    %766 = "pphlo.reshape"(%765) : (tensor<288x!pphlo.pfxp>) -> tensor<3x3x1x32x!pphlo.pfxp>
    %767 = "pphlo.abs"(%766) : (tensor<3x3x1x32x!pphlo.pfxp>) -> tensor<3x3x1x32x!pphlo.pfxp>
    %768 = "pphlo.equal"(%767, %242) : (tensor<3x3x1x32x!pphlo.pfxp>, tensor<3x3x1x32x!pphlo.pfxp>) -> tensor<3x3x1x32x!pphlo.pint>
    %769 = "pphlo.multiply"(%766, %241) : (tensor<3x3x1x32x!pphlo.pfxp>, tensor<3x3x1x32x!pphlo.pfxp>) -> tensor<3x3x1x32x!pphlo.pfxp>
    %770 = "pphlo.negate"(%766) : (tensor<3x3x1x32x!pphlo.pfxp>) -> tensor<3x3x1x32x!pphlo.pfxp>
    %771 = "pphlo.multiply"(%770, %766) : (tensor<3x3x1x32x!pphlo.pfxp>, tensor<3x3x1x32x!pphlo.pfxp>) -> tensor<3x3x1x32x!pphlo.pfxp>
    %772 = "pphlo.log_plus_one"(%771) : (tensor<3x3x1x32x!pphlo.pfxp>) -> tensor<3x3x1x32x!pphlo.pfxp>
    %773 = "pphlo.negate"(%772) : (tensor<3x3x1x32x!pphlo.pfxp>) -> tensor<3x3x1x32x!pphlo.pfxp>
    %774 = "pphlo.less"(%773, %240) : (tensor<3x3x1x32x!pphlo.pfxp>, tensor<3x3x1x32x!pphlo.pfxp>) -> tensor<3x3x1x32x!pphlo.pint>
    %775 = "pphlo.subtract"(%239, %238) : (tensor<3x3x1x32x!pphlo.pfxp>, tensor<3x3x1x32x!pphlo.pfxp>) -> tensor<3x3x1x32x!pphlo.pfxp>
    %776 = "pphlo.multiply"(%774, %775) : (tensor<3x3x1x32x!pphlo.pint>, tensor<3x3x1x32x!pphlo.pfxp>) -> tensor<3x3x1x32x!pphlo.pfxp>
    %777 = "pphlo.add"(%776, %238) : (tensor<3x3x1x32x!pphlo.pfxp>, tensor<3x3x1x32x!pphlo.pfxp>) -> tensor<3x3x1x32x!pphlo.pfxp>
    %778 = "pphlo.subtract"(%237, %236) : (tensor<3x3x1x32x!pphlo.pfxp>, tensor<3x3x1x32x!pphlo.pfxp>) -> tensor<3x3x1x32x!pphlo.pfxp>
    %779 = "pphlo.multiply"(%774, %778) : (tensor<3x3x1x32x!pphlo.pint>, tensor<3x3x1x32x!pphlo.pfxp>) -> tensor<3x3x1x32x!pphlo.pfxp>
    %780 = "pphlo.add"(%779, %236) : (tensor<3x3x1x32x!pphlo.pfxp>, tensor<3x3x1x32x!pphlo.pfxp>) -> tensor<3x3x1x32x!pphlo.pfxp>
    %781 = "pphlo.subtract"(%235, %234) : (tensor<3x3x1x32x!pphlo.pfxp>, tensor<3x3x1x32x!pphlo.pfxp>) -> tensor<3x3x1x32x!pphlo.pfxp>
    %782 = "pphlo.multiply"(%774, %781) : (tensor<3x3x1x32x!pphlo.pint>, tensor<3x3x1x32x!pphlo.pfxp>) -> tensor<3x3x1x32x!pphlo.pfxp>
    %783 = "pphlo.add"(%782, %234) : (tensor<3x3x1x32x!pphlo.pfxp>, tensor<3x3x1x32x!pphlo.pfxp>) -> tensor<3x3x1x32x!pphlo.pfxp>
    %784 = "pphlo.subtract"(%233, %232) : (tensor<3x3x1x32x!pphlo.pfxp>, tensor<3x3x1x32x!pphlo.pfxp>) -> tensor<3x3x1x32x!pphlo.pfxp>
    %785 = "pphlo.multiply"(%774, %784) : (tensor<3x3x1x32x!pphlo.pint>, tensor<3x3x1x32x!pphlo.pfxp>) -> tensor<3x3x1x32x!pphlo.pfxp>
    %786 = "pphlo.add"(%785, %232) : (tensor<3x3x1x32x!pphlo.pfxp>, tensor<3x3x1x32x!pphlo.pfxp>) -> tensor<3x3x1x32x!pphlo.pfxp>
    %787 = "pphlo.subtract"(%231, %230) : (tensor<3x3x1x32x!pphlo.pfxp>, tensor<3x3x1x32x!pphlo.pfxp>) -> tensor<3x3x1x32x!pphlo.pfxp>
    %788 = "pphlo.multiply"(%774, %787) : (tensor<3x3x1x32x!pphlo.pint>, tensor<3x3x1x32x!pphlo.pfxp>) -> tensor<3x3x1x32x!pphlo.pfxp>
    %789 = "pphlo.add"(%788, %230) : (tensor<3x3x1x32x!pphlo.pfxp>, tensor<3x3x1x32x!pphlo.pfxp>) -> tensor<3x3x1x32x!pphlo.pfxp>
    %790 = "pphlo.subtract"(%229, %228) : (tensor<3x3x1x32x!pphlo.pfxp>, tensor<3x3x1x32x!pphlo.pfxp>) -> tensor<3x3x1x32x!pphlo.pfxp>
    %791 = "pphlo.multiply"(%774, %790) : (tensor<3x3x1x32x!pphlo.pint>, tensor<3x3x1x32x!pphlo.pfxp>) -> tensor<3x3x1x32x!pphlo.pfxp>
    %792 = "pphlo.add"(%791, %228) : (tensor<3x3x1x32x!pphlo.pfxp>, tensor<3x3x1x32x!pphlo.pfxp>) -> tensor<3x3x1x32x!pphlo.pfxp>
    %793 = "pphlo.subtract"(%227, %226) : (tensor<3x3x1x32x!pphlo.pfxp>, tensor<3x3x1x32x!pphlo.pfxp>) -> tensor<3x3x1x32x!pphlo.pfxp>
    %794 = "pphlo.multiply"(%774, %793) : (tensor<3x3x1x32x!pphlo.pint>, tensor<3x3x1x32x!pphlo.pfxp>) -> tensor<3x3x1x32x!pphlo.pfxp>
    %795 = "pphlo.add"(%794, %226) : (tensor<3x3x1x32x!pphlo.pfxp>, tensor<3x3x1x32x!pphlo.pfxp>) -> tensor<3x3x1x32x!pphlo.pfxp>
    %796 = "pphlo.subtract"(%225, %224) : (tensor<3x3x1x32x!pphlo.pfxp>, tensor<3x3x1x32x!pphlo.pfxp>) -> tensor<3x3x1x32x!pphlo.pfxp>
    %797 = "pphlo.multiply"(%774, %796) : (tensor<3x3x1x32x!pphlo.pint>, tensor<3x3x1x32x!pphlo.pfxp>) -> tensor<3x3x1x32x!pphlo.pfxp>
    %798 = "pphlo.add"(%797, %224) : (tensor<3x3x1x32x!pphlo.pfxp>, tensor<3x3x1x32x!pphlo.pfxp>) -> tensor<3x3x1x32x!pphlo.pfxp>
    %799 = "pphlo.subtract"(%223, %222) : (tensor<3x3x1x32x!pphlo.pfxp>, tensor<3x3x1x32x!pphlo.pfxp>) -> tensor<3x3x1x32x!pphlo.pfxp>
    %800 = "pphlo.multiply"(%774, %799) : (tensor<3x3x1x32x!pphlo.pint>, tensor<3x3x1x32x!pphlo.pfxp>) -> tensor<3x3x1x32x!pphlo.pfxp>
    %801 = "pphlo.add"(%800, %222) : (tensor<3x3x1x32x!pphlo.pfxp>, tensor<3x3x1x32x!pphlo.pfxp>) -> tensor<3x3x1x32x!pphlo.pfxp>
    %802 = "pphlo.add"(%773, %221) : (tensor<3x3x1x32x!pphlo.pfxp>, tensor<3x3x1x32x!pphlo.pfxp>) -> tensor<3x3x1x32x!pphlo.pfxp>
    %803 = "pphlo.constant"() {value = dense<5.000000e-01> : tensor<3x3x1x32xf32>} : () -> tensor<3x3x1x32x!pphlo.pfxp>
    %804 = "pphlo.power"(%773, %803) : (tensor<3x3x1x32x!pphlo.pfxp>, tensor<3x3x1x32x!pphlo.pfxp>) -> tensor<3x3x1x32x!pphlo.pfxp>
    %805 = "pphlo.add"(%804, %220) : (tensor<3x3x1x32x!pphlo.pfxp>, tensor<3x3x1x32x!pphlo.pfxp>) -> tensor<3x3x1x32x!pphlo.pfxp>
    %806 = "pphlo.subtract"(%802, %805) : (tensor<3x3x1x32x!pphlo.pfxp>, tensor<3x3x1x32x!pphlo.pfxp>) -> tensor<3x3x1x32x!pphlo.pfxp>
    %807 = "pphlo.multiply"(%774, %806) : (tensor<3x3x1x32x!pphlo.pint>, tensor<3x3x1x32x!pphlo.pfxp>) -> tensor<3x3x1x32x!pphlo.pfxp>
    %808 = "pphlo.add"(%807, %805) : (tensor<3x3x1x32x!pphlo.pfxp>, tensor<3x3x1x32x!pphlo.pfxp>) -> tensor<3x3x1x32x!pphlo.pfxp>
    %809 = "pphlo.multiply"(%801, %808) : (tensor<3x3x1x32x!pphlo.pfxp>, tensor<3x3x1x32x!pphlo.pfxp>) -> tensor<3x3x1x32x!pphlo.pfxp>
    %810 = "pphlo.add"(%798, %809) : (tensor<3x3x1x32x!pphlo.pfxp>, tensor<3x3x1x32x!pphlo.pfxp>) -> tensor<3x3x1x32x!pphlo.pfxp>
    %811 = "pphlo.multiply"(%810, %808) : (tensor<3x3x1x32x!pphlo.pfxp>, tensor<3x3x1x32x!pphlo.pfxp>) -> tensor<3x3x1x32x!pphlo.pfxp>
    %812 = "pphlo.add"(%795, %811) : (tensor<3x3x1x32x!pphlo.pfxp>, tensor<3x3x1x32x!pphlo.pfxp>) -> tensor<3x3x1x32x!pphlo.pfxp>
    %813 = "pphlo.multiply"(%812, %808) : (tensor<3x3x1x32x!pphlo.pfxp>, tensor<3x3x1x32x!pphlo.pfxp>) -> tensor<3x3x1x32x!pphlo.pfxp>
    %814 = "pphlo.add"(%792, %813) : (tensor<3x3x1x32x!pphlo.pfxp>, tensor<3x3x1x32x!pphlo.pfxp>) -> tensor<3x3x1x32x!pphlo.pfxp>
    %815 = "pphlo.multiply"(%814, %808) : (tensor<3x3x1x32x!pphlo.pfxp>, tensor<3x3x1x32x!pphlo.pfxp>) -> tensor<3x3x1x32x!pphlo.pfxp>
    %816 = "pphlo.add"(%789, %815) : (tensor<3x3x1x32x!pphlo.pfxp>, tensor<3x3x1x32x!pphlo.pfxp>) -> tensor<3x3x1x32x!pphlo.pfxp>
    %817 = "pphlo.multiply"(%816, %808) : (tensor<3x3x1x32x!pphlo.pfxp>, tensor<3x3x1x32x!pphlo.pfxp>) -> tensor<3x3x1x32x!pphlo.pfxp>
    %818 = "pphlo.add"(%786, %817) : (tensor<3x3x1x32x!pphlo.pfxp>, tensor<3x3x1x32x!pphlo.pfxp>) -> tensor<3x3x1x32x!pphlo.pfxp>
    %819 = "pphlo.multiply"(%818, %808) : (tensor<3x3x1x32x!pphlo.pfxp>, tensor<3x3x1x32x!pphlo.pfxp>) -> tensor<3x3x1x32x!pphlo.pfxp>
    %820 = "pphlo.add"(%783, %819) : (tensor<3x3x1x32x!pphlo.pfxp>, tensor<3x3x1x32x!pphlo.pfxp>) -> tensor<3x3x1x32x!pphlo.pfxp>
    %821 = "pphlo.multiply"(%820, %808) : (tensor<3x3x1x32x!pphlo.pfxp>, tensor<3x3x1x32x!pphlo.pfxp>) -> tensor<3x3x1x32x!pphlo.pfxp>
    %822 = "pphlo.add"(%780, %821) : (tensor<3x3x1x32x!pphlo.pfxp>, tensor<3x3x1x32x!pphlo.pfxp>) -> tensor<3x3x1x32x!pphlo.pfxp>
    %823 = "pphlo.multiply"(%822, %808) : (tensor<3x3x1x32x!pphlo.pfxp>, tensor<3x3x1x32x!pphlo.pfxp>) -> tensor<3x3x1x32x!pphlo.pfxp>
    %824 = "pphlo.add"(%777, %823) : (tensor<3x3x1x32x!pphlo.pfxp>, tensor<3x3x1x32x!pphlo.pfxp>) -> tensor<3x3x1x32x!pphlo.pfxp>
    %825 = "pphlo.multiply"(%824, %766) : (tensor<3x3x1x32x!pphlo.pfxp>, tensor<3x3x1x32x!pphlo.pfxp>) -> tensor<3x3x1x32x!pphlo.pfxp>
    %826 = "pphlo.subtract"(%769, %825) : (tensor<3x3x1x32x!pphlo.pfxp>, tensor<3x3x1x32x!pphlo.pfxp>) -> tensor<3x3x1x32x!pphlo.pfxp>
    %827 = "pphlo.multiply"(%768, %826) : (tensor<3x3x1x32x!pphlo.pint>, tensor<3x3x1x32x!pphlo.pfxp>) -> tensor<3x3x1x32x!pphlo.pfxp>
    %828 = "pphlo.add"(%827, %825) : (tensor<3x3x1x32x!pphlo.pfxp>, tensor<3x3x1x32x!pphlo.pfxp>) -> tensor<3x3x1x32x!pphlo.pfxp>
    %829 = "pphlo.multiply"(%828, %219) : (tensor<3x3x1x32x!pphlo.pfxp>, tensor<3x3x1x32x!pphlo.pfxp>) -> tensor<3x3x1x32x!pphlo.pfxp>
    %830 = "pphlo.clamp"(%267, %829, %218) : (tensor<3x3x1x32x!pphlo.pfxp>, tensor<3x3x1x32x!pphlo.pfxp>, tensor<3x3x1x32x!pphlo.pfxp>) -> tensor<3x3x1x32x!pphlo.pfxp>
    %831 = "pphlo.multiply"(%830, %217) : (tensor<3x3x1x32x!pphlo.pfxp>, tensor<3x3x1x32x!pphlo.pfxp>) -> tensor<3x3x1x32x!pphlo.pfxp>
    %832 = "pphlo.iota"() {iota_dimension = 0 : i64} : () -> tensor<30x!pphlo.pint>
    %833 = "pphlo.slice"(%832) {limit_indices = dense<15> : tensor<1xi64>, start_indices = dense<0> : tensor<1xi64>, strides = dense<1> : tensor<1xi64>} : (tensor<30x!pphlo.pint>) -> tensor<15x!pphlo.pint>
    %834 = "pphlo.slice"(%378) {limit_indices = dense<1> : tensor<1xi64>, start_indices = dense<0> : tensor<1xi64>, strides = dense<1> : tensor<1xi64>} : (tensor<2x!pphlo.pint>) -> tensor<1x!pphlo.pint>
    %835 = "pphlo.reshape"(%834) : (tensor<1x!pphlo.pint>) -> tensor<!pphlo.pint>
    %836 = "pphlo.broadcast"(%835) {broadcast_dimensions = dense<> : tensor<0xi64>} : (tensor<!pphlo.pint>) -> tensor<2x!pphlo.pint>
    %837 = "pphlo.add"(%275, %836) : (tensor<2x!pphlo.pint>, tensor<2x!pphlo.pint>) -> tensor<2x!pphlo.pint>
    %838 = "pphlo.slice"(%378) {limit_indices = dense<2> : tensor<1xi64>, start_indices = dense<1> : tensor<1xi64>, strides = dense<1> : tensor<1xi64>} : (tensor<2x!pphlo.pint>) -> tensor<1x!pphlo.pint>
    %839 = "pphlo.reshape"(%838) : (tensor<1x!pphlo.pint>) -> tensor<!pphlo.pint>
    %840 = "pphlo.broadcast"(%839) {broadcast_dimensions = dense<> : tensor<0xi64>} : (tensor<!pphlo.pint>) -> tensor<2x!pphlo.pint>
    %841 = "pphlo.add"(%276, %840) : (tensor<2x!pphlo.pint>, tensor<2x!pphlo.pint>) -> tensor<2x!pphlo.pint>
    %842 = "pphlo.add"(%837, %841) : (tensor<2x!pphlo.pint>, tensor<2x!pphlo.pint>) -> tensor<2x!pphlo.pint>
    %843 = "pphlo.shift_left"(%841, %208) : (tensor<2x!pphlo.pint>, tensor<2x!pphlo.pint>) -> tensor<2x!pphlo.pint>
    %844 = "pphlo.shift_right_logical"(%841, %207) : (tensor<2x!pphlo.pint>, tensor<2x!pphlo.pint>) -> tensor<2x!pphlo.pint>
    %845 = "pphlo.or"(%843, %844) : (tensor<2x!pphlo.pint>, tensor<2x!pphlo.pint>) -> tensor<2x!pphlo.pint>
    %846 = "pphlo.xor"(%842, %845) : (tensor<2x!pphlo.pint>, tensor<2x!pphlo.pint>) -> tensor<2x!pphlo.pint>
    %847 = "pphlo.add"(%842, %846) : (tensor<2x!pphlo.pint>, tensor<2x!pphlo.pint>) -> tensor<2x!pphlo.pint>
    %848 = "pphlo.shift_left"(%846, %206) : (tensor<2x!pphlo.pint>, tensor<2x!pphlo.pint>) -> tensor<2x!pphlo.pint>
    %849 = "pphlo.shift_right_logical"(%846, %205) : (tensor<2x!pphlo.pint>, tensor<2x!pphlo.pint>) -> tensor<2x!pphlo.pint>
    %850 = "pphlo.or"(%848, %849) : (tensor<2x!pphlo.pint>, tensor<2x!pphlo.pint>) -> tensor<2x!pphlo.pint>
    %851 = "pphlo.xor"(%847, %850) : (tensor<2x!pphlo.pint>, tensor<2x!pphlo.pint>) -> tensor<2x!pphlo.pint>
    %852 = "pphlo.add"(%847, %851) : (tensor<2x!pphlo.pint>, tensor<2x!pphlo.pint>) -> tensor<2x!pphlo.pint>
    %853 = "pphlo.shift_left"(%851, %203) : (tensor<2x!pphlo.pint>, tensor<2x!pphlo.pint>) -> tensor<2x!pphlo.pint>
    %854 = "pphlo.shift_right_logical"(%851, %204) : (tensor<2x!pphlo.pint>, tensor<2x!pphlo.pint>) -> tensor<2x!pphlo.pint>
    %855 = "pphlo.or"(%853, %854) : (tensor<2x!pphlo.pint>, tensor<2x!pphlo.pint>) -> tensor<2x!pphlo.pint>
    %856 = "pphlo.xor"(%852, %855) : (tensor<2x!pphlo.pint>, tensor<2x!pphlo.pint>) -> tensor<2x!pphlo.pint>
    %857 = "pphlo.add"(%852, %856) : (tensor<2x!pphlo.pint>, tensor<2x!pphlo.pint>) -> tensor<2x!pphlo.pint>
    %858 = "pphlo.add"(%857, %840) : (tensor<2x!pphlo.pint>, tensor<2x!pphlo.pint>) -> tensor<2x!pphlo.pint>
    %859 = "pphlo.shift_left"(%856, %204) : (tensor<2x!pphlo.pint>, tensor<2x!pphlo.pint>) -> tensor<2x!pphlo.pint>
    %860 = "pphlo.shift_right_logical"(%856, %203) : (tensor<2x!pphlo.pint>, tensor<2x!pphlo.pint>) -> tensor<2x!pphlo.pint>
    %861 = "pphlo.or"(%859, %860) : (tensor<2x!pphlo.pint>, tensor<2x!pphlo.pint>) -> tensor<2x!pphlo.pint>
    %862 = "pphlo.xor"(%857, %861) : (tensor<2x!pphlo.pint>, tensor<2x!pphlo.pint>) -> tensor<2x!pphlo.pint>
    %863 = "pphlo.xor"(%835, %839) : (tensor<!pphlo.pint>, tensor<!pphlo.pint>) -> tensor<!pphlo.pint>
    %864 = "pphlo.xor"(%863, %68) : (tensor<!pphlo.pint>, tensor<!pphlo.pint>) -> tensor<!pphlo.pint>
    %865 = "pphlo.broadcast"(%864) {broadcast_dimensions = dense<> : tensor<0xi64>} : (tensor<!pphlo.pint>) -> tensor<2x!pphlo.pint>
    %866 = "pphlo.add"(%862, %865) : (tensor<2x!pphlo.pint>, tensor<2x!pphlo.pint>) -> tensor<2x!pphlo.pint>
    %867 = "pphlo.add"(%866, %216) : (tensor<2x!pphlo.pint>, tensor<2x!pphlo.pint>) -> tensor<2x!pphlo.pint>
    %868 = "pphlo.add"(%858, %867) : (tensor<2x!pphlo.pint>, tensor<2x!pphlo.pint>) -> tensor<2x!pphlo.pint>
    %869 = "pphlo.shift_left"(%867, %205) : (tensor<2x!pphlo.pint>, tensor<2x!pphlo.pint>) -> tensor<2x!pphlo.pint>
    %870 = "pphlo.shift_right_logical"(%867, %206) : (tensor<2x!pphlo.pint>, tensor<2x!pphlo.pint>) -> tensor<2x!pphlo.pint>
    %871 = "pphlo.or"(%869, %870) : (tensor<2x!pphlo.pint>, tensor<2x!pphlo.pint>) -> tensor<2x!pphlo.pint>
    %872 = "pphlo.xor"(%868, %871) : (tensor<2x!pphlo.pint>, tensor<2x!pphlo.pint>) -> tensor<2x!pphlo.pint>
    %873 = "pphlo.add"(%868, %872) : (tensor<2x!pphlo.pint>, tensor<2x!pphlo.pint>) -> tensor<2x!pphlo.pint>
    %874 = "pphlo.shift_left"(%872, %214) : (tensor<2x!pphlo.pint>, tensor<2x!pphlo.pint>) -> tensor<2x!pphlo.pint>
    %875 = "pphlo.shift_right_logical"(%872, %213) : (tensor<2x!pphlo.pint>, tensor<2x!pphlo.pint>) -> tensor<2x!pphlo.pint>
    %876 = "pphlo.or"(%874, %875) : (tensor<2x!pphlo.pint>, tensor<2x!pphlo.pint>) -> tensor<2x!pphlo.pint>
    %877 = "pphlo.xor"(%873, %876) : (tensor<2x!pphlo.pint>, tensor<2x!pphlo.pint>) -> tensor<2x!pphlo.pint>
    %878 = "pphlo.add"(%873, %877) : (tensor<2x!pphlo.pint>, tensor<2x!pphlo.pint>) -> tensor<2x!pphlo.pint>
    %879 = "pphlo.shift_left"(%877, %212) : (tensor<2x!pphlo.pint>, tensor<2x!pphlo.pint>) -> tensor<2x!pphlo.pint>
    %880 = "pphlo.shift_right_logical"(%877, %212) : (tensor<2x!pphlo.pint>, tensor<2x!pphlo.pint>) -> tensor<2x!pphlo.pint>
    %881 = "pphlo.or"(%879, %880) : (tensor<2x!pphlo.pint>, tensor<2x!pphlo.pint>) -> tensor<2x!pphlo.pint>
    %882 = "pphlo.xor"(%878, %881) : (tensor<2x!pphlo.pint>, tensor<2x!pphlo.pint>) -> tensor<2x!pphlo.pint>
    %883 = "pphlo.add"(%878, %882) : (tensor<2x!pphlo.pint>, tensor<2x!pphlo.pint>) -> tensor<2x!pphlo.pint>
    %884 = "pphlo.add"(%883, %865) : (tensor<2x!pphlo.pint>, tensor<2x!pphlo.pint>) -> tensor<2x!pphlo.pint>
    %885 = "pphlo.shift_left"(%882, %211) : (tensor<2x!pphlo.pint>, tensor<2x!pphlo.pint>) -> tensor<2x!pphlo.pint>
    %886 = "pphlo.shift_right_logical"(%882, %210) : (tensor<2x!pphlo.pint>, tensor<2x!pphlo.pint>) -> tensor<2x!pphlo.pint>
    %887 = "pphlo.or"(%885, %886) : (tensor<2x!pphlo.pint>, tensor<2x!pphlo.pint>) -> tensor<2x!pphlo.pint>
    %888 = "pphlo.xor"(%883, %887) : (tensor<2x!pphlo.pint>, tensor<2x!pphlo.pint>) -> tensor<2x!pphlo.pint>
    %889 = "pphlo.add"(%888, %836) : (tensor<2x!pphlo.pint>, tensor<2x!pphlo.pint>) -> tensor<2x!pphlo.pint>
    %890 = "pphlo.add"(%889, %215) : (tensor<2x!pphlo.pint>, tensor<2x!pphlo.pint>) -> tensor<2x!pphlo.pint>
    %891 = "pphlo.add"(%884, %890) : (tensor<2x!pphlo.pint>, tensor<2x!pphlo.pint>) -> tensor<2x!pphlo.pint>
    %892 = "pphlo.shift_left"(%890, %208) : (tensor<2x!pphlo.pint>, tensor<2x!pphlo.pint>) -> tensor<2x!pphlo.pint>
    %893 = "pphlo.shift_right_logical"(%890, %207) : (tensor<2x!pphlo.pint>, tensor<2x!pphlo.pint>) -> tensor<2x!pphlo.pint>
    %894 = "pphlo.or"(%892, %893) : (tensor<2x!pphlo.pint>, tensor<2x!pphlo.pint>) -> tensor<2x!pphlo.pint>
    %895 = "pphlo.xor"(%891, %894) : (tensor<2x!pphlo.pint>, tensor<2x!pphlo.pint>) -> tensor<2x!pphlo.pint>
    %896 = "pphlo.add"(%891, %895) : (tensor<2x!pphlo.pint>, tensor<2x!pphlo.pint>) -> tensor<2x!pphlo.pint>
    %897 = "pphlo.shift_left"(%895, %206) : (tensor<2x!pphlo.pint>, tensor<2x!pphlo.pint>) -> tensor<2x!pphlo.pint>
    %898 = "pphlo.shift_right_logical"(%895, %205) : (tensor<2x!pphlo.pint>, tensor<2x!pphlo.pint>) -> tensor<2x!pphlo.pint>
    %899 = "pphlo.or"(%897, %898) : (tensor<2x!pphlo.pint>, tensor<2x!pphlo.pint>) -> tensor<2x!pphlo.pint>
    %900 = "pphlo.xor"(%896, %899) : (tensor<2x!pphlo.pint>, tensor<2x!pphlo.pint>) -> tensor<2x!pphlo.pint>
    %901 = "pphlo.add"(%896, %900) : (tensor<2x!pphlo.pint>, tensor<2x!pphlo.pint>) -> tensor<2x!pphlo.pint>
    %902 = "pphlo.shift_left"(%900, %203) : (tensor<2x!pphlo.pint>, tensor<2x!pphlo.pint>) -> tensor<2x!pphlo.pint>
    %903 = "pphlo.shift_right_logical"(%900, %204) : (tensor<2x!pphlo.pint>, tensor<2x!pphlo.pint>) -> tensor<2x!pphlo.pint>
    %904 = "pphlo.or"(%902, %903) : (tensor<2x!pphlo.pint>, tensor<2x!pphlo.pint>) -> tensor<2x!pphlo.pint>
    %905 = "pphlo.xor"(%901, %904) : (tensor<2x!pphlo.pint>, tensor<2x!pphlo.pint>) -> tensor<2x!pphlo.pint>
    %906 = "pphlo.add"(%901, %905) : (tensor<2x!pphlo.pint>, tensor<2x!pphlo.pint>) -> tensor<2x!pphlo.pint>
    %907 = "pphlo.add"(%906, %836) : (tensor<2x!pphlo.pint>, tensor<2x!pphlo.pint>) -> tensor<2x!pphlo.pint>
    %908 = "pphlo.shift_left"(%905, %204) : (tensor<2x!pphlo.pint>, tensor<2x!pphlo.pint>) -> tensor<2x!pphlo.pint>
    %909 = "pphlo.shift_right_logical"(%905, %203) : (tensor<2x!pphlo.pint>, tensor<2x!pphlo.pint>) -> tensor<2x!pphlo.pint>
    %910 = "pphlo.or"(%908, %909) : (tensor<2x!pphlo.pint>, tensor<2x!pphlo.pint>) -> tensor<2x!pphlo.pint>
    %911 = "pphlo.xor"(%906, %910) : (tensor<2x!pphlo.pint>, tensor<2x!pphlo.pint>) -> tensor<2x!pphlo.pint>
    %912 = "pphlo.add"(%911, %840) : (tensor<2x!pphlo.pint>, tensor<2x!pphlo.pint>) -> tensor<2x!pphlo.pint>
    %913 = "pphlo.add"(%912, %213) : (tensor<2x!pphlo.pint>, tensor<2x!pphlo.pint>) -> tensor<2x!pphlo.pint>
    %914 = "pphlo.add"(%907, %913) : (tensor<2x!pphlo.pint>, tensor<2x!pphlo.pint>) -> tensor<2x!pphlo.pint>
    %915 = "pphlo.shift_left"(%913, %205) : (tensor<2x!pphlo.pint>, tensor<2x!pphlo.pint>) -> tensor<2x!pphlo.pint>
    %916 = "pphlo.shift_right_logical"(%913, %206) : (tensor<2x!pphlo.pint>, tensor<2x!pphlo.pint>) -> tensor<2x!pphlo.pint>
    %917 = "pphlo.or"(%915, %916) : (tensor<2x!pphlo.pint>, tensor<2x!pphlo.pint>) -> tensor<2x!pphlo.pint>
    %918 = "pphlo.xor"(%914, %917) : (tensor<2x!pphlo.pint>, tensor<2x!pphlo.pint>) -> tensor<2x!pphlo.pint>
    %919 = "pphlo.add"(%914, %918) : (tensor<2x!pphlo.pint>, tensor<2x!pphlo.pint>) -> tensor<2x!pphlo.pint>
    %920 = "pphlo.shift_left"(%918, %214) : (tensor<2x!pphlo.pint>, tensor<2x!pphlo.pint>) -> tensor<2x!pphlo.pint>
    %921 = "pphlo.shift_right_logical"(%918, %213) : (tensor<2x!pphlo.pint>, tensor<2x!pphlo.pint>) -> tensor<2x!pphlo.pint>
    %922 = "pphlo.or"(%920, %921) : (tensor<2x!pphlo.pint>, tensor<2x!pphlo.pint>) -> tensor<2x!pphlo.pint>
    %923 = "pphlo.xor"(%919, %922) : (tensor<2x!pphlo.pint>, tensor<2x!pphlo.pint>) -> tensor<2x!pphlo.pint>
    %924 = "pphlo.add"(%919, %923) : (tensor<2x!pphlo.pint>, tensor<2x!pphlo.pint>) -> tensor<2x!pphlo.pint>
    %925 = "pphlo.shift_left"(%923, %212) : (tensor<2x!pphlo.pint>, tensor<2x!pphlo.pint>) -> tensor<2x!pphlo.pint>
    %926 = "pphlo.shift_right_logical"(%923, %212) : (tensor<2x!pphlo.pint>, tensor<2x!pphlo.pint>) -> tensor<2x!pphlo.pint>
    %927 = "pphlo.or"(%925, %926) : (tensor<2x!pphlo.pint>, tensor<2x!pphlo.pint>) -> tensor<2x!pphlo.pint>
    %928 = "pphlo.xor"(%924, %927) : (tensor<2x!pphlo.pint>, tensor<2x!pphlo.pint>) -> tensor<2x!pphlo.pint>
    %929 = "pphlo.add"(%924, %928) : (tensor<2x!pphlo.pint>, tensor<2x!pphlo.pint>) -> tensor<2x!pphlo.pint>
    %930 = "pphlo.add"(%929, %840) : (tensor<2x!pphlo.pint>, tensor<2x!pphlo.pint>) -> tensor<2x!pphlo.pint>
    %931 = "pphlo.shift_left"(%928, %211) : (tensor<2x!pphlo.pint>, tensor<2x!pphlo.pint>) -> tensor<2x!pphlo.pint>
    %932 = "pphlo.shift_right_logical"(%928, %210) : (tensor<2x!pphlo.pint>, tensor<2x!pphlo.pint>) -> tensor<2x!pphlo.pint>
    %933 = "pphlo.or"(%931, %932) : (tensor<2x!pphlo.pint>, tensor<2x!pphlo.pint>) -> tensor<2x!pphlo.pint>
    %934 = "pphlo.xor"(%929, %933) : (tensor<2x!pphlo.pint>, tensor<2x!pphlo.pint>) -> tensor<2x!pphlo.pint>
    %935 = "pphlo.add"(%934, %865) : (tensor<2x!pphlo.pint>, tensor<2x!pphlo.pint>) -> tensor<2x!pphlo.pint>
    %936 = "pphlo.add"(%935, %209) : (tensor<2x!pphlo.pint>, tensor<2x!pphlo.pint>) -> tensor<2x!pphlo.pint>
    %937 = "pphlo.add"(%930, %936) : (tensor<2x!pphlo.pint>, tensor<2x!pphlo.pint>) -> tensor<2x!pphlo.pint>
    %938 = "pphlo.shift_left"(%936, %208) : (tensor<2x!pphlo.pint>, tensor<2x!pphlo.pint>) -> tensor<2x!pphlo.pint>
    %939 = "pphlo.shift_right_logical"(%936, %207) : (tensor<2x!pphlo.pint>, tensor<2x!pphlo.pint>) -> tensor<2x!pphlo.pint>
    %940 = "pphlo.or"(%938, %939) : (tensor<2x!pphlo.pint>, tensor<2x!pphlo.pint>) -> tensor<2x!pphlo.pint>
    %941 = "pphlo.xor"(%937, %940) : (tensor<2x!pphlo.pint>, tensor<2x!pphlo.pint>) -> tensor<2x!pphlo.pint>
    %942 = "pphlo.add"(%937, %941) : (tensor<2x!pphlo.pint>, tensor<2x!pphlo.pint>) -> tensor<2x!pphlo.pint>
    %943 = "pphlo.shift_left"(%941, %206) : (tensor<2x!pphlo.pint>, tensor<2x!pphlo.pint>) -> tensor<2x!pphlo.pint>
    %944 = "pphlo.shift_right_logical"(%941, %205) : (tensor<2x!pphlo.pint>, tensor<2x!pphlo.pint>) -> tensor<2x!pphlo.pint>
    %945 = "pphlo.or"(%943, %944) : (tensor<2x!pphlo.pint>, tensor<2x!pphlo.pint>) -> tensor<2x!pphlo.pint>
    %946 = "pphlo.xor"(%942, %945) : (tensor<2x!pphlo.pint>, tensor<2x!pphlo.pint>) -> tensor<2x!pphlo.pint>
    %947 = "pphlo.add"(%942, %946) : (tensor<2x!pphlo.pint>, tensor<2x!pphlo.pint>) -> tensor<2x!pphlo.pint>
    %948 = "pphlo.shift_left"(%946, %203) : (tensor<2x!pphlo.pint>, tensor<2x!pphlo.pint>) -> tensor<2x!pphlo.pint>
    %949 = "pphlo.shift_right_logical"(%946, %204) : (tensor<2x!pphlo.pint>, tensor<2x!pphlo.pint>) -> tensor<2x!pphlo.pint>
    %950 = "pphlo.or"(%948, %949) : (tensor<2x!pphlo.pint>, tensor<2x!pphlo.pint>) -> tensor<2x!pphlo.pint>
    %951 = "pphlo.xor"(%947, %950) : (tensor<2x!pphlo.pint>, tensor<2x!pphlo.pint>) -> tensor<2x!pphlo.pint>
    %952 = "pphlo.add"(%947, %951) : (tensor<2x!pphlo.pint>, tensor<2x!pphlo.pint>) -> tensor<2x!pphlo.pint>
    %953 = "pphlo.add"(%952, %865) : (tensor<2x!pphlo.pint>, tensor<2x!pphlo.pint>) -> tensor<2x!pphlo.pint>
    %954 = "pphlo.shift_left"(%951, %204) : (tensor<2x!pphlo.pint>, tensor<2x!pphlo.pint>) -> tensor<2x!pphlo.pint>
    %955 = "pphlo.shift_right_logical"(%951, %203) : (tensor<2x!pphlo.pint>, tensor<2x!pphlo.pint>) -> tensor<2x!pphlo.pint>
    %956 = "pphlo.or"(%954, %955) : (tensor<2x!pphlo.pint>, tensor<2x!pphlo.pint>) -> tensor<2x!pphlo.pint>
    %957 = "pphlo.xor"(%952, %956) : (tensor<2x!pphlo.pint>, tensor<2x!pphlo.pint>) -> tensor<2x!pphlo.pint>
    %958 = "pphlo.add"(%957, %836) : (tensor<2x!pphlo.pint>, tensor<2x!pphlo.pint>) -> tensor<2x!pphlo.pint>
    %959 = "pphlo.add"(%958, %202) : (tensor<2x!pphlo.pint>, tensor<2x!pphlo.pint>) -> tensor<2x!pphlo.pint>
    %960 = "pphlo.concatenate"(%953, %959) {dimension = 0 : i64} : (tensor<2x!pphlo.pint>, tensor<2x!pphlo.pint>) -> tensor<4x!pphlo.pint>
    %961 = "pphlo.reshape"(%960) : (tensor<4x!pphlo.pint>) -> tensor<2x2x!pphlo.pint>
    %962 = "pphlo.slice"(%961) {limit_indices = dense<[2, 1]> : tensor<2xi64>, start_indices = dense<[1, 0]> : tensor<2xi64>, strides = dense<1> : tensor<2xi64>} : (tensor<2x2x!pphlo.pint>) -> tensor<1x1x!pphlo.pint>
    %963 = "pphlo.reshape"(%962) : (tensor<1x1x!pphlo.pint>) -> tensor<!pphlo.pint>
    %964 = "pphlo.broadcast"(%963) {broadcast_dimensions = dense<> : tensor<0xi64>} : (tensor<!pphlo.pint>) -> tensor<2x!pphlo.pint>
    %965 = "pphlo.add"(%275, %964) : (tensor<2x!pphlo.pint>, tensor<2x!pphlo.pint>) -> tensor<2x!pphlo.pint>
    %966 = "pphlo.slice"(%961) {limit_indices = dense<2> : tensor<2xi64>, start_indices = dense<[1, 0]> : tensor<2xi64>, strides = dense<1> : tensor<2xi64>} : (tensor<2x2x!pphlo.pint>) -> tensor<1x2x!pphlo.pint>
    %967 = "pphlo.reshape"(%966) : (tensor<1x2x!pphlo.pint>) -> tensor<2x!pphlo.pint>
    %968 = "pphlo.slice"(%967) {limit_indices = dense<2> : tensor<1xi64>, start_indices = dense<1> : tensor<1xi64>, strides = dense<1> : tensor<1xi64>} : (tensor<2x!pphlo.pint>) -> tensor<1x!pphlo.pint>
    %969 = "pphlo.reshape"(%968) : (tensor<1x!pphlo.pint>) -> tensor<!pphlo.pint>
    %970 = "pphlo.broadcast"(%969) {broadcast_dimensions = dense<> : tensor<0xi64>} : (tensor<!pphlo.pint>) -> tensor<2x!pphlo.pint>
    %971 = "pphlo.add"(%276, %970) : (tensor<2x!pphlo.pint>, tensor<2x!pphlo.pint>) -> tensor<2x!pphlo.pint>
    %972 = "pphlo.add"(%965, %971) : (tensor<2x!pphlo.pint>, tensor<2x!pphlo.pint>) -> tensor<2x!pphlo.pint>
    %973 = "pphlo.shift_left"(%971, %208) : (tensor<2x!pphlo.pint>, tensor<2x!pphlo.pint>) -> tensor<2x!pphlo.pint>
    %974 = "pphlo.shift_right_logical"(%971, %207) : (tensor<2x!pphlo.pint>, tensor<2x!pphlo.pint>) -> tensor<2x!pphlo.pint>
    %975 = "pphlo.or"(%973, %974) : (tensor<2x!pphlo.pint>, tensor<2x!pphlo.pint>) -> tensor<2x!pphlo.pint>
    %976 = "pphlo.xor"(%972, %975) : (tensor<2x!pphlo.pint>, tensor<2x!pphlo.pint>) -> tensor<2x!pphlo.pint>
    %977 = "pphlo.add"(%972, %976) : (tensor<2x!pphlo.pint>, tensor<2x!pphlo.pint>) -> tensor<2x!pphlo.pint>
    %978 = "pphlo.shift_left"(%976, %206) : (tensor<2x!pphlo.pint>, tensor<2x!pphlo.pint>) -> tensor<2x!pphlo.pint>
    %979 = "pphlo.shift_right_logical"(%976, %205) : (tensor<2x!pphlo.pint>, tensor<2x!pphlo.pint>) -> tensor<2x!pphlo.pint>
    %980 = "pphlo.or"(%978, %979) : (tensor<2x!pphlo.pint>, tensor<2x!pphlo.pint>) -> tensor<2x!pphlo.pint>
    %981 = "pphlo.xor"(%977, %980) : (tensor<2x!pphlo.pint>, tensor<2x!pphlo.pint>) -> tensor<2x!pphlo.pint>
    %982 = "pphlo.add"(%977, %981) : (tensor<2x!pphlo.pint>, tensor<2x!pphlo.pint>) -> tensor<2x!pphlo.pint>
    %983 = "pphlo.shift_left"(%981, %203) : (tensor<2x!pphlo.pint>, tensor<2x!pphlo.pint>) -> tensor<2x!pphlo.pint>
    %984 = "pphlo.shift_right_logical"(%981, %204) : (tensor<2x!pphlo.pint>, tensor<2x!pphlo.pint>) -> tensor<2x!pphlo.pint>
    %985 = "pphlo.or"(%983, %984) : (tensor<2x!pphlo.pint>, tensor<2x!pphlo.pint>) -> tensor<2x!pphlo.pint>
    %986 = "pphlo.xor"(%982, %985) : (tensor<2x!pphlo.pint>, tensor<2x!pphlo.pint>) -> tensor<2x!pphlo.pint>
    %987 = "pphlo.add"(%982, %986) : (tensor<2x!pphlo.pint>, tensor<2x!pphlo.pint>) -> tensor<2x!pphlo.pint>
    %988 = "pphlo.add"(%987, %970) : (tensor<2x!pphlo.pint>, tensor<2x!pphlo.pint>) -> tensor<2x!pphlo.pint>
    %989 = "pphlo.shift_left"(%986, %204) : (tensor<2x!pphlo.pint>, tensor<2x!pphlo.pint>) -> tensor<2x!pphlo.pint>
    %990 = "pphlo.shift_right_logical"(%986, %203) : (tensor<2x!pphlo.pint>, tensor<2x!pphlo.pint>) -> tensor<2x!pphlo.pint>
    %991 = "pphlo.or"(%989, %990) : (tensor<2x!pphlo.pint>, tensor<2x!pphlo.pint>) -> tensor<2x!pphlo.pint>
    %992 = "pphlo.xor"(%987, %991) : (tensor<2x!pphlo.pint>, tensor<2x!pphlo.pint>) -> tensor<2x!pphlo.pint>
    %993 = "pphlo.xor"(%963, %969) : (tensor<!pphlo.pint>, tensor<!pphlo.pint>) -> tensor<!pphlo.pint>
    %994 = "pphlo.xor"(%993, %68) : (tensor<!pphlo.pint>, tensor<!pphlo.pint>) -> tensor<!pphlo.pint>
    %995 = "pphlo.broadcast"(%994) {broadcast_dimensions = dense<> : tensor<0xi64>} : (tensor<!pphlo.pint>) -> tensor<2x!pphlo.pint>
    %996 = "pphlo.add"(%992, %995) : (tensor<2x!pphlo.pint>, tensor<2x!pphlo.pint>) -> tensor<2x!pphlo.pint>
    %997 = "pphlo.add"(%996, %216) : (tensor<2x!pphlo.pint>, tensor<2x!pphlo.pint>) -> tensor<2x!pphlo.pint>
    %998 = "pphlo.add"(%988, %997) : (tensor<2x!pphlo.pint>, tensor<2x!pphlo.pint>) -> tensor<2x!pphlo.pint>
    %999 = "pphlo.shift_left"(%997, %205) : (tensor<2x!pphlo.pint>, tensor<2x!pphlo.pint>) -> tensor<2x!pphlo.pint>
    %1000 = "pphlo.shift_right_logical"(%997, %206) : (tensor<2x!pphlo.pint>, tensor<2x!pphlo.pint>) -> tensor<2x!pphlo.pint>
    %1001 = "pphlo.or"(%999, %1000) : (tensor<2x!pphlo.pint>, tensor<2x!pphlo.pint>) -> tensor<2x!pphlo.pint>
    %1002 = "pphlo.xor"(%998, %1001) : (tensor<2x!pphlo.pint>, tensor<2x!pphlo.pint>) -> tensor<2x!pphlo.pint>
    %1003 = "pphlo.add"(%998, %1002) : (tensor<2x!pphlo.pint>, tensor<2x!pphlo.pint>) -> tensor<2x!pphlo.pint>
    %1004 = "pphlo.shift_left"(%1002, %214) : (tensor<2x!pphlo.pint>, tensor<2x!pphlo.pint>) -> tensor<2x!pphlo.pint>
    %1005 = "pphlo.shift_right_logical"(%1002, %213) : (tensor<2x!pphlo.pint>, tensor<2x!pphlo.pint>) -> tensor<2x!pphlo.pint>
    %1006 = "pphlo.or"(%1004, %1005) : (tensor<2x!pphlo.pint>, tensor<2x!pphlo.pint>) -> tensor<2x!pphlo.pint>
    %1007 = "pphlo.xor"(%1003, %1006) : (tensor<2x!pphlo.pint>, tensor<2x!pphlo.pint>) -> tensor<2x!pphlo.pint>
    %1008 = "pphlo.add"(%1003, %1007) : (tensor<2x!pphlo.pint>, tensor<2x!pphlo.pint>) -> tensor<2x!pphlo.pint>
    %1009 = "pphlo.shift_left"(%1007, %212) : (tensor<2x!pphlo.pint>, tensor<2x!pphlo.pint>) -> tensor<2x!pphlo.pint>
    %1010 = "pphlo.shift_right_logical"(%1007, %212) : (tensor<2x!pphlo.pint>, tensor<2x!pphlo.pint>) -> tensor<2x!pphlo.pint>
    %1011 = "pphlo.or"(%1009, %1010) : (tensor<2x!pphlo.pint>, tensor<2x!pphlo.pint>) -> tensor<2x!pphlo.pint>
    %1012 = "pphlo.xor"(%1008, %1011) : (tensor<2x!pphlo.pint>, tensor<2x!pphlo.pint>) -> tensor<2x!pphlo.pint>
    %1013 = "pphlo.add"(%1008, %1012) : (tensor<2x!pphlo.pint>, tensor<2x!pphlo.pint>) -> tensor<2x!pphlo.pint>
    %1014 = "pphlo.add"(%1013, %995) : (tensor<2x!pphlo.pint>, tensor<2x!pphlo.pint>) -> tensor<2x!pphlo.pint>
    %1015 = "pphlo.shift_left"(%1012, %211) : (tensor<2x!pphlo.pint>, tensor<2x!pphlo.pint>) -> tensor<2x!pphlo.pint>
    %1016 = "pphlo.shift_right_logical"(%1012, %210) : (tensor<2x!pphlo.pint>, tensor<2x!pphlo.pint>) -> tensor<2x!pphlo.pint>
    %1017 = "pphlo.or"(%1015, %1016) : (tensor<2x!pphlo.pint>, tensor<2x!pphlo.pint>) -> tensor<2x!pphlo.pint>
    %1018 = "pphlo.xor"(%1013, %1017) : (tensor<2x!pphlo.pint>, tensor<2x!pphlo.pint>) -> tensor<2x!pphlo.pint>
    %1019 = "pphlo.add"(%1018, %964) : (tensor<2x!pphlo.pint>, tensor<2x!pphlo.pint>) -> tensor<2x!pphlo.pint>
    %1020 = "pphlo.add"(%1019, %215) : (tensor<2x!pphlo.pint>, tensor<2x!pphlo.pint>) -> tensor<2x!pphlo.pint>
    %1021 = "pphlo.add"(%1014, %1020) : (tensor<2x!pphlo.pint>, tensor<2x!pphlo.pint>) -> tensor<2x!pphlo.pint>
    %1022 = "pphlo.shift_left"(%1020, %208) : (tensor<2x!pphlo.pint>, tensor<2x!pphlo.pint>) -> tensor<2x!pphlo.pint>
    %1023 = "pphlo.shift_right_logical"(%1020, %207) : (tensor<2x!pphlo.pint>, tensor<2x!pphlo.pint>) -> tensor<2x!pphlo.pint>
    %1024 = "pphlo.or"(%1022, %1023) : (tensor<2x!pphlo.pint>, tensor<2x!pphlo.pint>) -> tensor<2x!pphlo.pint>
    %1025 = "pphlo.xor"(%1021, %1024) : (tensor<2x!pphlo.pint>, tensor<2x!pphlo.pint>) -> tensor<2x!pphlo.pint>
    %1026 = "pphlo.add"(%1021, %1025) : (tensor<2x!pphlo.pint>, tensor<2x!pphlo.pint>) -> tensor<2x!pphlo.pint>
    %1027 = "pphlo.shift_left"(%1025, %206) : (tensor<2x!pphlo.pint>, tensor<2x!pphlo.pint>) -> tensor<2x!pphlo.pint>
    %1028 = "pphlo.shift_right_logical"(%1025, %205) : (tensor<2x!pphlo.pint>, tensor<2x!pphlo.pint>) -> tensor<2x!pphlo.pint>
    %1029 = "pphlo.or"(%1027, %1028) : (tensor<2x!pphlo.pint>, tensor<2x!pphlo.pint>) -> tensor<2x!pphlo.pint>
    %1030 = "pphlo.xor"(%1026, %1029) : (tensor<2x!pphlo.pint>, tensor<2x!pphlo.pint>) -> tensor<2x!pphlo.pint>
    %1031 = "pphlo.add"(%1026, %1030) : (tensor<2x!pphlo.pint>, tensor<2x!pphlo.pint>) -> tensor<2x!pphlo.pint>
    %1032 = "pphlo.shift_left"(%1030, %203) : (tensor<2x!pphlo.pint>, tensor<2x!pphlo.pint>) -> tensor<2x!pphlo.pint>
    %1033 = "pphlo.shift_right_logical"(%1030, %204) : (tensor<2x!pphlo.pint>, tensor<2x!pphlo.pint>) -> tensor<2x!pphlo.pint>
    %1034 = "pphlo.or"(%1032, %1033) : (tensor<2x!pphlo.pint>, tensor<2x!pphlo.pint>) -> tensor<2x!pphlo.pint>
    %1035 = "pphlo.xor"(%1031, %1034) : (tensor<2x!pphlo.pint>, tensor<2x!pphlo.pint>) -> tensor<2x!pphlo.pint>
    %1036 = "pphlo.add"(%1031, %1035) : (tensor<2x!pphlo.pint>, tensor<2x!pphlo.pint>) -> tensor<2x!pphlo.pint>
    %1037 = "pphlo.add"(%1036, %964) : (tensor<2x!pphlo.pint>, tensor<2x!pphlo.pint>) -> tensor<2x!pphlo.pint>
    %1038 = "pphlo.shift_left"(%1035, %204) : (tensor<2x!pphlo.pint>, tensor<2x!pphlo.pint>) -> tensor<2x!pphlo.pint>
    %1039 = "pphlo.shift_right_logical"(%1035, %203) : (tensor<2x!pphlo.pint>, tensor<2x!pphlo.pint>) -> tensor<2x!pphlo.pint>
    %1040 = "pphlo.or"(%1038, %1039) : (tensor<2x!pphlo.pint>, tensor<2x!pphlo.pint>) -> tensor<2x!pphlo.pint>
    %1041 = "pphlo.xor"(%1036, %1040) : (tensor<2x!pphlo.pint>, tensor<2x!pphlo.pint>) -> tensor<2x!pphlo.pint>
    %1042 = "pphlo.add"(%1041, %970) : (tensor<2x!pphlo.pint>, tensor<2x!pphlo.pint>) -> tensor<2x!pphlo.pint>
    %1043 = "pphlo.add"(%1042, %213) : (tensor<2x!pphlo.pint>, tensor<2x!pphlo.pint>) -> tensor<2x!pphlo.pint>
    %1044 = "pphlo.add"(%1037, %1043) : (tensor<2x!pphlo.pint>, tensor<2x!pphlo.pint>) -> tensor<2x!pphlo.pint>
    %1045 = "pphlo.shift_left"(%1043, %205) : (tensor<2x!pphlo.pint>, tensor<2x!pphlo.pint>) -> tensor<2x!pphlo.pint>
    %1046 = "pphlo.shift_right_logical"(%1043, %206) : (tensor<2x!pphlo.pint>, tensor<2x!pphlo.pint>) -> tensor<2x!pphlo.pint>
    %1047 = "pphlo.or"(%1045, %1046) : (tensor<2x!pphlo.pint>, tensor<2x!pphlo.pint>) -> tensor<2x!pphlo.pint>
    %1048 = "pphlo.xor"(%1044, %1047) : (tensor<2x!pphlo.pint>, tensor<2x!pphlo.pint>) -> tensor<2x!pphlo.pint>
    %1049 = "pphlo.add"(%1044, %1048) : (tensor<2x!pphlo.pint>, tensor<2x!pphlo.pint>) -> tensor<2x!pphlo.pint>
    %1050 = "pphlo.shift_left"(%1048, %214) : (tensor<2x!pphlo.pint>, tensor<2x!pphlo.pint>) -> tensor<2x!pphlo.pint>
    %1051 = "pphlo.shift_right_logical"(%1048, %213) : (tensor<2x!pphlo.pint>, tensor<2x!pphlo.pint>) -> tensor<2x!pphlo.pint>
    %1052 = "pphlo.or"(%1050, %1051) : (tensor<2x!pphlo.pint>, tensor<2x!pphlo.pint>) -> tensor<2x!pphlo.pint>
    %1053 = "pphlo.xor"(%1049, %1052) : (tensor<2x!pphlo.pint>, tensor<2x!pphlo.pint>) -> tensor<2x!pphlo.pint>
    %1054 = "pphlo.add"(%1049, %1053) : (tensor<2x!pphlo.pint>, tensor<2x!pphlo.pint>) -> tensor<2x!pphlo.pint>
    %1055 = "pphlo.shift_left"(%1053, %212) : (tensor<2x!pphlo.pint>, tensor<2x!pphlo.pint>) -> tensor<2x!pphlo.pint>
    %1056 = "pphlo.shift_right_logical"(%1053, %212) : (tensor<2x!pphlo.pint>, tensor<2x!pphlo.pint>) -> tensor<2x!pphlo.pint>
    %1057 = "pphlo.or"(%1055, %1056) : (tensor<2x!pphlo.pint>, tensor<2x!pphlo.pint>) -> tensor<2x!pphlo.pint>
    %1058 = "pphlo.xor"(%1054, %1057) : (tensor<2x!pphlo.pint>, tensor<2x!pphlo.pint>) -> tensor<2x!pphlo.pint>
    %1059 = "pphlo.add"(%1054, %1058) : (tensor<2x!pphlo.pint>, tensor<2x!pphlo.pint>) -> tensor<2x!pphlo.pint>
    %1060 = "pphlo.add"(%1059, %970) : (tensor<2x!pphlo.pint>, tensor<2x!pphlo.pint>) -> tensor<2x!pphlo.pint>
    %1061 = "pphlo.shift_left"(%1058, %211) : (tensor<2x!pphlo.pint>, tensor<2x!pphlo.pint>) -> tensor<2x!pphlo.pint>
    %1062 = "pphlo.shift_right_logical"(%1058, %210) : (tensor<2x!pphlo.pint>, tensor<2x!pphlo.pint>) -> tensor<2x!pphlo.pint>
    %1063 = "pphlo.or"(%1061, %1062) : (tensor<2x!pphlo.pint>, tensor<2x!pphlo.pint>) -> tensor<2x!pphlo.pint>
    %1064 = "pphlo.xor"(%1059, %1063) : (tensor<2x!pphlo.pint>, tensor<2x!pphlo.pint>) -> tensor<2x!pphlo.pint>
    %1065 = "pphlo.add"(%1064, %995) : (tensor<2x!pphlo.pint>, tensor<2x!pphlo.pint>) -> tensor<2x!pphlo.pint>
    %1066 = "pphlo.add"(%1065, %209) : (tensor<2x!pphlo.pint>, tensor<2x!pphlo.pint>) -> tensor<2x!pphlo.pint>
    %1067 = "pphlo.add"(%1060, %1066) : (tensor<2x!pphlo.pint>, tensor<2x!pphlo.pint>) -> tensor<2x!pphlo.pint>
    %1068 = "pphlo.shift_left"(%1066, %208) : (tensor<2x!pphlo.pint>, tensor<2x!pphlo.pint>) -> tensor<2x!pphlo.pint>
    %1069 = "pphlo.shift_right_logical"(%1066, %207) : (tensor<2x!pphlo.pint>, tensor<2x!pphlo.pint>) -> tensor<2x!pphlo.pint>
    %1070 = "pphlo.or"(%1068, %1069) : (tensor<2x!pphlo.pint>, tensor<2x!pphlo.pint>) -> tensor<2x!pphlo.pint>
    %1071 = "pphlo.xor"(%1067, %1070) : (tensor<2x!pphlo.pint>, tensor<2x!pphlo.pint>) -> tensor<2x!pphlo.pint>
    %1072 = "pphlo.add"(%1067, %1071) : (tensor<2x!pphlo.pint>, tensor<2x!pphlo.pint>) -> tensor<2x!pphlo.pint>
    %1073 = "pphlo.shift_left"(%1071, %206) : (tensor<2x!pphlo.pint>, tensor<2x!pphlo.pint>) -> tensor<2x!pphlo.pint>
    %1074 = "pphlo.shift_right_logical"(%1071, %205) : (tensor<2x!pphlo.pint>, tensor<2x!pphlo.pint>) -> tensor<2x!pphlo.pint>
    %1075 = "pphlo.or"(%1073, %1074) : (tensor<2x!pphlo.pint>, tensor<2x!pphlo.pint>) -> tensor<2x!pphlo.pint>
    %1076 = "pphlo.xor"(%1072, %1075) : (tensor<2x!pphlo.pint>, tensor<2x!pphlo.pint>) -> tensor<2x!pphlo.pint>
    %1077 = "pphlo.add"(%1072, %1076) : (tensor<2x!pphlo.pint>, tensor<2x!pphlo.pint>) -> tensor<2x!pphlo.pint>
    %1078 = "pphlo.shift_left"(%1076, %203) : (tensor<2x!pphlo.pint>, tensor<2x!pphlo.pint>) -> tensor<2x!pphlo.pint>
    %1079 = "pphlo.shift_right_logical"(%1076, %204) : (tensor<2x!pphlo.pint>, tensor<2x!pphlo.pint>) -> tensor<2x!pphlo.pint>
    %1080 = "pphlo.or"(%1078, %1079) : (tensor<2x!pphlo.pint>, tensor<2x!pphlo.pint>) -> tensor<2x!pphlo.pint>
    %1081 = "pphlo.xor"(%1077, %1080) : (tensor<2x!pphlo.pint>, tensor<2x!pphlo.pint>) -> tensor<2x!pphlo.pint>
    %1082 = "pphlo.add"(%1077, %1081) : (tensor<2x!pphlo.pint>, tensor<2x!pphlo.pint>) -> tensor<2x!pphlo.pint>
    %1083 = "pphlo.add"(%1082, %995) : (tensor<2x!pphlo.pint>, tensor<2x!pphlo.pint>) -> tensor<2x!pphlo.pint>
    %1084 = "pphlo.shift_left"(%1081, %204) : (tensor<2x!pphlo.pint>, tensor<2x!pphlo.pint>) -> tensor<2x!pphlo.pint>
    %1085 = "pphlo.shift_right_logical"(%1081, %203) : (tensor<2x!pphlo.pint>, tensor<2x!pphlo.pint>) -> tensor<2x!pphlo.pint>
    %1086 = "pphlo.or"(%1084, %1085) : (tensor<2x!pphlo.pint>, tensor<2x!pphlo.pint>) -> tensor<2x!pphlo.pint>
    %1087 = "pphlo.xor"(%1082, %1086) : (tensor<2x!pphlo.pint>, tensor<2x!pphlo.pint>) -> tensor<2x!pphlo.pint>
    %1088 = "pphlo.add"(%1087, %964) : (tensor<2x!pphlo.pint>, tensor<2x!pphlo.pint>) -> tensor<2x!pphlo.pint>
    %1089 = "pphlo.add"(%1088, %202) : (tensor<2x!pphlo.pint>, tensor<2x!pphlo.pint>) -> tensor<2x!pphlo.pint>
    %1090 = "pphlo.concatenate"(%1083, %1089) {dimension = 0 : i64} : (tensor<2x!pphlo.pint>, tensor<2x!pphlo.pint>) -> tensor<4x!pphlo.pint>
    %1091 = "pphlo.reshape"(%1090) : (tensor<4x!pphlo.pint>) -> tensor<2x2x!pphlo.pint>
    %1092 = "pphlo.slice"(%1091) {limit_indices = dense<[2, 1]> : tensor<2xi64>, start_indices = dense<[1, 0]> : tensor<2xi64>, strides = dense<1> : tensor<2xi64>} : (tensor<2x2x!pphlo.pint>) -> tensor<1x1x!pphlo.pint>
    %1093 = "pphlo.reshape"(%1092) : (tensor<1x1x!pphlo.pint>) -> tensor<!pphlo.pint>
    %1094 = "pphlo.broadcast"(%1093) {broadcast_dimensions = dense<> : tensor<0xi64>} : (tensor<!pphlo.pint>) -> tensor<15x!pphlo.pint>
    %1095 = "pphlo.add"(%833, %1094) : (tensor<15x!pphlo.pint>, tensor<15x!pphlo.pint>) -> tensor<15x!pphlo.pint>
    %1096 = "pphlo.slice"(%832) {limit_indices = dense<30> : tensor<1xi64>, start_indices = dense<15> : tensor<1xi64>, strides = dense<1> : tensor<1xi64>} : (tensor<30x!pphlo.pint>) -> tensor<15x!pphlo.pint>
    %1097 = "pphlo.slice"(%1091) {limit_indices = dense<2> : tensor<2xi64>, start_indices = dense<[1, 0]> : tensor<2xi64>, strides = dense<1> : tensor<2xi64>} : (tensor<2x2x!pphlo.pint>) -> tensor<1x2x!pphlo.pint>
    %1098 = "pphlo.reshape"(%1097) : (tensor<1x2x!pphlo.pint>) -> tensor<2x!pphlo.pint>
    %1099 = "pphlo.slice"(%1098) {limit_indices = dense<2> : tensor<1xi64>, start_indices = dense<1> : tensor<1xi64>, strides = dense<1> : tensor<1xi64>} : (tensor<2x!pphlo.pint>) -> tensor<1x!pphlo.pint>
    %1100 = "pphlo.reshape"(%1099) : (tensor<1x!pphlo.pint>) -> tensor<!pphlo.pint>
    %1101 = "pphlo.broadcast"(%1100) {broadcast_dimensions = dense<> : tensor<0xi64>} : (tensor<!pphlo.pint>) -> tensor<15x!pphlo.pint>
    %1102 = "pphlo.add"(%1096, %1101) : (tensor<15x!pphlo.pint>, tensor<15x!pphlo.pint>) -> tensor<15x!pphlo.pint>
    %1103 = "pphlo.add"(%1095, %1102) : (tensor<15x!pphlo.pint>, tensor<15x!pphlo.pint>) -> tensor<15x!pphlo.pint>
    %1104 = "pphlo.shift_left"(%1102, %193) : (tensor<15x!pphlo.pint>, tensor<15x!pphlo.pint>) -> tensor<15x!pphlo.pint>
    %1105 = "pphlo.shift_right_logical"(%1102, %192) : (tensor<15x!pphlo.pint>, tensor<15x!pphlo.pint>) -> tensor<15x!pphlo.pint>
    %1106 = "pphlo.or"(%1104, %1105) : (tensor<15x!pphlo.pint>, tensor<15x!pphlo.pint>) -> tensor<15x!pphlo.pint>
    %1107 = "pphlo.xor"(%1103, %1106) : (tensor<15x!pphlo.pint>, tensor<15x!pphlo.pint>) -> tensor<15x!pphlo.pint>
    %1108 = "pphlo.add"(%1103, %1107) : (tensor<15x!pphlo.pint>, tensor<15x!pphlo.pint>) -> tensor<15x!pphlo.pint>
    %1109 = "pphlo.shift_left"(%1107, %191) : (tensor<15x!pphlo.pint>, tensor<15x!pphlo.pint>) -> tensor<15x!pphlo.pint>
    %1110 = "pphlo.shift_right_logical"(%1107, %190) : (tensor<15x!pphlo.pint>, tensor<15x!pphlo.pint>) -> tensor<15x!pphlo.pint>
    %1111 = "pphlo.or"(%1109, %1110) : (tensor<15x!pphlo.pint>, tensor<15x!pphlo.pint>) -> tensor<15x!pphlo.pint>
    %1112 = "pphlo.xor"(%1108, %1111) : (tensor<15x!pphlo.pint>, tensor<15x!pphlo.pint>) -> tensor<15x!pphlo.pint>
    %1113 = "pphlo.add"(%1108, %1112) : (tensor<15x!pphlo.pint>, tensor<15x!pphlo.pint>) -> tensor<15x!pphlo.pint>
    %1114 = "pphlo.shift_left"(%1112, %188) : (tensor<15x!pphlo.pint>, tensor<15x!pphlo.pint>) -> tensor<15x!pphlo.pint>
    %1115 = "pphlo.shift_right_logical"(%1112, %189) : (tensor<15x!pphlo.pint>, tensor<15x!pphlo.pint>) -> tensor<15x!pphlo.pint>
    %1116 = "pphlo.or"(%1114, %1115) : (tensor<15x!pphlo.pint>, tensor<15x!pphlo.pint>) -> tensor<15x!pphlo.pint>
    %1117 = "pphlo.xor"(%1113, %1116) : (tensor<15x!pphlo.pint>, tensor<15x!pphlo.pint>) -> tensor<15x!pphlo.pint>
    %1118 = "pphlo.add"(%1113, %1117) : (tensor<15x!pphlo.pint>, tensor<15x!pphlo.pint>) -> tensor<15x!pphlo.pint>
    %1119 = "pphlo.add"(%1118, %1101) : (tensor<15x!pphlo.pint>, tensor<15x!pphlo.pint>) -> tensor<15x!pphlo.pint>
    %1120 = "pphlo.shift_left"(%1117, %189) : (tensor<15x!pphlo.pint>, tensor<15x!pphlo.pint>) -> tensor<15x!pphlo.pint>
    %1121 = "pphlo.shift_right_logical"(%1117, %188) : (tensor<15x!pphlo.pint>, tensor<15x!pphlo.pint>) -> tensor<15x!pphlo.pint>
    %1122 = "pphlo.or"(%1120, %1121) : (tensor<15x!pphlo.pint>, tensor<15x!pphlo.pint>) -> tensor<15x!pphlo.pint>
    %1123 = "pphlo.xor"(%1118, %1122) : (tensor<15x!pphlo.pint>, tensor<15x!pphlo.pint>) -> tensor<15x!pphlo.pint>
    %1124 = "pphlo.xor"(%1093, %1100) : (tensor<!pphlo.pint>, tensor<!pphlo.pint>) -> tensor<!pphlo.pint>
    %1125 = "pphlo.xor"(%1124, %68) : (tensor<!pphlo.pint>, tensor<!pphlo.pint>) -> tensor<!pphlo.pint>
    %1126 = "pphlo.broadcast"(%1125) {broadcast_dimensions = dense<> : tensor<0xi64>} : (tensor<!pphlo.pint>) -> tensor<15x!pphlo.pint>
    %1127 = "pphlo.add"(%1123, %1126) : (tensor<15x!pphlo.pint>, tensor<15x!pphlo.pint>) -> tensor<15x!pphlo.pint>
    %1128 = "pphlo.add"(%1127, %201) : (tensor<15x!pphlo.pint>, tensor<15x!pphlo.pint>) -> tensor<15x!pphlo.pint>
    %1129 = "pphlo.add"(%1119, %1128) : (tensor<15x!pphlo.pint>, tensor<15x!pphlo.pint>) -> tensor<15x!pphlo.pint>
    %1130 = "pphlo.shift_left"(%1128, %190) : (tensor<15x!pphlo.pint>, tensor<15x!pphlo.pint>) -> tensor<15x!pphlo.pint>
    %1131 = "pphlo.shift_right_logical"(%1128, %191) : (tensor<15x!pphlo.pint>, tensor<15x!pphlo.pint>) -> tensor<15x!pphlo.pint>
    %1132 = "pphlo.or"(%1130, %1131) : (tensor<15x!pphlo.pint>, tensor<15x!pphlo.pint>) -> tensor<15x!pphlo.pint>
    %1133 = "pphlo.xor"(%1129, %1132) : (tensor<15x!pphlo.pint>, tensor<15x!pphlo.pint>) -> tensor<15x!pphlo.pint>
    %1134 = "pphlo.add"(%1129, %1133) : (tensor<15x!pphlo.pint>, tensor<15x!pphlo.pint>) -> tensor<15x!pphlo.pint>
    %1135 = "pphlo.shift_left"(%1133, %199) : (tensor<15x!pphlo.pint>, tensor<15x!pphlo.pint>) -> tensor<15x!pphlo.pint>
    %1136 = "pphlo.shift_right_logical"(%1133, %198) : (tensor<15x!pphlo.pint>, tensor<15x!pphlo.pint>) -> tensor<15x!pphlo.pint>
    %1137 = "pphlo.or"(%1135, %1136) : (tensor<15x!pphlo.pint>, tensor<15x!pphlo.pint>) -> tensor<15x!pphlo.pint>
    %1138 = "pphlo.xor"(%1134, %1137) : (tensor<15x!pphlo.pint>, tensor<15x!pphlo.pint>) -> tensor<15x!pphlo.pint>
    %1139 = "pphlo.add"(%1134, %1138) : (tensor<15x!pphlo.pint>, tensor<15x!pphlo.pint>) -> tensor<15x!pphlo.pint>
    %1140 = "pphlo.shift_left"(%1138, %197) : (tensor<15x!pphlo.pint>, tensor<15x!pphlo.pint>) -> tensor<15x!pphlo.pint>
    %1141 = "pphlo.shift_right_logical"(%1138, %197) : (tensor<15x!pphlo.pint>, tensor<15x!pphlo.pint>) -> tensor<15x!pphlo.pint>
    %1142 = "pphlo.or"(%1140, %1141) : (tensor<15x!pphlo.pint>, tensor<15x!pphlo.pint>) -> tensor<15x!pphlo.pint>
    %1143 = "pphlo.xor"(%1139, %1142) : (tensor<15x!pphlo.pint>, tensor<15x!pphlo.pint>) -> tensor<15x!pphlo.pint>
    %1144 = "pphlo.add"(%1139, %1143) : (tensor<15x!pphlo.pint>, tensor<15x!pphlo.pint>) -> tensor<15x!pphlo.pint>
    %1145 = "pphlo.add"(%1144, %1126) : (tensor<15x!pphlo.pint>, tensor<15x!pphlo.pint>) -> tensor<15x!pphlo.pint>
    %1146 = "pphlo.shift_left"(%1143, %196) : (tensor<15x!pphlo.pint>, tensor<15x!pphlo.pint>) -> tensor<15x!pphlo.pint>
    %1147 = "pphlo.shift_right_logical"(%1143, %195) : (tensor<15x!pphlo.pint>, tensor<15x!pphlo.pint>) -> tensor<15x!pphlo.pint>
    %1148 = "pphlo.or"(%1146, %1147) : (tensor<15x!pphlo.pint>, tensor<15x!pphlo.pint>) -> tensor<15x!pphlo.pint>
    %1149 = "pphlo.xor"(%1144, %1148) : (tensor<15x!pphlo.pint>, tensor<15x!pphlo.pint>) -> tensor<15x!pphlo.pint>
    %1150 = "pphlo.add"(%1149, %1094) : (tensor<15x!pphlo.pint>, tensor<15x!pphlo.pint>) -> tensor<15x!pphlo.pint>
    %1151 = "pphlo.add"(%1150, %200) : (tensor<15x!pphlo.pint>, tensor<15x!pphlo.pint>) -> tensor<15x!pphlo.pint>
    %1152 = "pphlo.add"(%1145, %1151) : (tensor<15x!pphlo.pint>, tensor<15x!pphlo.pint>) -> tensor<15x!pphlo.pint>
    %1153 = "pphlo.shift_left"(%1151, %193) : (tensor<15x!pphlo.pint>, tensor<15x!pphlo.pint>) -> tensor<15x!pphlo.pint>
    %1154 = "pphlo.shift_right_logical"(%1151, %192) : (tensor<15x!pphlo.pint>, tensor<15x!pphlo.pint>) -> tensor<15x!pphlo.pint>
    %1155 = "pphlo.or"(%1153, %1154) : (tensor<15x!pphlo.pint>, tensor<15x!pphlo.pint>) -> tensor<15x!pphlo.pint>
    %1156 = "pphlo.xor"(%1152, %1155) : (tensor<15x!pphlo.pint>, tensor<15x!pphlo.pint>) -> tensor<15x!pphlo.pint>
    %1157 = "pphlo.add"(%1152, %1156) : (tensor<15x!pphlo.pint>, tensor<15x!pphlo.pint>) -> tensor<15x!pphlo.pint>
    %1158 = "pphlo.shift_left"(%1156, %191) : (tensor<15x!pphlo.pint>, tensor<15x!pphlo.pint>) -> tensor<15x!pphlo.pint>
    %1159 = "pphlo.shift_right_logical"(%1156, %190) : (tensor<15x!pphlo.pint>, tensor<15x!pphlo.pint>) -> tensor<15x!pphlo.pint>
    %1160 = "pphlo.or"(%1158, %1159) : (tensor<15x!pphlo.pint>, tensor<15x!pphlo.pint>) -> tensor<15x!pphlo.pint>
    %1161 = "pphlo.xor"(%1157, %1160) : (tensor<15x!pphlo.pint>, tensor<15x!pphlo.pint>) -> tensor<15x!pphlo.pint>
    %1162 = "pphlo.add"(%1157, %1161) : (tensor<15x!pphlo.pint>, tensor<15x!pphlo.pint>) -> tensor<15x!pphlo.pint>
    %1163 = "pphlo.shift_left"(%1161, %188) : (tensor<15x!pphlo.pint>, tensor<15x!pphlo.pint>) -> tensor<15x!pphlo.pint>
    %1164 = "pphlo.shift_right_logical"(%1161, %189) : (tensor<15x!pphlo.pint>, tensor<15x!pphlo.pint>) -> tensor<15x!pphlo.pint>
    %1165 = "pphlo.or"(%1163, %1164) : (tensor<15x!pphlo.pint>, tensor<15x!pphlo.pint>) -> tensor<15x!pphlo.pint>
    %1166 = "pphlo.xor"(%1162, %1165) : (tensor<15x!pphlo.pint>, tensor<15x!pphlo.pint>) -> tensor<15x!pphlo.pint>
    %1167 = "pphlo.add"(%1162, %1166) : (tensor<15x!pphlo.pint>, tensor<15x!pphlo.pint>) -> tensor<15x!pphlo.pint>
    %1168 = "pphlo.add"(%1167, %1094) : (tensor<15x!pphlo.pint>, tensor<15x!pphlo.pint>) -> tensor<15x!pphlo.pint>
    %1169 = "pphlo.shift_left"(%1166, %189) : (tensor<15x!pphlo.pint>, tensor<15x!pphlo.pint>) -> tensor<15x!pphlo.pint>
    %1170 = "pphlo.shift_right_logical"(%1166, %188) : (tensor<15x!pphlo.pint>, tensor<15x!pphlo.pint>) -> tensor<15x!pphlo.pint>
    %1171 = "pphlo.or"(%1169, %1170) : (tensor<15x!pphlo.pint>, tensor<15x!pphlo.pint>) -> tensor<15x!pphlo.pint>
    %1172 = "pphlo.xor"(%1167, %1171) : (tensor<15x!pphlo.pint>, tensor<15x!pphlo.pint>) -> tensor<15x!pphlo.pint>
    %1173 = "pphlo.add"(%1172, %1101) : (tensor<15x!pphlo.pint>, tensor<15x!pphlo.pint>) -> tensor<15x!pphlo.pint>
    %1174 = "pphlo.add"(%1173, %198) : (tensor<15x!pphlo.pint>, tensor<15x!pphlo.pint>) -> tensor<15x!pphlo.pint>
    %1175 = "pphlo.add"(%1168, %1174) : (tensor<15x!pphlo.pint>, tensor<15x!pphlo.pint>) -> tensor<15x!pphlo.pint>
    %1176 = "pphlo.shift_left"(%1174, %190) : (tensor<15x!pphlo.pint>, tensor<15x!pphlo.pint>) -> tensor<15x!pphlo.pint>
    %1177 = "pphlo.shift_right_logical"(%1174, %191) : (tensor<15x!pphlo.pint>, tensor<15x!pphlo.pint>) -> tensor<15x!pphlo.pint>
    %1178 = "pphlo.or"(%1176, %1177) : (tensor<15x!pphlo.pint>, tensor<15x!pphlo.pint>) -> tensor<15x!pphlo.pint>
    %1179 = "pphlo.xor"(%1175, %1178) : (tensor<15x!pphlo.pint>, tensor<15x!pphlo.pint>) -> tensor<15x!pphlo.pint>
    %1180 = "pphlo.add"(%1175, %1179) : (tensor<15x!pphlo.pint>, tensor<15x!pphlo.pint>) -> tensor<15x!pphlo.pint>
    %1181 = "pphlo.shift_left"(%1179, %199) : (tensor<15x!pphlo.pint>, tensor<15x!pphlo.pint>) -> tensor<15x!pphlo.pint>
    %1182 = "pphlo.shift_right_logical"(%1179, %198) : (tensor<15x!pphlo.pint>, tensor<15x!pphlo.pint>) -> tensor<15x!pphlo.pint>
    %1183 = "pphlo.or"(%1181, %1182) : (tensor<15x!pphlo.pint>, tensor<15x!pphlo.pint>) -> tensor<15x!pphlo.pint>
    %1184 = "pphlo.xor"(%1180, %1183) : (tensor<15x!pphlo.pint>, tensor<15x!pphlo.pint>) -> tensor<15x!pphlo.pint>
    %1185 = "pphlo.add"(%1180, %1184) : (tensor<15x!pphlo.pint>, tensor<15x!pphlo.pint>) -> tensor<15x!pphlo.pint>
    %1186 = "pphlo.shift_left"(%1184, %197) : (tensor<15x!pphlo.pint>, tensor<15x!pphlo.pint>) -> tensor<15x!pphlo.pint>
    %1187 = "pphlo.shift_right_logical"(%1184, %197) : (tensor<15x!pphlo.pint>, tensor<15x!pphlo.pint>) -> tensor<15x!pphlo.pint>
    %1188 = "pphlo.or"(%1186, %1187) : (tensor<15x!pphlo.pint>, tensor<15x!pphlo.pint>) -> tensor<15x!pphlo.pint>
    %1189 = "pphlo.xor"(%1185, %1188) : (tensor<15x!pphlo.pint>, tensor<15x!pphlo.pint>) -> tensor<15x!pphlo.pint>
    %1190 = "pphlo.add"(%1185, %1189) : (tensor<15x!pphlo.pint>, tensor<15x!pphlo.pint>) -> tensor<15x!pphlo.pint>
    %1191 = "pphlo.add"(%1190, %1101) : (tensor<15x!pphlo.pint>, tensor<15x!pphlo.pint>) -> tensor<15x!pphlo.pint>
    %1192 = "pphlo.shift_left"(%1189, %196) : (tensor<15x!pphlo.pint>, tensor<15x!pphlo.pint>) -> tensor<15x!pphlo.pint>
    %1193 = "pphlo.shift_right_logical"(%1189, %195) : (tensor<15x!pphlo.pint>, tensor<15x!pphlo.pint>) -> tensor<15x!pphlo.pint>
    %1194 = "pphlo.or"(%1192, %1193) : (tensor<15x!pphlo.pint>, tensor<15x!pphlo.pint>) -> tensor<15x!pphlo.pint>
    %1195 = "pphlo.xor"(%1190, %1194) : (tensor<15x!pphlo.pint>, tensor<15x!pphlo.pint>) -> tensor<15x!pphlo.pint>
    %1196 = "pphlo.add"(%1195, %1126) : (tensor<15x!pphlo.pint>, tensor<15x!pphlo.pint>) -> tensor<15x!pphlo.pint>
    %1197 = "pphlo.add"(%1196, %194) : (tensor<15x!pphlo.pint>, tensor<15x!pphlo.pint>) -> tensor<15x!pphlo.pint>
    %1198 = "pphlo.add"(%1191, %1197) : (tensor<15x!pphlo.pint>, tensor<15x!pphlo.pint>) -> tensor<15x!pphlo.pint>
    %1199 = "pphlo.shift_left"(%1197, %193) : (tensor<15x!pphlo.pint>, tensor<15x!pphlo.pint>) -> tensor<15x!pphlo.pint>
    %1200 = "pphlo.shift_right_logical"(%1197, %192) : (tensor<15x!pphlo.pint>, tensor<15x!pphlo.pint>) -> tensor<15x!pphlo.pint>
    %1201 = "pphlo.or"(%1199, %1200) : (tensor<15x!pphlo.pint>, tensor<15x!pphlo.pint>) -> tensor<15x!pphlo.pint>
    %1202 = "pphlo.xor"(%1198, %1201) : (tensor<15x!pphlo.pint>, tensor<15x!pphlo.pint>) -> tensor<15x!pphlo.pint>
    %1203 = "pphlo.add"(%1198, %1202) : (tensor<15x!pphlo.pint>, tensor<15x!pphlo.pint>) -> tensor<15x!pphlo.pint>
    %1204 = "pphlo.shift_left"(%1202, %191) : (tensor<15x!pphlo.pint>, tensor<15x!pphlo.pint>) -> tensor<15x!pphlo.pint>
    %1205 = "pphlo.shift_right_logical"(%1202, %190) : (tensor<15x!pphlo.pint>, tensor<15x!pphlo.pint>) -> tensor<15x!pphlo.pint>
    %1206 = "pphlo.or"(%1204, %1205) : (tensor<15x!pphlo.pint>, tensor<15x!pphlo.pint>) -> tensor<15x!pphlo.pint>
    %1207 = "pphlo.xor"(%1203, %1206) : (tensor<15x!pphlo.pint>, tensor<15x!pphlo.pint>) -> tensor<15x!pphlo.pint>
    %1208 = "pphlo.add"(%1203, %1207) : (tensor<15x!pphlo.pint>, tensor<15x!pphlo.pint>) -> tensor<15x!pphlo.pint>
    %1209 = "pphlo.shift_left"(%1207, %188) : (tensor<15x!pphlo.pint>, tensor<15x!pphlo.pint>) -> tensor<15x!pphlo.pint>
    %1210 = "pphlo.shift_right_logical"(%1207, %189) : (tensor<15x!pphlo.pint>, tensor<15x!pphlo.pint>) -> tensor<15x!pphlo.pint>
    %1211 = "pphlo.or"(%1209, %1210) : (tensor<15x!pphlo.pint>, tensor<15x!pphlo.pint>) -> tensor<15x!pphlo.pint>
    %1212 = "pphlo.xor"(%1208, %1211) : (tensor<15x!pphlo.pint>, tensor<15x!pphlo.pint>) -> tensor<15x!pphlo.pint>
    %1213 = "pphlo.add"(%1208, %1212) : (tensor<15x!pphlo.pint>, tensor<15x!pphlo.pint>) -> tensor<15x!pphlo.pint>
    %1214 = "pphlo.add"(%1213, %1126) : (tensor<15x!pphlo.pint>, tensor<15x!pphlo.pint>) -> tensor<15x!pphlo.pint>
    %1215 = "pphlo.shift_left"(%1212, %189) : (tensor<15x!pphlo.pint>, tensor<15x!pphlo.pint>) -> tensor<15x!pphlo.pint>
    %1216 = "pphlo.shift_right_logical"(%1212, %188) : (tensor<15x!pphlo.pint>, tensor<15x!pphlo.pint>) -> tensor<15x!pphlo.pint>
    %1217 = "pphlo.or"(%1215, %1216) : (tensor<15x!pphlo.pint>, tensor<15x!pphlo.pint>) -> tensor<15x!pphlo.pint>
    %1218 = "pphlo.xor"(%1213, %1217) : (tensor<15x!pphlo.pint>, tensor<15x!pphlo.pint>) -> tensor<15x!pphlo.pint>
    %1219 = "pphlo.add"(%1218, %1094) : (tensor<15x!pphlo.pint>, tensor<15x!pphlo.pint>) -> tensor<15x!pphlo.pint>
    %1220 = "pphlo.add"(%1219, %187) : (tensor<15x!pphlo.pint>, tensor<15x!pphlo.pint>) -> tensor<15x!pphlo.pint>
    %1221 = "pphlo.concatenate"(%1214, %1220) {dimension = 0 : i64} : (tensor<15x!pphlo.pint>, tensor<15x!pphlo.pint>) -> tensor<30x!pphlo.pint>
    %1222:2 = "pphlo.sort"(%1221, %832) {dimension = 0 : i64, is_less = true, is_stable = true} : (tensor<30x!pphlo.pint>, tensor<30x!pphlo.pint>) -> (tensor<30x!pphlo.pint>, tensor<30x!pphlo.pint>)
    %1223 = "pphlo.less"(%1222#1, %89) : (tensor<30x!pphlo.pint>, tensor<30x!pphlo.pint>) -> tensor<30x!pphlo.pint>
    %1224 = "pphlo.add"(%1222#1, %88) : (tensor<30x!pphlo.pint>, tensor<30x!pphlo.pint>) -> tensor<30x!pphlo.pint>
    %1225 = "pphlo.subtract"(%1224, %1222#1) : (tensor<30x!pphlo.pint>, tensor<30x!pphlo.pint>) -> tensor<30x!pphlo.pint>
    %1226 = "pphlo.multiply"(%1223, %1225) : (tensor<30x!pphlo.pint>, tensor<30x!pphlo.pint>) -> tensor<30x!pphlo.pint>
    %1227 = "pphlo.add"(%1226, %1222#1) : (tensor<30x!pphlo.pint>, tensor<30x!pphlo.pint>) -> tensor<30x!pphlo.pint>
    %1228 = "pphlo.reshape"(%1227) : (tensor<30x!pphlo.pint>) -> tensor<30x1x!pphlo.pint>
    %1229 = "pphlo.gather"(%arg0, %1228) {dimension_numbers = #pphlo.gather<offset_dims = [1, 2, 3], collapsed_slice_dims = [0], start_index_map = [0], index_vector_dim = 1>, indices_are_sorted = false, slice_sizes = dense<[1, 28, 28, 1]> : tensor<4xi64>} : (tensor<30x28x28x1x!pphlo.pfxp>, tensor<30x1x!pphlo.pint>) -> tensor<30x28x28x1x!pphlo.pfxp>
    %1230 = pphlo.convolution(%1229, %831) dim_numbers = [b, 0, 1, f]x[0, 1, i, o]->[b, 0, 1, f], window = {stride = [1, 1], pad = [[1, 1], [1, 1]], lhs_dilate = [1, 1], rhs_dilate = [1, 1]} {batch_group_count = 1 : i64, feature_group_count = 1 : i64} : (tensor<30x28x28x1x!pphlo.pfxp>, tensor<3x3x1x32x!pphlo.pfxp>) -> tensor<30x28x28x32x!pphlo.pfxp>
    %1231 = "pphlo.greater"(%1230, %17) : (tensor<30x28x28x32x!pphlo.pfxp>, tensor<30x28x28x32x!pphlo.pfxp>) -> tensor<30x28x28x32x!pphlo.pint>
    %1232 = "pphlo.maximum"(%1230, %17) : (tensor<30x28x28x32x!pphlo.pfxp>, tensor<30x28x28x32x!pphlo.pfxp>) -> tensor<30x28x28x32x!pphlo.pfxp>
    %1233 = "pphlo.reduce_window"(%1232, %1) ( {
    ^bb0(%arg4: tensor<!pphlo.pfxp>, %arg5: tensor<!pphlo.pfxp>):  // no predecessors
      %2655 = "pphlo.add"(%arg4, %arg5) : (tensor<!pphlo.pfxp>, tensor<!pphlo.pfxp>) -> tensor<!pphlo.pfxp>
      "pphlo.return"(%2655) : (tensor<!pphlo.pfxp>) -> ()
    }) {base_dilations = dense<1> : tensor<4xi64>, padding = dense<0> : tensor<4x2xi64>, window_dilations = dense<1> : tensor<4xi64>, window_dimensions = dense<[1, 2, 2, 1]> : tensor<4xi64>, window_strides = dense<[1, 2, 2, 1]> : tensor<4xi64>} : (tensor<30x28x28x32x!pphlo.pfxp>, tensor<!pphlo.pfxp>) -> tensor<30x14x14x32x!pphlo.pfxp>
    %1234 = "pphlo.multiply"(%1233, %18) : (tensor<30x14x14x32x!pphlo.pfxp>, tensor<30x14x14x32x!pphlo.pfxp>) -> tensor<30x14x14x32x!pphlo.pfxp>
    %1235 = "pphlo.iota"() {iota_dimension = 0 : i64} : () -> tensor<18432x!pphlo.pint>
    %1236 = "pphlo.slice"(%1235) {limit_indices = dense<9216> : tensor<1xi64>, start_indices = dense<0> : tensor<1xi64>, strides = dense<1> : tensor<1xi64>} : (tensor<18432x!pphlo.pint>) -> tensor<9216x!pphlo.pint>
    %1237 = "pphlo.add"(%390, %185) : (tensor<1x!pphlo.pint>, tensor<1x!pphlo.pint>) -> tensor<1x!pphlo.pint>
    %1238 = "pphlo.add"(%387, %1237) : (tensor<1x!pphlo.pint>, tensor<1x!pphlo.pint>) -> tensor<1x!pphlo.pint>
    %1239 = "pphlo.shift_left"(%1237, %75) : (tensor<1x!pphlo.pint>, tensor<1x!pphlo.pint>) -> tensor<1x!pphlo.pint>
    %1240 = "pphlo.shift_right_logical"(%1237, %74) : (tensor<1x!pphlo.pint>, tensor<1x!pphlo.pint>) -> tensor<1x!pphlo.pint>
    %1241 = "pphlo.or"(%1239, %1240) : (tensor<1x!pphlo.pint>, tensor<1x!pphlo.pint>) -> tensor<1x!pphlo.pint>
    %1242 = "pphlo.xor"(%1238, %1241) : (tensor<1x!pphlo.pint>, tensor<1x!pphlo.pint>) -> tensor<1x!pphlo.pint>
    %1243 = "pphlo.add"(%1238, %1242) : (tensor<1x!pphlo.pint>, tensor<1x!pphlo.pint>) -> tensor<1x!pphlo.pint>
    %1244 = "pphlo.shift_left"(%1242, %73) : (tensor<1x!pphlo.pint>, tensor<1x!pphlo.pint>) -> tensor<1x!pphlo.pint>
    %1245 = "pphlo.shift_right_logical"(%1242, %72) : (tensor<1x!pphlo.pint>, tensor<1x!pphlo.pint>) -> tensor<1x!pphlo.pint>
    %1246 = "pphlo.or"(%1244, %1245) : (tensor<1x!pphlo.pint>, tensor<1x!pphlo.pint>) -> tensor<1x!pphlo.pint>
    %1247 = "pphlo.xor"(%1243, %1246) : (tensor<1x!pphlo.pint>, tensor<1x!pphlo.pint>) -> tensor<1x!pphlo.pint>
    %1248 = "pphlo.add"(%1243, %1247) : (tensor<1x!pphlo.pint>, tensor<1x!pphlo.pint>) -> tensor<1x!pphlo.pint>
    %1249 = "pphlo.shift_left"(%1247, %70) : (tensor<1x!pphlo.pint>, tensor<1x!pphlo.pint>) -> tensor<1x!pphlo.pint>
    %1250 = "pphlo.shift_right_logical"(%1247, %71) : (tensor<1x!pphlo.pint>, tensor<1x!pphlo.pint>) -> tensor<1x!pphlo.pint>
    %1251 = "pphlo.or"(%1249, %1250) : (tensor<1x!pphlo.pint>, tensor<1x!pphlo.pint>) -> tensor<1x!pphlo.pint>
    %1252 = "pphlo.xor"(%1248, %1251) : (tensor<1x!pphlo.pint>, tensor<1x!pphlo.pint>) -> tensor<1x!pphlo.pint>
    %1253 = "pphlo.add"(%1248, %1252) : (tensor<1x!pphlo.pint>, tensor<1x!pphlo.pint>) -> tensor<1x!pphlo.pint>
    %1254 = "pphlo.add"(%1253, %390) : (tensor<1x!pphlo.pint>, tensor<1x!pphlo.pint>) -> tensor<1x!pphlo.pint>
    %1255 = "pphlo.shift_left"(%1252, %71) : (tensor<1x!pphlo.pint>, tensor<1x!pphlo.pint>) -> tensor<1x!pphlo.pint>
    %1256 = "pphlo.shift_right_logical"(%1252, %70) : (tensor<1x!pphlo.pint>, tensor<1x!pphlo.pint>) -> tensor<1x!pphlo.pint>
    %1257 = "pphlo.or"(%1255, %1256) : (tensor<1x!pphlo.pint>, tensor<1x!pphlo.pint>) -> tensor<1x!pphlo.pint>
    %1258 = "pphlo.xor"(%1253, %1257) : (tensor<1x!pphlo.pint>, tensor<1x!pphlo.pint>) -> tensor<1x!pphlo.pint>
    %1259 = "pphlo.add"(%1258, %417) : (tensor<1x!pphlo.pint>, tensor<1x!pphlo.pint>) -> tensor<1x!pphlo.pint>
    %1260 = "pphlo.add"(%1259, %83) : (tensor<1x!pphlo.pint>, tensor<1x!pphlo.pint>) -> tensor<1x!pphlo.pint>
    %1261 = "pphlo.add"(%1254, %1260) : (tensor<1x!pphlo.pint>, tensor<1x!pphlo.pint>) -> tensor<1x!pphlo.pint>
    %1262 = "pphlo.shift_left"(%1260, %72) : (tensor<1x!pphlo.pint>, tensor<1x!pphlo.pint>) -> tensor<1x!pphlo.pint>
    %1263 = "pphlo.shift_right_logical"(%1260, %73) : (tensor<1x!pphlo.pint>, tensor<1x!pphlo.pint>) -> tensor<1x!pphlo.pint>
    %1264 = "pphlo.or"(%1262, %1263) : (tensor<1x!pphlo.pint>, tensor<1x!pphlo.pint>) -> tensor<1x!pphlo.pint>
    %1265 = "pphlo.xor"(%1261, %1264) : (tensor<1x!pphlo.pint>, tensor<1x!pphlo.pint>) -> tensor<1x!pphlo.pint>
    %1266 = "pphlo.add"(%1261, %1265) : (tensor<1x!pphlo.pint>, tensor<1x!pphlo.pint>) -> tensor<1x!pphlo.pint>
    %1267 = "pphlo.shift_left"(%1265, %81) : (tensor<1x!pphlo.pint>, tensor<1x!pphlo.pint>) -> tensor<1x!pphlo.pint>
    %1268 = "pphlo.shift_right_logical"(%1265, %80) : (tensor<1x!pphlo.pint>, tensor<1x!pphlo.pint>) -> tensor<1x!pphlo.pint>
    %1269 = "pphlo.or"(%1267, %1268) : (tensor<1x!pphlo.pint>, tensor<1x!pphlo.pint>) -> tensor<1x!pphlo.pint>
    %1270 = "pphlo.xor"(%1266, %1269) : (tensor<1x!pphlo.pint>, tensor<1x!pphlo.pint>) -> tensor<1x!pphlo.pint>
    %1271 = "pphlo.add"(%1266, %1270) : (tensor<1x!pphlo.pint>, tensor<1x!pphlo.pint>) -> tensor<1x!pphlo.pint>
    %1272 = "pphlo.shift_left"(%1270, %79) : (tensor<1x!pphlo.pint>, tensor<1x!pphlo.pint>) -> tensor<1x!pphlo.pint>
    %1273 = "pphlo.shift_right_logical"(%1270, %79) : (tensor<1x!pphlo.pint>, tensor<1x!pphlo.pint>) -> tensor<1x!pphlo.pint>
    %1274 = "pphlo.or"(%1272, %1273) : (tensor<1x!pphlo.pint>, tensor<1x!pphlo.pint>) -> tensor<1x!pphlo.pint>
    %1275 = "pphlo.xor"(%1271, %1274) : (tensor<1x!pphlo.pint>, tensor<1x!pphlo.pint>) -> tensor<1x!pphlo.pint>
    %1276 = "pphlo.add"(%1271, %1275) : (tensor<1x!pphlo.pint>, tensor<1x!pphlo.pint>) -> tensor<1x!pphlo.pint>
    %1277 = "pphlo.add"(%1276, %417) : (tensor<1x!pphlo.pint>, tensor<1x!pphlo.pint>) -> tensor<1x!pphlo.pint>
    %1278 = "pphlo.shift_left"(%1275, %78) : (tensor<1x!pphlo.pint>, tensor<1x!pphlo.pint>) -> tensor<1x!pphlo.pint>
    %1279 = "pphlo.shift_right_logical"(%1275, %77) : (tensor<1x!pphlo.pint>, tensor<1x!pphlo.pint>) -> tensor<1x!pphlo.pint>
    %1280 = "pphlo.or"(%1278, %1279) : (tensor<1x!pphlo.pint>, tensor<1x!pphlo.pint>) -> tensor<1x!pphlo.pint>
    %1281 = "pphlo.xor"(%1276, %1280) : (tensor<1x!pphlo.pint>, tensor<1x!pphlo.pint>) -> tensor<1x!pphlo.pint>
    %1282 = "pphlo.add"(%1281, %387) : (tensor<1x!pphlo.pint>, tensor<1x!pphlo.pint>) -> tensor<1x!pphlo.pint>
    %1283 = "pphlo.add"(%1282, %82) : (tensor<1x!pphlo.pint>, tensor<1x!pphlo.pint>) -> tensor<1x!pphlo.pint>
    %1284 = "pphlo.add"(%1277, %1283) : (tensor<1x!pphlo.pint>, tensor<1x!pphlo.pint>) -> tensor<1x!pphlo.pint>
    %1285 = "pphlo.shift_left"(%1283, %75) : (tensor<1x!pphlo.pint>, tensor<1x!pphlo.pint>) -> tensor<1x!pphlo.pint>
…
    %2302 = "pphlo.or"(%2300, %2301) : (tensor<1x!pphlo.pint>, tensor<1x!pphlo.pint>) -> tensor<1x!pphlo.pint>
    %2303 = "pphlo.xor"(%2299, %2302) : (tensor<1x!pphlo.pint>, tensor<1x!pphlo.pint>) -> tensor<1x!pphlo.pint>
    %2304 = "pphlo.add"(%2299, %2303) : (tensor<1x!pphlo.pint>, tensor<1x!pphlo.pint>) -> tensor<1x!pphlo.pint>
    %2305 = "pphlo.shift_left"(%2303, %73) : (tensor<1x!pphlo.pint>, tensor<1x!pphlo.pint>) -> tensor<1x!pphlo.pint>
    %2306 = "pphlo.shift_right_logical"(%2303, %72) : (tensor<1x!pphlo.pint>, tensor<1x!pphlo.pint>) -> tensor<1x!pphlo.pint>
    %2307 = "pphlo.or"(%2305, %2306) : (tensor<1x!pphlo.pint>, tensor<1x!pphlo.pint>) -> tensor<1x!pphlo.pint>
    %2308 = "pphlo.xor"(%2304, %2307) : (tensor<1x!pphlo.pint>, tensor<1x!pphlo.pint>) -> tensor<1x!pphlo.pint>
    %2309 = "pphlo.add"(%2304, %2308) : (tensor<1x!pphlo.pint>, tensor<1x!pphlo.pint>) -> tensor<1x!pphlo.pint>
    %2310 = "pphlo.shift_left"(%2308, %70) : (tensor<1x!pphlo.pint>, tensor<1x!pphlo.pint>) -> tensor<1x!pphlo.pint>
    %2311 = "pphlo.shift_right_logical"(%2308, %71) : (tensor<1x!pphlo.pint>, tensor<1x!pphlo.pint>) -> tensor<1x!pphlo.pint>
    %2312 = "pphlo.or"(%2310, %2311) : (tensor<1x!pphlo.pint>, tensor<1x!pphlo.pint>) -> tensor<1x!pphlo.pint>
    %2313 = "pphlo.xor"(%2309, %2312) : (tensor<1x!pphlo.pint>, tensor<1x!pphlo.pint>) -> tensor<1x!pphlo.pint>
    %2314 = "pphlo.add"(%2309, %2313) : (tensor<1x!pphlo.pint>, tensor<1x!pphlo.pint>) -> tensor<1x!pphlo.pint>
    %2315 = "pphlo.add"(%2314, %2240) : (tensor<1x!pphlo.pint>, tensor<1x!pphlo.pint>) -> tensor<1x!pphlo.pint>
    %2316 = "pphlo.shift_left"(%2313, %71) : (tensor<1x!pphlo.pint>, tensor<1x!pphlo.pint>) -> tensor<1x!pphlo.pint>
    %2317 = "pphlo.shift_right_logical"(%2313, %70) : (tensor<1x!pphlo.pint>, tensor<1x!pphlo.pint>) -> tensor<1x!pphlo.pint>
    %2318 = "pphlo.or"(%2316, %2317) : (tensor<1x!pphlo.pint>, tensor<1x!pphlo.pint>) -> tensor<1x!pphlo.pint>
    %2319 = "pphlo.xor"(%2314, %2318) : (tensor<1x!pphlo.pint>, tensor<1x!pphlo.pint>) -> tensor<1x!pphlo.pint>
    %2320 = "pphlo.add"(%2319, %2263) : (tensor<1x!pphlo.pint>, tensor<1x!pphlo.pint>) -> tensor<1x!pphlo.pint>
    %2321 = "pphlo.add"(%2320, %80) : (tensor<1x!pphlo.pint>, tensor<1x!pphlo.pint>) -> tensor<1x!pphlo.pint>
    %2322 = "pphlo.add"(%2315, %2321) : (tensor<1x!pphlo.pint>, tensor<1x!pphlo.pint>) -> tensor<1x!pphlo.pint>
    %2323 = "pphlo.shift_left"(%2321, %72) : (tensor<1x!pphlo.pint>, tensor<1x!pphlo.pint>) -> tensor<1x!pphlo.pint>
    %2324 = "pphlo.shift_right_logical"(%2321, %73) : (tensor<1x!pphlo.pint>, tensor<1x!pphlo.pint>) -> tensor<1x!pphlo.pint>
    %2325 = "pphlo.or"(%2323, %2324) : (tensor<1x!pphlo.pint>, tensor<1x!pphlo.pint>) -> tensor<1x!pphlo.pint>
    %2326 = "pphlo.xor"(%2322, %2325) : (tensor<1x!pphlo.pint>, tensor<1x!pphlo.pint>) -> tensor<1x!pphlo.pint>
    %2327 = "pphlo.add"(%2322, %2326) : (tensor<1x!pphlo.pint>, tensor<1x!pphlo.pint>) -> tensor<1x!pphlo.pint>
    %2328 = "pphlo.shift_left"(%2326, %81) : (tensor<1x!pphlo.pint>, tensor<1x!pphlo.pint>) -> tensor<1x!pphlo.pint>
    %2329 = "pphlo.shift_right_logical"(%2326, %80) : (tensor<1x!pphlo.pint>, tensor<1x!pphlo.pint>) -> tensor<1x!pphlo.pint>
    %2330 = "pphlo.or"(%2328, %2329) : (tensor<1x!pphlo.pint>, tensor<1x!pphlo.pint>) -> tensor<1x!pphlo.pint>
    %2331 = "pphlo.xor"(%2327, %2330) : (tensor<1x!pphlo.pint>, tensor<1x!pphlo.pint>) -> tensor<1x!pphlo.pint>
    %2332 = "pphlo.add"(%2327, %2331) : (tensor<1x!pphlo.pint>, tensor<1x!pphlo.pint>) -> tensor<1x!pphlo.pint>
    %2333 = "pphlo.shift_left"(%2331, %79) : (tensor<1x!pphlo.pint>, tensor<1x!pphlo.pint>) -> tensor<1x!pphlo.pint>
    %2334 = "pphlo.shift_right_logical"(%2331, %79) : (tensor<1x!pphlo.pint>, tensor<1x!pphlo.pint>) -> tensor<1x!pphlo.pint>
    %2335 = "pphlo.or"(%2333, %2334) : (tensor<1x!pphlo.pint>, tensor<1x!pphlo.pint>) -> tensor<1x!pphlo.pint>
    %2336 = "pphlo.xor"(%2332, %2335) : (tensor<1x!pphlo.pint>, tensor<1x!pphlo.pint>) -> tensor<1x!pphlo.pint>
    %2337 = "pphlo.add"(%2332, %2336) : (tensor<1x!pphlo.pint>, tensor<1x!pphlo.pint>) -> tensor<1x!pphlo.pint>
    %2338 = "pphlo.add"(%2337, %2263) : (tensor<1x!pphlo.pint>, tensor<1x!pphlo.pint>) -> tensor<1x!pphlo.pint>
    %2339 = "pphlo.shift_left"(%2336, %78) : (tensor<1x!pphlo.pint>, tensor<1x!pphlo.pint>) -> tensor<1x!pphlo.pint>
    %2340 = "pphlo.shift_right_logical"(%2336, %77) : (tensor<1x!pphlo.pint>, tensor<1x!pphlo.pint>) -> tensor<1x!pphlo.pint>
    %2341 = "pphlo.or"(%2339, %2340) : (tensor<1x!pphlo.pint>, tensor<1x!pphlo.pint>) -> tensor<1x!pphlo.pint>
    %2342 = "pphlo.xor"(%2337, %2341) : (tensor<1x!pphlo.pint>, tensor<1x!pphlo.pint>) -> tensor<1x!pphlo.pint>
    %2343 = "pphlo.add"(%2342, %2273) : (tensor<1x!pphlo.pint>, tensor<1x!pphlo.pint>) -> tensor<1x!pphlo.pint>
    %2344 = "pphlo.add"(%2343, %76) : (tensor<1x!pphlo.pint>, tensor<1x!pphlo.pint>) -> tensor<1x!pphlo.pint>
    %2345 = "pphlo.add"(%2338, %2344) : (tensor<1x!pphlo.pint>, tensor<1x!pphlo.pint>) -> tensor<1x!pphlo.pint>
    %2346 = "pphlo.shift_left"(%2344, %75) : (tensor<1x!pphlo.pint>, tensor<1x!pphlo.pint>) -> tensor<1x!pphlo.pint>
    %2347 = "pphlo.shift_right_logical"(%2344, %74) : (tensor<1x!pphlo.pint>, tensor<1x!pphlo.pint>) -> tensor<1x!pphlo.pint>
    %2348 = "pphlo.or"(%2346, %2347) : (tensor<1x!pphlo.pint>, tensor<1x!pphlo.pint>) -> tensor<1x!pphlo.pint>
    %2349 = "pphlo.xor"(%2345, %2348) : (tensor<1x!pphlo.pint>, tensor<1x!pphlo.pint>) -> tensor<1x!pphlo.pint>
    %2350 = "pphlo.add"(%2345, %2349) : (tensor<1x!pphlo.pint>, tensor<1x!pphlo.pint>) -> tensor<1x!pphlo.pint>
    %2351 = "pphlo.shift_left"(%2349, %73) : (tensor<1x!pphlo.pint>, tensor<1x!pphlo.pint>) -> tensor<1x!pphlo.pint>
    %2352 = "pphlo.shift_right_logical"(%2349, %72) : (tensor<1x!pphlo.pint>, tensor<1x!pphlo.pint>) -> tensor<1x!pphlo.pint>
    %2353 = "pphlo.or"(%2351, %2352) : (tensor<1x!pphlo.pint>, tensor<1x!pphlo.pint>) -> tensor<1x!pphlo.pint>
    %2354 = "pphlo.xor"(%2350, %2353) : (tensor<1x!pphlo.pint>, tensor<1x!pphlo.pint>) -> tensor<1x!pphlo.pint>
    %2355 = "pphlo.add"(%2350, %2354) : (tensor<1x!pphlo.pint>, tensor<1x!pphlo.pint>) -> tensor<1x!pphlo.pint>
    %2356 = "pphlo.shift_left"(%2354, %70) : (tensor<1x!pphlo.pint>, tensor<1x!pphlo.pint>) -> tensor<1x!pphlo.pint>
    %2357 = "pphlo.shift_right_logical"(%2354, %71) : (tensor<1x!pphlo.pint>, tensor<1x!pphlo.pint>) -> tensor<1x!pphlo.pint>
    %2358 = "pphlo.or"(%2356, %2357) : (tensor<1x!pphlo.pint>, tensor<1x!pphlo.pint>) -> tensor<1x!pphlo.pint>
    %2359 = "pphlo.xor"(%2355, %2358) : (tensor<1x!pphlo.pint>, tensor<1x!pphlo.pint>) -> tensor<1x!pphlo.pint>
    %2360 = "pphlo.add"(%2355, %2359) : (tensor<1x!pphlo.pint>, tensor<1x!pphlo.pint>) -> tensor<1x!pphlo.pint>
    %2361 = "pphlo.add"(%2360, %2273) : (tensor<1x!pphlo.pint>, tensor<1x!pphlo.pint>) -> tensor<1x!pphlo.pint>
    %2362 = "pphlo.reshape"(%2361) : (tensor<1x!pphlo.pint>) -> tensor<!pphlo.pint>
    %2363 = "pphlo.broadcast"(%2362) {broadcast_dimensions = dense<> : tensor<0xi64>} : (tensor<!pphlo.pint>) -> tensor<1280x!pphlo.pint>
    %2364 = "pphlo.add"(%2130, %2363) : (tensor<1280x!pphlo.pint>, tensor<1280x!pphlo.pint>) -> tensor<1280x!pphlo.pint>
    %2365 = "pphlo.slice"(%2129) {limit_indices = dense<2560> : tensor<1xi64>, start_indices = dense<1280> : tensor<1xi64>, strides = dense<1> : tensor<1xi64>} : (tensor<2560x!pphlo.pint>) -> tensor<1280x!pphlo.pint>
    %2366 = "pphlo.shift_left"(%2359, %71) : (tensor<1x!pphlo.pint>, tensor<1x!pphlo.pint>) -> tensor<1x!pphlo.pint>
    %2367 = "pphlo.shift_right_logical"(%2359, %70) : (tensor<1x!pphlo.pint>, tensor<1x!pphlo.pint>) -> tensor<1x!pphlo.pint>
    %2368 = "pphlo.or"(%2366, %2367) : (tensor<1x!pphlo.pint>, tensor<1x!pphlo.pint>) -> tensor<1x!pphlo.pint>
    %2369 = "pphlo.xor"(%2360, %2368) : (tensor<1x!pphlo.pint>, tensor<1x!pphlo.pint>) -> tensor<1x!pphlo.pint>
    %2370 = "pphlo.add"(%2369, %2240) : (tensor<1x!pphlo.pint>, tensor<1x!pphlo.pint>) -> tensor<1x!pphlo.pint>
    %2371 = "pphlo.add"(%2370, %69) : (tensor<1x!pphlo.pint>, tensor<1x!pphlo.pint>) -> tensor<1x!pphlo.pint>
    %2372 = "pphlo.reshape"(%2371) : (tensor<1x!pphlo.pint>) -> tensor<!pphlo.pint>
    %2373 = "pphlo.broadcast"(%2372) {broadcast_dimensions = dense<> : tensor<0xi64>} : (tensor<!pphlo.pint>) -> tensor<1280x!pphlo.pint>
    %2374 = "pphlo.add"(%2365, %2373) : (tensor<1280x!pphlo.pint>, tensor<1280x!pphlo.pint>) -> tensor<1280x!pphlo.pint>
    %2375 = "pphlo.add"(%2364, %2374) : (tensor<1280x!pphlo.pint>, tensor<1280x!pphlo.pint>) -> tensor<1280x!pphlo.pint>
    %2376 = "pphlo.shift_left"(%2374, %59) : (tensor<1280x!pphlo.pint>, tensor<1280x!pphlo.pint>) -> tensor<1280x!pphlo.pint>
    %2377 = "pphlo.shift_right_logical"(%2374, %58) : (tensor<1280x!pphlo.pint>, tensor<1280x!pphlo.pint>) -> tensor<1280x!pphlo.pint>
    %2378 = "pphlo.or"(%2376, %2377) : (tensor<1280x!pphlo.pint>, tensor<1280x!pphlo.pint>) -> tensor<1280x!pphlo.pint>
    %2379 = "pphlo.xor"(%2375, %2378) : (tensor<1280x!pphlo.pint>, tensor<1280x!pphlo.pint>) -> tensor<1280x!pphlo.pint>
    %2380 = "pphlo.add"(%2375, %2379) : (tensor<1280x!pphlo.pint>, tensor<1280x!pphlo.pint>) -> tensor<1280x!pphlo.pint>
    %2381 = "pphlo.shift_left"(%2379, %57) : (tensor<1280x!pphlo.pint>, tensor<1280x!pphlo.pint>) -> tensor<1280x!pphlo.pint>
    %2382 = "pphlo.shift_right_logical"(%2379, %56) : (tensor<1280x!pphlo.pint>, tensor<1280x!pphlo.pint>) -> tensor<1280x!pphlo.pint>
    %2383 = "pphlo.or"(%2381, %2382) : (tensor<1280x!pphlo.pint>, tensor<1280x!pphlo.pint>) -> tensor<1280x!pphlo.pint>
    %2384 = "pphlo.xor"(%2380, %2383) : (tensor<1280x!pphlo.pint>, tensor<1280x!pphlo.pint>) -> tensor<1280x!pphlo.pint>
    %2385 = "pphlo.add"(%2380, %2384) : (tensor<1280x!pphlo.pint>, tensor<1280x!pphlo.pint>) -> tensor<1280x!pphlo.pint>
    %2386 = "pphlo.shift_left"(%2384, %54) : (tensor<1280x!pphlo.pint>, tensor<1280x!pphlo.pint>) -> tensor<1280x!pphlo.pint>
    %2387 = "pphlo.shift_right_logical"(%2384, %55) : (tensor<1280x!pphlo.pint>, tensor<1280x!pphlo.pint>) -> tensor<1280x!pphlo.pint>
    %2388 = "pphlo.or"(%2386, %2387) : (tensor<1280x!pphlo.pint>, tensor<1280x!pphlo.pint>) -> tensor<1280x!pphlo.pint>
    %2389 = "pphlo.xor"(%2385, %2388) : (tensor<1280x!pphlo.pint>, tensor<1280x!pphlo.pint>) -> tensor<1280x!pphlo.pint>
    %2390 = "pphlo.add"(%2385, %2389) : (tensor<1280x!pphlo.pint>, tensor<1280x!pphlo.pint>) -> tensor<1280x!pphlo.pint>
    %2391 = "pphlo.add"(%2390, %2373) : (tensor<1280x!pphlo.pint>, tensor<1280x!pphlo.pint>) -> tensor<1280x!pphlo.pint>
    %2392 = "pphlo.shift_left"(%2389, %55) : (tensor<1280x!pphlo.pint>, tensor<1280x!pphlo.pint>) -> tensor<1280x!pphlo.pint>
    %2393 = "pphlo.shift_right_logical"(%2389, %54) : (tensor<1280x!pphlo.pint>, tensor<1280x!pphlo.pint>) -> tensor<1280x!pphlo.pint>
    %2394 = "pphlo.or"(%2392, %2393) : (tensor<1280x!pphlo.pint>, tensor<1280x!pphlo.pint>) -> tensor<1280x!pphlo.pint>
    %2395 = "pphlo.xor"(%2390, %2394) : (tensor<1280x!pphlo.pint>, tensor<1280x!pphlo.pint>) -> tensor<1280x!pphlo.pint>
    %2396 = "pphlo.xor"(%2362, %2372) : (tensor<!pphlo.pint>, tensor<!pphlo.pint>) -> tensor<!pphlo.pint>
    %2397 = "pphlo.xor"(%2396, %68) : (tensor<!pphlo.pint>, tensor<!pphlo.pint>) -> tensor<!pphlo.pint>
    %2398 = "pphlo.broadcast"(%2397) {broadcast_dimensions = dense<> : tensor<0xi64>} : (tensor<!pphlo.pint>) -> tensor<1280x!pphlo.pint>
    %2399 = "pphlo.add"(%2395, %2398) : (tensor<1280x!pphlo.pint>, tensor<1280x!pphlo.pint>) -> tensor<1280x!pphlo.pint>
    %2400 = "pphlo.add"(%2399, %67) : (tensor<1280x!pphlo.pint>, tensor<1280x!pphlo.pint>) -> tensor<1280x!pphlo.pint>
    %2401 = "pphlo.add"(%2391, %2400) : (tensor<1280x!pphlo.pint>, tensor<1280x!pphlo.pint>) -> tensor<1280x!pphlo.pint>
    %2402 = "pphlo.shift_left"(%2400, %56) : (tensor<1280x!pphlo.pint>, tensor<1280x!pphlo.pint>) -> tensor<1280x!pphlo.pint>
    %2403 = "pphlo.shift_right_logical"(%2400, %57) : (tensor<1280x!pphlo.pint>, tensor<1280x!pphlo.pint>) -> tensor<1280x!pphlo.pint>
    %2404 = "pphlo.or"(%2402, %2403) : (tensor<1280x!pphlo.pint>, tensor<1280x!pphlo.pint>) -> tensor<1280x!pphlo.pint>
    %2405 = "pphlo.xor"(%2401, %2404) : (tensor<1280x!pphlo.pint>, tensor<1280x!pphlo.pint>) -> tensor<1280x!pphlo.pint>
    %2406 = "pphlo.add"(%2401, %2405) : (tensor<1280x!pphlo.pint>, tensor<1280x!pphlo.pint>) -> tensor<1280x!pphlo.pint>
    %2407 = "pphlo.shift_left"(%2405, %65) : (tensor<1280x!pphlo.pint>, tensor<1280x!pphlo.pint>) -> tensor<1280x!pphlo.pint>
    %2408 = "pphlo.shift_right_logical"(%2405, %64) : (tensor<1280x!pphlo.pint>, tensor<1280x!pphlo.pint>) -> tensor<1280x!pphlo.pint>
    %2409 = "pphlo.or"(%2407, %2408) : (tensor<1280x!pphlo.pint>, tensor<1280x!pphlo.pint>) -> tensor<1280x!pphlo.pint>
    %2410 = "pphlo.xor"(%2406, %2409) : (tensor<1280x!pphlo.pint>, tensor<1280x!pphlo.pint>) -> tensor<1280x!pphlo.pint>
    %2411 = "pphlo.add"(%2406, %2410) : (tensor<1280x!pphlo.pint>, tensor<1280x!pphlo.pint>) -> tensor<1280x!pphlo.pint>
    %2412 = "pphlo.shift_left"(%2410, %63) : (tensor<1280x!pphlo.pint>, tensor<1280x!pphlo.pint>) -> tensor<1280x!pphlo.pint>
    %2413 = "pphlo.shift_right_logical"(%2410, %63) : (tensor<1280x!pphlo.pint>, tensor<1280x!pphlo.pint>) -> tensor<1280x!pphlo.pint>
    %2414 = "pphlo.or"(%2412, %2413) : (tensor<1280x!pphlo.pint>, tensor<1280x!pphlo.pint>) -> tensor<1280x!pphlo.pint>
    %2415 = "pphlo.xor"(%2411, %2414) : (tensor<1280x!pphlo.pint>, tensor<1280x!pphlo.pint>) -> tensor<1280x!pphlo.pint>
    %2416 = "pphlo.add"(%2411, %2415) : (tensor<1280x!pphlo.pint>, tensor<1280x!pphlo.pint>) -> tensor<1280x!pphlo.pint>
    %2417 = "pphlo.add"(%2416, %2398) : (tensor<1280x!pphlo.pint>, tensor<1280x!pphlo.pint>) -> tensor<1280x!pphlo.pint>
    %2418 = "pphlo.shift_left"(%2415, %62) : (tensor<1280x!pphlo.pint>, tensor<1280x!pphlo.pint>) -> tensor<1280x!pphlo.pint>
    %2419 = "pphlo.shift_right_logical"(%2415, %61) : (tensor<1280x!pphlo.pint>, tensor<1280x!pphlo.pint>) -> tensor<1280x!pphlo.pint>
    %2420 = "pphlo.or"(%2418, %2419) : (tensor<1280x!pphlo.pint>, tensor<1280x!pphlo.pint>) -> tensor<1280x!pphlo.pint>
    %2421 = "pphlo.xor"(%2416, %2420) : (tensor<1280x!pphlo.pint>, tensor<1280x!pphlo.pint>) -> tensor<1280x!pphlo.pint>
    %2422 = "pphlo.add"(%2421, %2363) : (tensor<1280x!pphlo.pint>, tensor<1280x!pphlo.pint>) -> tensor<1280x!pphlo.pint>
    %2423 = "pphlo.add"(%2422, %66) : (tensor<1280x!pphlo.pint>, tensor<1280x!pphlo.pint>) -> tensor<1280x!pphlo.pint>
    %2424 = "pphlo.add"(%2417, %2423) : (tensor<1280x!pphlo.pint>, tensor<1280x!pphlo.pint>) -> tensor<1280x!pphlo.pint>
    %2425 = "pphlo.shift_left"(%2423, %59) : (tensor<1280x!pphlo.pint>, tensor<1280x!pphlo.pint>) -> tensor<1280x!pphlo.pint>
    %2426 = "pphlo.shift_right_logical"(%2423, %58) : (tensor<1280x!pphlo.pint>, tensor<1280x!pphlo.pint>) -> tensor<1280x!pphlo.pint>
    %2427 = "pphlo.or"(%2425, %2426) : (tensor<1280x!pphlo.pint>, tensor<1280x!pphlo.pint>) -> tensor<1280x!pphlo.pint>
    %2428 = "pphlo.xor"(%2424, %2427) : (tensor<1280x!pphlo.pint>, tensor<1280x!pphlo.pint>) -> tensor<1280x!pphlo.pint>
    %2429 = "pphlo.add"(%2424, %2428) : (tensor<1280x!pphlo.pint>, tensor<1280x!pphlo.pint>) -> tensor<1280x!pphlo.pint>
    %2430 = "pphlo.shift_left"(%2428, %57) : (tensor<1280x!pphlo.pint>, tensor<1280x!pphlo.pint>) -> tensor<1280x!pphlo.pint>
    %2431 = "pphlo.shift_right_logical"(%2428, %56) : (tensor<1280x!pphlo.pint>, tensor<1280x!pphlo.pint>) -> tensor<1280x!pphlo.pint>
    %2432 = "pphlo.or"(%2430, %2431) : (tensor<1280x!pphlo.pint>, tensor<1280x!pphlo.pint>) -> tensor<1280x!pphlo.pint>
    %2433 = "pphlo.xor"(%2429, %2432) : (tensor<1280x!pphlo.pint>, tensor<1280x!pphlo.pint>) -> tensor<1280x!pphlo.pint>
    %2434 = "pphlo.add"(%2429, %2433) : (tensor<1280x!pphlo.pint>, tensor<1280x!pphlo.pint>) -> tensor<1280x!pphlo.pint>
    %2435 = "pphlo.shift_left"(%2433, %54) : (tensor<1280x!pphlo.pint>, tensor<1280x!pphlo.pint>) -> tensor<1280x!pphlo.pint>
    %2436 = "pphlo.shift_right_logical"(%2433, %55) : (tensor<1280x!pphlo.pint>, tensor<1280x!pphlo.pint>) -> tensor<1280x!pphlo.pint>
    %2437 = "pphlo.or"(%2435, %2436) : (tensor<1280x!pphlo.pint>, tensor<1280x!pphlo.pint>) -> tensor<1280x!pphlo.pint>
    %2438 = "pphlo.xor"(%2434, %2437) : (tensor<1280x!pphlo.pint>, tensor<1280x!pphlo.pint>) -> tensor<1280x!pphlo.pint>
    %2439 = "pphlo.add"(%2434, %2438) : (tensor<1280x!pphlo.pint>, tensor<1280x!pphlo.pint>) -> tensor<1280x!pphlo.pint>
    %2440 = "pphlo.add"(%2439, %2363) : (tensor<1280x!pphlo.pint>, tensor<1280x!pphlo.pint>) -> tensor<1280x!pphlo.pint>
    %2441 = "pphlo.shift_left"(%2438, %55) : (tensor<1280x!pphlo.pint>, tensor<1280x!pphlo.pint>) -> tensor<1280x!pphlo.pint>
    %2442 = "pphlo.shift_right_logical"(%2438, %54) : (tensor<1280x!pphlo.pint>, tensor<1280x!pphlo.pint>) -> tensor<1280x!pphlo.pint>
    %2443 = "pphlo.or"(%2441, %2442) : (tensor<1280x!pphlo.pint>, tensor<1280x!pphlo.pint>) -> tensor<1280x!pphlo.pint>
    %2444 = "pphlo.xor"(%2439, %2443) : (tensor<1280x!pphlo.pint>, tensor<1280x!pphlo.pint>) -> tensor<1280x!pphlo.pint>
    %2445 = "pphlo.add"(%2444, %2373) : (tensor<1280x!pphlo.pint>, tensor<1280x!pphlo.pint>) -> tensor<1280x!pphlo.pint>
    %2446 = "pphlo.add"(%2445, %64) : (tensor<1280x!pphlo.pint>, tensor<1280x!pphlo.pint>) -> tensor<1280x!pphlo.pint>
    %2447 = "pphlo.add"(%2440, %2446) : (tensor<1280x!pphlo.pint>, tensor<1280x!pphlo.pint>) -> tensor<1280x!pphlo.pint>
    %2448 = "pphlo.shift_left"(%2446, %56) : (tensor<1280x!pphlo.pint>, tensor<1280x!pphlo.pint>) -> tensor<1280x!pphlo.pint>
    %2449 = "pphlo.shift_right_logical"(%2446, %57) : (tensor<1280x!pphlo.pint>, tensor<1280x!pphlo.pint>) -> tensor<1280x!pphlo.pint>
    %2450 = "pphlo.or"(%2448, %2449) : (tensor<1280x!pphlo.pint>, tensor<1280x!pphlo.pint>) -> tensor<1280x!pphlo.pint>
    %2451 = "pphlo.xor"(%2447, %2450) : (tensor<1280x!pphlo.pint>, tensor<1280x!pphlo.pint>) -> tensor<1280x!pphlo.pint>
    %2452 = "pphlo.add"(%2447, %2451) : (tensor<1280x!pphlo.pint>, tensor<1280x!pphlo.pint>) -> tensor<1280x!pphlo.pint>
    %2453 = "pphlo.shift_left"(%2451, %65) : (tensor<1280x!pphlo.pint>, tensor<1280x!pphlo.pint>) -> tensor<1280x!pphlo.pint>
    %2454 = "pphlo.shift_right_logical"(%2451, %64) : (tensor<1280x!pphlo.pint>, tensor<1280x!pphlo.pint>) -> tensor<1280x!pphlo.pint>
    %2455 = "pphlo.or"(%2453, %2454) : (tensor<1280x!pphlo.pint>, tensor<1280x!pphlo.pint>) -> tensor<1280x!pphlo.pint>
    %2456 = "pphlo.xor"(%2452, %2455) : (tensor<1280x!pphlo.pint>, tensor<1280x!pphlo.pint>) -> tensor<1280x!pphlo.pint>
    %2457 = "pphlo.add"(%2452, %2456) : (tensor<1280x!pphlo.pint>, tensor<1280x!pphlo.pint>) -> tensor<1280x!pphlo.pint>
    %2458 = "pphlo.shift_left"(%2456, %63) : (tensor<1280x!pphlo.pint>, tensor<1280x!pphlo.pint>) -> tensor<1280x!pphlo.pint>
    %2459 = "pphlo.shift_right_logical"(%2456, %63) : (tensor<1280x!pphlo.pint>, tensor<1280x!pphlo.pint>) -> tensor<1280x!pphlo.pint>
    %2460 = "pphlo.or"(%2458, %2459) : (tensor<1280x!pphlo.pint>, tensor<1280x!pphlo.pint>) -> tensor<1280x!pphlo.pint>
    %2461 = "pphlo.xor"(%2457, %2460) : (tensor<1280x!pphlo.pint>, tensor<1280x!pphlo.pint>) -> tensor<1280x!pphlo.pint>
    %2462 = "pphlo.add"(%2457, %2461) : (tensor<1280x!pphlo.pint>, tensor<1280x!pphlo.pint>) -> tensor<1280x!pphlo.pint>
    %2463 = "pphlo.add"(%2462, %2373) : (tensor<1280x!pphlo.pint>, tensor<1280x!pphlo.pint>) -> tensor<1280x!pphlo.pint>
    %2464 = "pphlo.shift_left"(%2461, %62) : (tensor<1280x!pphlo.pint>, tensor<1280x!pphlo.pint>) -> tensor<1280x!pphlo.pint>
    %2465 = "pphlo.shift_right_logical"(%2461, %61) : (tensor<1280x!pphlo.pint>, tensor<1280x!pphlo.pint>) -> tensor<1280x!pphlo.pint>
    %2466 = "pphlo.or"(%2464, %2465) : (tensor<1280x!pphlo.pint>, tensor<1280x!pphlo.pint>) -> tensor<1280x!pphlo.pint>
    %2467 = "pphlo.xor"(%2462, %2466) : (tensor<1280x!pphlo.pint>, tensor<1280x!pphlo.pint>) -> tensor<1280x!pphlo.pint>
    %2468 = "pphlo.add"(%2467, %2398) : (tensor<1280x!pphlo.pint>, tensor<1280x!pphlo.pint>) -> tensor<1280x!pphlo.pint>
    %2469 = "pphlo.add"(%2468, %60) : (tensor<1280x!pphlo.pint>, tensor<1280x!pphlo.pint>) -> tensor<1280x!pphlo.pint>
    %2470 = "pphlo.add"(%2463, %2469) : (tensor<1280x!pphlo.pint>, tensor<1280x!pphlo.pint>) -> tensor<1280x!pphlo.pint>
    %2471 = "pphlo.shift_left"(%2469, %59) : (tensor<1280x!pphlo.pint>, tensor<1280x!pphlo.pint>) -> tensor<1280x!pphlo.pint>
    %2472 = "pphlo.shift_right_logical"(%2469, %58) : (tensor<1280x!pphlo.pint>, tensor<1280x!pphlo.pint>) -> tensor<1280x!pphlo.pint>
    %2473 = "pphlo.or"(%2471, %2472) : (tensor<1280x!pphlo.pint>, tensor<1280x!pphlo.pint>) -> tensor<1280x!pphlo.pint>
    %2474 = "pphlo.xor"(%2470, %2473) : (tensor<1280x!pphlo.pint>, tensor<1280x!pphlo.pint>) -> tensor<1280x!pphlo.pint>
    %2475 = "pphlo.add"(%2470, %2474) : (tensor<1280x!pphlo.pint>, tensor<1280x!pphlo.pint>) -> tensor<1280x!pphlo.pint>
    %2476 = "pphlo.shift_left"(%2474, %57) : (tensor<1280x!pphlo.pint>, tensor<1280x!pphlo.pint>) -> tensor<1280x!pphlo.pint>
    %2477 = "pphlo.shift_right_logical"(%2474, %56) : (tensor<1280x!pphlo.pint>, tensor<1280x!pphlo.pint>) -> tensor<1280x!pphlo.pint>
    %2478 = "pphlo.or"(%2476, %2477) : (tensor<1280x!pphlo.pint>, tensor<1280x!pphlo.pint>) -> tensor<1280x!pphlo.pint>
    %2479 = "pphlo.xor"(%2475, %2478) : (tensor<1280x!pphlo.pint>, tensor<1280x!pphlo.pint>) -> tensor<1280x!pphlo.pint>
    %2480 = "pphlo.add"(%2475, %2479) : (tensor<1280x!pphlo.pint>, tensor<1280x!pphlo.pint>) -> tensor<1280x!pphlo.pint>
    %2481 = "pphlo.shift_left"(%2479, %54) : (tensor<1280x!pphlo.pint>, tensor<1280x!pphlo.pint>) -> tensor<1280x!pphlo.pint>
    %2482 = "pphlo.shift_right_logical"(%2479, %55) : (tensor<1280x!pphlo.pint>, tensor<1280x!pphlo.pint>) -> tensor<1280x!pphlo.pint>
    %2483 = "pphlo.or"(%2481, %2482) : (tensor<1280x!pphlo.pint>, tensor<1280x!pphlo.pint>) -> tensor<1280x!pphlo.pint>
    %2484 = "pphlo.xor"(%2480, %2483) : (tensor<1280x!pphlo.pint>, tensor<1280x!pphlo.pint>) -> tensor<1280x!pphlo.pint>
    %2485 = "pphlo.add"(%2480, %2484) : (tensor<1280x!pphlo.pint>, tensor<1280x!pphlo.pint>) -> tensor<1280x!pphlo.pint>
    %2486 = "pphlo.add"(%2485, %2398) : (tensor<1280x!pphlo.pint>, tensor<1280x!pphlo.pint>) -> tensor<1280x!pphlo.pint>
    %2487 = "pphlo.shift_left"(%2484, %55) : (tensor<1280x!pphlo.pint>, tensor<1280x!pphlo.pint>) -> tensor<1280x!pphlo.pint>
    %2488 = "pphlo.shift_right_logical"(%2484, %54) : (tensor<1280x!pphlo.pint>, tensor<1280x!pphlo.pint>) -> tensor<1280x!pphlo.pint>
    %2489 = "pphlo.or"(%2487, %2488) : (tensor<1280x!pphlo.pint>, tensor<1280x!pphlo.pint>) -> tensor<1280x!pphlo.pint>
    %2490 = "pphlo.xor"(%2485, %2489) : (tensor<1280x!pphlo.pint>, tensor<1280x!pphlo.pint>) -> tensor<1280x!pphlo.pint>
    %2491 = "pphlo.add"(%2490, %2363) : (tensor<1280x!pphlo.pint>, tensor<1280x!pphlo.pint>) -> tensor<1280x!pphlo.pint>
    %2492 = "pphlo.add"(%2491, %53) : (tensor<1280x!pphlo.pint>, tensor<1280x!pphlo.pint>) -> tensor<1280x!pphlo.pint>
    %2493 = "pphlo.concatenate"(%2486, %2492) {dimension = 0 : i64} : (tensor<1280x!pphlo.pint>, tensor<1280x!pphlo.pint>) -> tensor<2560x!pphlo.pint>
    %2494 = "pphlo.shift_right_logical"(%2493, %52) : (tensor<2560x!pphlo.pint>, tensor<2560x!pphlo.pint>) -> tensor<2560x!pphlo.pint>
    %2495 = "pphlo.or"(%2494, %51) : (tensor<2560x!pphlo.pint>, tensor<2560x!pphlo.pint>) -> tensor<2560x!pphlo.pint>
    %2496 = "pphlo.bitcast_convert"(%2495) {elsize = 32 : i64} : (tensor<2560x!pphlo.pint>) -> tensor<2560x!pphlo.pfxp>
    %2497 = "pphlo.add"(%2496, %50) : (tensor<2560x!pphlo.pfxp>, tensor<2560x!pphlo.pfxp>) -> tensor<2560x!pphlo.pfxp>
    %2498 = "pphlo.multiply"(%2497, %49) : (tensor<2560x!pphlo.pfxp>, tensor<2560x!pphlo.pfxp>) -> tensor<2560x!pphlo.pfxp>
    %2499 = "pphlo.add"(%2498, %48) : (tensor<2560x!pphlo.pfxp>, tensor<2560x!pphlo.pfxp>) -> tensor<2560x!pphlo.pfxp>
    %2500 = "pphlo.maximum"(%2499, %48) : (tensor<2560x!pphlo.pfxp>, tensor<2560x!pphlo.pfxp>) -> tensor<2560x!pphlo.pfxp>
    %2501 = "pphlo.reshape"(%2500) : (tensor<2560x!pphlo.pfxp>) -> tensor<256x10x!pphlo.pfxp>
    %2502 = "pphlo.abs"(%2501) : (tensor<256x10x!pphlo.pfxp>) -> tensor<256x10x!pphlo.pfxp>
    %2503 = "pphlo.equal"(%2502, %47) : (tensor<256x10x!pphlo.pfxp>, tensor<256x10x!pphlo.pfxp>) -> tensor<256x10x!pphlo.pint>
    %2504 = "pphlo.multiply"(%2501, %46) : (tensor<256x10x!pphlo.pfxp>, tensor<256x10x!pphlo.pfxp>) -> tensor<256x10x!pphlo.pfxp>
    %2505 = "pphlo.negate"(%2501) : (tensor<256x10x!pphlo.pfxp>) -> tensor<256x10x!pphlo.pfxp>
    %2506 = "pphlo.multiply"(%2505, %2501) : (tensor<256x10x!pphlo.pfxp>, tensor<256x10x!pphlo.pfxp>) -> tensor<256x10x!pphlo.pfxp>
    %2507 = "pphlo.log_plus_one"(%2506) : (tensor<256x10x!pphlo.pfxp>) -> tensor<256x10x!pphlo.pfxp>
    %2508 = "pphlo.negate"(%2507) : (tensor<256x10x!pphlo.pfxp>) -> tensor<256x10x!pphlo.pfxp>
    %2509 = "pphlo.less"(%2508, %45) : (tensor<256x10x!pphlo.pfxp>, tensor<256x10x!pphlo.pfxp>) -> tensor<256x10x!pphlo.pint>
    %2510 = "pphlo.subtract"(%44, %43) : (tensor<256x10x!pphlo.pfxp>, tensor<256x10x!pphlo.pfxp>) -> tensor<256x10x!pphlo.pfxp>
    %2511 = "pphlo.multiply"(%2509, %2510) : (tensor<256x10x!pphlo.pint>, tensor<256x10x!pphlo.pfxp>) -> tensor<256x10x!pphlo.pfxp>
    %2512 = "pphlo.add"(%2511, %43) : (tensor<256x10x!pphlo.pfxp>, tensor<256x10x!pphlo.pfxp>) -> tensor<256x10x!pphlo.pfxp>
    %2513 = "pphlo.subtract"(%42, %41) : (tensor<256x10x!pphlo.pfxp>, tensor<256x10x!pphlo.pfxp>) -> tensor<256x10x!pphlo.pfxp>
    %2514 = "pphlo.multiply"(%2509, %2513) : (tensor<256x10x!pphlo.pint>, tensor<256x10x!pphlo.pfxp>) -> tensor<256x10x!pphlo.pfxp>
    %2515 = "pphlo.add"(%2514, %41) : (tensor<256x10x!pphlo.pfxp>, tensor<256x10x!pphlo.pfxp>) -> tensor<256x10x!pphlo.pfxp>
    %2516 = "pphlo.subtract"(%40, %39) : (tensor<256x10x!pphlo.pfxp>, tensor<256x10x!pphlo.pfxp>) -> tensor<256x10x!pphlo.pfxp>
    %2517 = "pphlo.multiply"(%2509, %2516) : (tensor<256x10x!pphlo.pint>, tensor<256x10x!pphlo.pfxp>) -> tensor<256x10x!pphlo.pfxp>
    %2518 = "pphlo.add"(%2517, %39) : (tensor<256x10x!pphlo.pfxp>, tensor<256x10x!pphlo.pfxp>) -> tensor<256x10x!pphlo.pfxp>
    %2519 = "pphlo.subtract"(%38, %37) : (tensor<256x10x!pphlo.pfxp>, tensor<256x10x!pphlo.pfxp>) -> tensor<256x10x!pphlo.pfxp>
    %2520 = "pphlo.multiply"(%2509, %2519) : (tensor<256x10x!pphlo.pint>, tensor<256x10x!pphlo.pfxp>) -> tensor<256x10x!pphlo.pfxp>
    %2521 = "pphlo.add"(%2520, %37) : (tensor<256x10x!pphlo.pfxp>, tensor<256x10x!pphlo.pfxp>) -> tensor<256x10x!pphlo.pfxp>
    %2522 = "pphlo.subtract"(%36, %35) : (tensor<256x10x!pphlo.pfxp>, tensor<256x10x!pphlo.pfxp>) -> tensor<256x10x!pphlo.pfxp>
    %2523 = "pphlo.multiply"(%2509, %2522) : (tensor<256x10x!pphlo.pint>, tensor<256x10x!pphlo.pfxp>) -> tensor<256x10x!pphlo.pfxp>
    %2524 = "pphlo.add"(%2523, %35) : (tensor<256x10x!pphlo.pfxp>, tensor<256x10x!pphlo.pfxp>) -> tensor<256x10x!pphlo.pfxp>
    %2525 = "pphlo.subtract"(%34, %33) : (tensor<256x10x!pphlo.pfxp>, tensor<256x10x!pphlo.pfxp>) -> tensor<256x10x!pphlo.pfxp>
    %2526 = "pphlo.multiply"(%2509, %2525) : (tensor<256x10x!pphlo.pint>, tensor<256x10x!pphlo.pfxp>) -> tensor<256x10x!pphlo.pfxp>
    %2527 = "pphlo.add"(%2526, %33) : (tensor<256x10x!pphlo.pfxp>, tensor<256x10x!pphlo.pfxp>) -> tensor<256x10x!pphlo.pfxp>
    %2528 = "pphlo.subtract"(%32, %31) : (tensor<256x10x!pphlo.pfxp>, tensor<256x10x!pphlo.pfxp>) -> tensor<256x10x!pphlo.pfxp>
    %2529 = "pphlo.multiply"(%2509, %2528) : (tensor<256x10x!pphlo.pint>, tensor<256x10x!pphlo.pfxp>) -> tensor<256x10x!pphlo.pfxp>
    %2530 = "pphlo.add"(%2529, %31) : (tensor<256x10x!pphlo.pfxp>, tensor<256x10x!pphlo.pfxp>) -> tensor<256x10x!pphlo.pfxp>
    %2531 = "pphlo.subtract"(%30, %29) : (tensor<256x10x!pphlo.pfxp>, tensor<256x10x!pphlo.pfxp>) -> tensor<256x10x!pphlo.pfxp>
    %2532 = "pphlo.multiply"(%2509, %2531) : (tensor<256x10x!pphlo.pint>, tensor<256x10x!pphlo.pfxp>) -> tensor<256x10x!pphlo.pfxp>
    %2533 = "pphlo.add"(%2532, %29) : (tensor<256x10x!pphlo.pfxp>, tensor<256x10x!pphlo.pfxp>) -> tensor<256x10x!pphlo.pfxp>
    %2534 = "pphlo.subtract"(%28, %27) : (tensor<256x10x!pphlo.pfxp>, tensor<256x10x!pphlo.pfxp>) -> tensor<256x10x!pphlo.pfxp>
    %2535 = "pphlo.multiply"(%2509, %2534) : (tensor<256x10x!pphlo.pint>, tensor<256x10x!pphlo.pfxp>) -> tensor<256x10x!pphlo.pfxp>
    %2536 = "pphlo.add"(%2535, %27) : (tensor<256x10x!pphlo.pfxp>, tensor<256x10x!pphlo.pfxp>) -> tensor<256x10x!pphlo.pfxp>
    %2537 = "pphlo.add"(%2508, %26) : (tensor<256x10x!pphlo.pfxp>, tensor<256x10x!pphlo.pfxp>) -> tensor<256x10x!pphlo.pfxp>
    %2538 = "pphlo.constant"() {value = dense<5.000000e-01> : tensor<256x10xf32>} : () -> tensor<256x10x!pphlo.pfxp>
    %2539 = "pphlo.power"(%2508, %2538) : (tensor<256x10x!pphlo.pfxp>, tensor<256x10x!pphlo.pfxp>) -> tensor<256x10x!pphlo.pfxp>
    %2540 = "pphlo.add"(%2539, %25) : (tensor<256x10x!pphlo.pfxp>, tensor<256x10x!pphlo.pfxp>) -> tensor<256x10x!pphlo.pfxp>
    %2541 = "pphlo.subtract"(%2537, %2540) : (tensor<256x10x!pphlo.pfxp>, tensor<256x10x!pphlo.pfxp>) -> tensor<256x10x!pphlo.pfxp>
    %2542 = "pphlo.multiply"(%2509, %2541) : (tensor<256x10x!pphlo.pint>, tensor<256x10x!pphlo.pfxp>) -> tensor<256x10x!pphlo.pfxp>
    %2543 = "pphlo.add"(%2542, %2540) : (tensor<256x10x!pphlo.pfxp>, tensor<256x10x!pphlo.pfxp>) -> tensor<256x10x!pphlo.pfxp>
    %2544 = "pphlo.multiply"(%2536, %2543) : (tensor<256x10x!pphlo.pfxp>, tensor<256x10x!pphlo.pfxp>) -> tensor<256x10x!pphlo.pfxp>
    %2545 = "pphlo.add"(%2533, %2544) : (tensor<256x10x!pphlo.pfxp>, tensor<256x10x!pphlo.pfxp>) -> tensor<256x10x!pphlo.pfxp>
    %2546 = "pphlo.multiply"(%2545, %2543) : (tensor<256x10x!pphlo.pfxp>, tensor<256x10x!pphlo.pfxp>) -> tensor<256x10x!pphlo.pfxp>
    %2547 = "pphlo.add"(%2530, %2546) : (tensor<256x10x!pphlo.pfxp>, tensor<256x10x!pphlo.pfxp>) -> tensor<256x10x!pphlo.pfxp>
    %2548 = "pphlo.multiply"(%2547, %2543) : (tensor<256x10x!pphlo.pfxp>, tensor<256x10x!pphlo.pfxp>) -> tensor<256x10x!pphlo.pfxp>
    %2549 = "pphlo.add"(%2527, %2548) : (tensor<256x10x!pphlo.pfxp>, tensor<256x10x!pphlo.pfxp>) -> tensor<256x10x!pphlo.pfxp>
    %2550 = "pphlo.multiply"(%2549, %2543) : (tensor<256x10x!pphlo.pfxp>, tensor<256x10x!pphlo.pfxp>) -> tensor<256x10x!pphlo.pfxp>
    %2551 = "pphlo.add"(%2524, %2550) : (tensor<256x10x!pphlo.pfxp>, tensor<256x10x!pphlo.pfxp>) -> tensor<256x10x!pphlo.pfxp>
    %2552 = "pphlo.multiply"(%2551, %2543) : (tensor<256x10x!pphlo.pfxp>, tensor<256x10x!pphlo.pfxp>) -> tensor<256x10x!pphlo.pfxp>
    %2553 = "pphlo.add"(%2521, %2552) : (tensor<256x10x!pphlo.pfxp>, tensor<256x10x!pphlo.pfxp>) -> tensor<256x10x!pphlo.pfxp>
    %2554 = "pphlo.multiply"(%2553, %2543) : (tensor<256x10x!pphlo.pfxp>, tensor<256x10x!pphlo.pfxp>) -> tensor<256x10x!pphlo.pfxp>
    %2555 = "pphlo.add"(%2518, %2554) : (tensor<256x10x!pphlo.pfxp>, tensor<256x10x!pphlo.pfxp>) -> tensor<256x10x!pphlo.pfxp>
    %2556 = "pphlo.multiply"(%2555, %2543) : (tensor<256x10x!pphlo.pfxp>, tensor<256x10x!pphlo.pfxp>) -> tensor<256x10x!pphlo.pfxp>
    %2557 = "pphlo.add"(%2515, %2556) : (tensor<256x10x!pphlo.pfxp>, tensor<256x10x!pphlo.pfxp>) -> tensor<256x10x!pphlo.pfxp>
    %2558 = "pphlo.multiply"(%2557, %2543) : (tensor<256x10x!pphlo.pfxp>, tensor<256x10x!pphlo.pfxp>) -> tensor<256x10x!pphlo.pfxp>
    %2559 = "pphlo.add"(%2512, %2558) : (tensor<256x10x!pphlo.pfxp>, tensor<256x10x!pphlo.pfxp>) -> tensor<256x10x!pphlo.pfxp>
    %2560 = "pphlo.multiply"(%2559, %2501) : (tensor<256x10x!pphlo.pfxp>, tensor<256x10x!pphlo.pfxp>) -> tensor<256x10x!pphlo.pfxp>
    %2561 = "pphlo.subtract"(%2504, %2560) : (tensor<256x10x!pphlo.pfxp>, tensor<256x10x!pphlo.pfxp>) -> tensor<256x10x!pphlo.pfxp>
    %2562 = "pphlo.multiply"(%2503, %2561) : (tensor<256x10x!pphlo.pint>, tensor<256x10x!pphlo.pfxp>) -> tensor<256x10x!pphlo.pfxp>
    %2563 = "pphlo.add"(%2562, %2560) : (tensor<256x10x!pphlo.pfxp>, tensor<256x10x!pphlo.pfxp>) -> tensor<256x10x!pphlo.pfxp>
    %2564 = "pphlo.multiply"(%2563, %24) : (tensor<256x10x!pphlo.pfxp>, tensor<256x10x!pphlo.pfxp>) -> tensor<256x10x!pphlo.pfxp>
    %2565 = "pphlo.clamp"(%85, %2564, %23) : (tensor<256x10x!pphlo.pfxp>, tensor<256x10x!pphlo.pfxp>, tensor<256x10x!pphlo.pfxp>) -> tensor<256x10x!pphlo.pfxp>
    %2566 = "pphlo.multiply"(%2565, %22) : (tensor<256x10x!pphlo.pfxp>, tensor<256x10x!pphlo.pfxp>) -> tensor<256x10x!pphlo.pfxp>
    %2567 = "pphlo.dot"(%2128, %2566) : (tensor<30x256x!pphlo.pfxp>, tensor<256x10x!pphlo.pfxp>) -> tensor<30x10x!pphlo.pfxp>
    %2568 = "pphlo.reduce"(%2567, %3) ( {
    ^bb0(%arg4: tensor<!pphlo.pfxp>, %arg5: tensor<!pphlo.pfxp>):  // no predecessors
      %2655 = "pphlo.maximum"(%arg4, %arg5) : (tensor<!pphlo.pfxp>, tensor<!pphlo.pfxp>) -> tensor<!pphlo.pfxp>
      "pphlo.return"(%2655) : (tensor<!pphlo.pfxp>) -> ()
    }) {dimensions = dense<1> : tensor<1xi64>} : (tensor<30x10x!pphlo.pfxp>, tensor<!pphlo.pfxp>) -> tensor<30x!pphlo.pfxp>
    %2569 = "pphlo.broadcast"(%2568) {broadcast_dimensions = dense<0> : tensor<1xi64>} : (tensor<30x!pphlo.pfxp>) -> tensor<30x10x!pphlo.pfxp>
    %2570 = "pphlo.subtract"(%2567, %2569) : (tensor<30x10x!pphlo.pfxp>, tensor<30x10x!pphlo.pfxp>) -> tensor<30x10x!pphlo.pfxp>
    %2571 = "pphlo.exponential"(%2570) : (tensor<30x10x!pphlo.pfxp>) -> tensor<30x10x!pphlo.pfxp>
    %2572 = "pphlo.reduce"(%2571, %1) ( {
    ^bb0(%arg4: tensor<!pphlo.pfxp>, %arg5: tensor<!pphlo.pfxp>):  // no predecessors
      %2655 = "pphlo.add"(%arg4, %arg5) : (tensor<!pphlo.pfxp>, tensor<!pphlo.pfxp>) -> tensor<!pphlo.pfxp>
      "pphlo.return"(%2655) : (tensor<!pphlo.pfxp>) -> ()
    }) {dimensions = dense<1> : tensor<1xi64>} : (tensor<30x10x!pphlo.pfxp>, tensor<!pphlo.pfxp>) -> tensor<30x!pphlo.pfxp>
    %2573 = "pphlo.reciprocal"(%2572) : (tensor<30x!pphlo.pfxp>) -> tensor<30x!pphlo.pfxp>
    %2574 = "pphlo.multiply"(%2127, %2573) : (tensor<30x!pphlo.pfxp>, tensor<30x!pphlo.pfxp>) -> tensor<30x!pphlo.pfxp>
    %2575 = "pphlo.broadcast"(%2574) {broadcast_dimensions = dense<0> : tensor<1xi64>} : (tensor<30x!pphlo.pfxp>) -> tensor<30x10x!pphlo.pfxp>
    %2576 = "pphlo.multiply"(%2575, %2571) : (tensor<30x10x!pphlo.pfxp>, tensor<30x10x!pphlo.pfxp>) -> tensor<30x10x!pphlo.pfxp>
    %2577 = "pphlo.add"(%2125, %2576) : (tensor<30x10x!pphlo.pfxp>, tensor<30x10x!pphlo.pfxp>) -> tensor<30x10x!pphlo.pfxp>
    %2578 = "pphlo.transpose"(%2566) {permutation = dense<[1, 0]> : tensor<2xi64>} : (tensor<256x10x!pphlo.pfxp>) -> tensor<10x256x!pphlo.pfxp>
    %2579 = "pphlo.dot"(%2577, %2578) : (tensor<30x10x!pphlo.pfxp>, tensor<10x256x!pphlo.pfxp>) -> tensor<30x256x!pphlo.pfxp>
    %2580 = "pphlo.subtract"(%2579, %21) : (tensor<30x256x!pphlo.pfxp>, tensor<30x256x!pphlo.pfxp>) -> tensor<30x256x!pphlo.pfxp>
    %2581 = "pphlo.multiply"(%2118, %2580) : (tensor<30x256x!pphlo.pint>, tensor<30x256x!pphlo.pfxp>) -> tensor<30x256x!pphlo.pfxp>
    %2582 = "pphlo.add"(%2581, %21) : (tensor<30x256x!pphlo.pfxp>, tensor<30x256x!pphlo.pfxp>) -> tensor<30x256x!pphlo.pfxp>
    %2583 = "pphlo.transpose"(%2116) {permutation = dense<[1, 0]> : tensor<2xi64>} : (tensor<3136x256x!pphlo.pfxp>) -> tensor<256x3136x!pphlo.pfxp>
    %2584 = "pphlo.dot"(%2582, %2583) : (tensor<30x256x!pphlo.pfxp>, tensor<256x3136x!pphlo.pfxp>) -> tensor<30x3136x!pphlo.pfxp>
    %2585 = "pphlo.multiply"(%2584, %20) : (tensor<30x3136x!pphlo.pfxp>, tensor<30x3136x!pphlo.pfxp>) -> tensor<30x3136x!pphlo.pfxp>
    %2586 = "pphlo.reshape"(%2585) : (tensor<30x3136x!pphlo.pfxp>) -> tensor<30x7x7x64x!pphlo.pfxp>
    %2587 = "pphlo.reduce_window"(%2586, %1) ( {
    ^bb0(%arg4: tensor<!pphlo.pfxp>, %arg5: tensor<!pphlo.pfxp>):  // no predecessors
      %2655 = "pphlo.add"(%arg4, %arg5) : (tensor<!pphlo.pfxp>, tensor<!pphlo.pfxp>) -> tensor<!pphlo.pfxp>
      "pphlo.return"(%2655) : (tensor<!pphlo.pfxp>) -> ()
    }) {base_dilations = dense<[1, 2, 2, 1]> : tensor<4xi64>, padding = dense<[[0, 0], [1, 1], [1, 1], [0, 0]]> : tensor<4x2xi64>, window_dilations = dense<1> : tensor<4xi64>, window_dimensions = dense<[1, 2, 2, 1]> : tensor<4xi64>, window_strides = dense<1> : tensor<4xi64>} : (tensor<30x7x7x64x!pphlo.pfxp>, tensor<!pphlo.pfxp>) -> tensor<30x14x14x64x!pphlo.pfxp>
    %2588 = "pphlo.subtract"(%2587, %19) : (tensor<30x14x14x64x!pphlo.pfxp>, tensor<30x14x14x64x!pphlo.pfxp>) -> tensor<30x14x14x64x!pphlo.pfxp>
    %2589 = "pphlo.multiply"(%1674, %2588) : (tensor<30x14x14x64x!pphlo.pint>, tensor<30x14x14x64x!pphlo.pfxp>) -> tensor<30x14x14x64x!pphlo.pfxp>
    %2590 = "pphlo.add"(%2589, %19) : (tensor<30x14x14x64x!pphlo.pfxp>, tensor<30x14x14x64x!pphlo.pfxp>) -> tensor<30x14x14x64x!pphlo.pfxp>
    %2591 = "pphlo.reverse"(%1672) {dimensions = dense<[0, 1]> : tensor<2xi64>} : (tensor<3x3x32x64x!pphlo.pfxp>) -> tensor<3x3x32x64x!pphlo.pfxp>
    %2592 = pphlo.convolution(%2590, %2591) dim_numbers = [b, 0, 1, f]x[0, 1, o, i]->[b, 0, 1, f], window = {stride = [1, 1], pad = [[1, 1], [1, 1]], lhs_dilate = [1, 1], rhs_dilate = [1, 1]} {batch_group_count = 1 : i64, feature_group_count = 1 : i64} : (tensor<30x14x14x64x!pphlo.pfxp>, tensor<3x3x32x64x!pphlo.pfxp>) -> tensor<30x14x14x32x!pphlo.pfxp>
    %2593 = "pphlo.multiply"(%2592, %18) : (tensor<30x14x14x32x!pphlo.pfxp>, tensor<30x14x14x32x!pphlo.pfxp>) -> tensor<30x14x14x32x!pphlo.pfxp>
    %2594 = "pphlo.reduce_window"(%2593, %1) ( {
    ^bb0(%arg4: tensor<!pphlo.pfxp>, %arg5: tensor<!pphlo.pfxp>):  // no predecessors
      %2655 = "pphlo.add"(%arg4, %arg5) : (tensor<!pphlo.pfxp>, tensor<!pphlo.pfxp>) -> tensor<!pphlo.pfxp>
      "pphlo.return"(%2655) : (tensor<!pphlo.pfxp>) -> ()
    }) {base_dilations = dense<[1, 2, 2, 1]> : tensor<4xi64>, padding = dense<[[0, 0], [1, 1], [1, 1], [0, 0]]> : tensor<4x2xi64>, window_dilations = dense<1> : tensor<4xi64>, window_dimensions = dense<[1, 2, 2, 1]> : tensor<4xi64>, window_strides = dense<1> : tensor<4xi64>} : (tensor<30x14x14x32x!pphlo.pfxp>, tensor<!pphlo.pfxp>) -> tensor<30x28x28x32x!pphlo.pfxp>
    %2595 = "pphlo.subtract"(%2594, %17) : (tensor<30x28x28x32x!pphlo.pfxp>, tensor<30x28x28x32x!pphlo.pfxp>) -> tensor<30x28x28x32x!pphlo.pfxp>
    %2596 = "pphlo.multiply"(%1231, %2595) : (tensor<30x28x28x32x!pphlo.pint>, tensor<30x28x28x32x!pphlo.pfxp>) -> tensor<30x28x28x32x!pphlo.pfxp>
    %2597 = "pphlo.add"(%2596, %17) : (tensor<30x28x28x32x!pphlo.pfxp>, tensor<30x28x28x32x!pphlo.pfxp>) -> tensor<30x28x28x32x!pphlo.pfxp>
    %2598 = pphlo.convolution(%1229, %2597) dim_numbers = [f, 0, 1, b]x[i, 0, 1, o]->[0, 1, b, f], window = {stride = [1, 1], pad = [[1, 1], [1, 1]], lhs_dilate = [1, 1], rhs_dilate = [1, 1]} {batch_group_count = 1 : i64, feature_group_count = 1 : i64} : (tensor<30x28x28x1x!pphlo.pfxp>, tensor<30x28x28x32x!pphlo.pfxp>) -> tensor<3x3x1x32x!pphlo.pfxp>
    %2599 = "pphlo.multiply"(%2598, %16) : (tensor<3x3x1x32x!pphlo.pfxp>, tensor<3x3x1x32x!pphlo.pfxp>) -> tensor<3x3x1x32x!pphlo.pfxp>
    %2600 = "pphlo.add"(%831, %2599) : (tensor<3x3x1x32x!pphlo.pfxp>, tensor<3x3x1x32x!pphlo.pfxp>) -> tensor<3x3x1x32x!pphlo.pfxp>
    %2601 = pphlo.convolution(%arg2, %2600) dim_numbers = [b, 0, 1, f]x[0, 1, i, o]->[b, 0, 1, f], window = {stride = [1, 1], pad = [[1, 1], [1, 1]], lhs_dilate = [1, 1], rhs_dilate = [1, 1]} {batch_group_count = 1 : i64, feature_group_count = 1 : i64} : (tensor<50x28x28x1x!pphlo.pfxp>, tensor<3x3x1x32x!pphlo.pfxp>) -> tensor<50x28x28x32x!pphlo.pfxp>
    %2602 = "pphlo.reduce"(%2597, %1) ( {
    ^bb0(%arg4: tensor<!pphlo.pfxp>, %arg5: tensor<!pphlo.pfxp>):  // no predecessors
      %2655 = "pphlo.add"(%arg4, %arg5) : (tensor<!pphlo.pfxp>, tensor<!pphlo.pfxp>) -> tensor<!pphlo.pfxp>
      "pphlo.return"(%2655) : (tensor<!pphlo.pfxp>) -> ()
    }) {dimensions = dense<[0, 1, 2]> : tensor<3xi64>} : (tensor<30x28x28x32x!pphlo.pfxp>, tensor<!pphlo.pfxp>) -> tensor<32x!pphlo.pfxp>
    %2603 = "pphlo.multiply"(%2602, %15) : (tensor<32x!pphlo.pfxp>, tensor<32x!pphlo.pfxp>) -> tensor<32x!pphlo.pfxp>
    %2604 = "pphlo.broadcast"(%2603) {broadcast_dimensions = dense<3> : tensor<1xi64>} : (tensor<32x!pphlo.pfxp>) -> tensor<50x28x28x32x!pphlo.pfxp>
    %2605 = "pphlo.add"(%2601, %2604) : (tensor<50x28x28x32x!pphlo.pfxp>, tensor<50x28x28x32x!pphlo.pfxp>) -> tensor<50x28x28x32x!pphlo.pfxp>
    %2606 = "pphlo.maximum"(%2605, %14) : (tensor<50x28x28x32x!pphlo.pfxp>, tensor<50x28x28x32x!pphlo.pfxp>) -> tensor<50x28x28x32x!pphlo.pfxp>
    %2607 = "pphlo.reduce_window"(%2606, %1) ( {
    ^bb0(%arg4: tensor<!pphlo.pfxp>, %arg5: tensor<!pphlo.pfxp>):  // no predecessors
      %2655 = "pphlo.add"(%arg4, %arg5) : (tensor<!pphlo.pfxp>, tensor<!pphlo.pfxp>) -> tensor<!pphlo.pfxp>
      "pphlo.return"(%2655) : (tensor<!pphlo.pfxp>) -> ()
    }) {base_dilations = dense<1> : tensor<4xi64>, padding = dense<0> : tensor<4x2xi64>, window_dilations = dense<1> : tensor<4xi64>, window_dimensions = dense<[1, 2, 2, 1]> : tensor<4xi64>, window_strides = dense<[1, 2, 2, 1]> : tensor<4xi64>} : (tensor<50x28x28x32x!pphlo.pfxp>, tensor<!pphlo.pfxp>) -> tensor<50x14x14x32x!pphlo.pfxp>
    %2608 = "pphlo.multiply"(%2607, %13) : (tensor<50x14x14x32x!pphlo.pfxp>, tensor<50x14x14x32x!pphlo.pfxp>) -> tensor<50x14x14x32x!pphlo.pfxp>
    %2609 = pphlo.convolution(%1234, %2590) dim_numbers = [f, 0, 1, b]x[i, 0, 1, o]->[0, 1, b, f], window = {stride = [1, 1], pad = [[1, 1], [1, 1]], lhs_dilate = [1, 1], rhs_dilate = [1, 1]} {batch_group_count = 1 : i64, feature_group_count = 1 : i64} : (tensor<30x14x14x32x!pphlo.pfxp>, tensor<30x14x14x64x!pphlo.pfxp>) -> tensor<3x3x32x64x!pphlo.pfxp>
    %2610 = "pphlo.multiply"(%2609, %12) : (tensor<3x3x32x64x!pphlo.pfxp>, tensor<3x3x32x64x!pphlo.pfxp>) -> tensor<3x3x32x64x!pphlo.pfxp>
    %2611 = "pphlo.add"(%1672, %2610) : (tensor<3x3x32x64x!pphlo.pfxp>, tensor<3x3x32x64x!pphlo.pfxp>) -> tensor<3x3x32x64x!pphlo.pfxp>
    %2612 = pphlo.convolution(%2608, %2611) dim_numbers = [b, 0, 1, f]x[0, 1, i, o]->[b, 0, 1, f], window = {stride = [1, 1], pad = [[1, 1], [1, 1]], lhs_dilate = [1, 1], rhs_dilate = [1, 1]} {batch_group_count = 1 : i64, feature_group_count = 1 : i64} : (tensor<50x14x14x32x!pphlo.pfxp>, tensor<3x3x32x64x!pphlo.pfxp>) -> tensor<50x14x14x64x!pphlo.pfxp>
    %2613 = "pphlo.reduce"(%2590, %1) ( {
    ^bb0(%arg4: tensor<!pphlo.pfxp>, %arg5: tensor<!pphlo.pfxp>):  // no predecessors
      %2655 = "pphlo.add"(%arg4, %arg5) : (tensor<!pphlo.pfxp>, tensor<!pphlo.pfxp>) -> tensor<!pphlo.pfxp>
      "pphlo.return"(%2655) : (tensor<!pphlo.pfxp>) -> ()
    }) {dimensions = dense<[0, 1, 2]> : tensor<3xi64>} : (tensor<30x14x14x64x!pphlo.pfxp>, tensor<!pphlo.pfxp>) -> tensor<64x!pphlo.pfxp>
    %2614 = "pphlo.multiply"(%2613, %11) : (tensor<64x!pphlo.pfxp>, tensor<64x!pphlo.pfxp>) -> tensor<64x!pphlo.pfxp>
    %2615 = "pphlo.broadcast"(%2614) {broadcast_dimensions = dense<3> : tensor<1xi64>} : (tensor<64x!pphlo.pfxp>) -> tensor<50x14x14x64x!pphlo.pfxp>
    %2616 = "pphlo.add"(%2612, %2615) : (tensor<50x14x14x64x!pphlo.pfxp>, tensor<50x14x14x64x!pphlo.pfxp>) -> tensor<50x14x14x64x!pphlo.pfxp>
    %2617 = "pphlo.maximum"(%2616, %10) : (tensor<50x14x14x64x!pphlo.pfxp>, tensor<50x14x14x64x!pphlo.pfxp>) -> tensor<50x14x14x64x!pphlo.pfxp>
    %2618 = "pphlo.reduce_window"(%2617, %1) ( {
    ^bb0(%arg4: tensor<!pphlo.pfxp>, %arg5: tensor<!pphlo.pfxp>):  // no predecessors
      %2655 = "pphlo.add"(%arg4, %arg5) : (tensor<!pphlo.pfxp>, tensor<!pphlo.pfxp>) -> tensor<!pphlo.pfxp>
      "pphlo.return"(%2655) : (tensor<!pphlo.pfxp>) -> ()
    }) {base_dilations = dense<1> : tensor<4xi64>, padding = dense<0> : tensor<4x2xi64>, window_dilations = dense<1> : tensor<4xi64>, window_dimensions = dense<[1, 2, 2, 1]> : tensor<4xi64>, window_strides = dense<[1, 2, 2, 1]> : tensor<4xi64>} : (tensor<50x14x14x64x!pphlo.pfxp>, tensor<!pphlo.pfxp>) -> tensor<50x7x7x64x!pphlo.pfxp>
    %2619 = "pphlo.multiply"(%2618, %9) : (tensor<50x7x7x64x!pphlo.pfxp>, tensor<50x7x7x64x!pphlo.pfxp>) -> tensor<50x7x7x64x!pphlo.pfxp>
    %2620 = "pphlo.reshape"(%2619) : (tensor<50x7x7x64x!pphlo.pfxp>) -> tensor<50x3136x!pphlo.pfxp>
    %2621 = "pphlo.transpose"(%1678) {permutation = dense<[1, 0]> : tensor<2xi64>} : (tensor<30x3136x!pphlo.pfxp>) -> tensor<3136x30x!pphlo.pfxp>
    %2622 = "pphlo.dot"(%2621, %2582) : (tensor<3136x30x!pphlo.pfxp>, tensor<30x256x!pphlo.pfxp>) -> tensor<3136x256x!pphlo.pfxp>
    %2623 = "pphlo.multiply"(%2622, %8) : (tensor<3136x256x!pphlo.pfxp>, tensor<3136x256x!pphlo.pfxp>) -> tensor<3136x256x!pphlo.pfxp>
    %2624 = "pphlo.add"(%2116, %2623) : (tensor<3136x256x!pphlo.pfxp>, tensor<3136x256x!pphlo.pfxp>) -> tensor<3136x256x!pphlo.pfxp>
    %2625 = "pphlo.dot"(%2620, %2624) : (tensor<50x3136x!pphlo.pfxp>, tensor<3136x256x!pphlo.pfxp>) -> tensor<50x256x!pphlo.pfxp>
    %2626 = "pphlo.reduce"(%2582, %1) ( {
    ^bb0(%arg4: tensor<!pphlo.pfxp>, %arg5: tensor<!pphlo.pfxp>):  // no predecessors
      %2655 = "pphlo.add"(%arg4, %arg5) : (tensor<!pphlo.pfxp>, tensor<!pphlo.pfxp>) -> tensor<!pphlo.pfxp>
      "pphlo.return"(%2655) : (tensor<!pphlo.pfxp>) -> ()
    }) {dimensions = dense<0> : tensor<1xi64>} : (tensor<30x256x!pphlo.pfxp>, tensor<!pphlo.pfxp>) -> tensor<256x!pphlo.pfxp>
    %2627 = "pphlo.multiply"(%2626, %7) : (tensor<256x!pphlo.pfxp>, tensor<256x!pphlo.pfxp>) -> tensor<256x!pphlo.pfxp>
    %2628 = "pphlo.broadcast"(%2627) {broadcast_dimensions = dense<1> : tensor<1xi64>} : (tensor<256x!pphlo.pfxp>) -> tensor<50x256x!pphlo.pfxp>
    %2629 = "pphlo.add"(%2625, %2628) : (tensor<50x256x!pphlo.pfxp>, tensor<50x256x!pphlo.pfxp>) -> tensor<50x256x!pphlo.pfxp>
    %2630 = "pphlo.maximum"(%2629, %6) : (tensor<50x256x!pphlo.pfxp>, tensor<50x256x!pphlo.pfxp>) -> tensor<50x256x!pphlo.pfxp>
    %2631 = "pphlo.transpose"(%2128) {permutation = dense<[1, 0]> : tensor<2xi64>} : (tensor<30x256x!pphlo.pfxp>) -> tensor<256x30x!pphlo.pfxp>
    %2632 = "pphlo.dot"(%2631, %2577) : (tensor<256x30x!pphlo.pfxp>, tensor<30x10x!pphlo.pfxp>) -> tensor<256x10x!pphlo.pfxp>
    %2633 = "pphlo.multiply"(%2632, %5) : (tensor<256x10x!pphlo.pfxp>, tensor<256x10x!pphlo.pfxp>) -> tensor<256x10x!pphlo.pfxp>
    %2634 = "pphlo.add"(%2566, %2633) : (tensor<256x10x!pphlo.pfxp>, tensor<256x10x!pphlo.pfxp>) -> tensor<256x10x!pphlo.pfxp>
    %2635 = "pphlo.dot"(%2630, %2634) : (tensor<50x256x!pphlo.pfxp>, tensor<256x10x!pphlo.pfxp>) -> tensor<50x10x!pphlo.pfxp>
    %2636 = "pphlo.reduce"(%2577, %1) ( {
    ^bb0(%arg4: tensor<!pphlo.pfxp>, %arg5: tensor<!pphlo.pfxp>):  // no predecessors
      %2655 = "pphlo.add"(%arg4, %arg5) : (tensor<!pphlo.pfxp>, tensor<!pphlo.pfxp>) -> tensor<!pphlo.pfxp>
      "pphlo.return"(%2655) : (tensor<!pphlo.pfxp>) -> ()
    }) {dimensions = dense<0> : tensor<1xi64>} : (tensor<30x10x!pphlo.pfxp>, tensor<!pphlo.pfxp>) -> tensor<10x!pphlo.pfxp>
    %2637 = "pphlo.multiply"(%2636, %4) : (tensor<10x!pphlo.pfxp>, tensor<10x!pphlo.pfxp>) -> tensor<10x!pphlo.pfxp>
    %2638 = "pphlo.broadcast"(%2637) {broadcast_dimensions = dense<1> : tensor<1xi64>} : (tensor<10x!pphlo.pfxp>) -> tensor<50x10x!pphlo.pfxp>
    %2639 = "pphlo.add"(%2635, %2638) : (tensor<50x10x!pphlo.pfxp>, tensor<50x10x!pphlo.pfxp>) -> tensor<50x10x!pphlo.pfxp>
    %2640 = "pphlo.reduce"(%2639, %3) ( {
    ^bb0(%arg4: tensor<!pphlo.pfxp>, %arg5: tensor<!pphlo.pfxp>):  // no predecessors
      %2655 = "pphlo.maximum"(%arg4, %arg5) : (tensor<!pphlo.pfxp>, tensor<!pphlo.pfxp>) -> tensor<!pphlo.pfxp>
      "pphlo.return"(%2655) : (tensor<!pphlo.pfxp>) -> ()
    }) {dimensions = dense<1> : tensor<1xi64>} : (tensor<50x10x!pphlo.pfxp>, tensor<!pphlo.pfxp>) -> tensor<50x!pphlo.pfxp>
    %2641 = "pphlo.broadcast"(%2640) {broadcast_dimensions = dense<0> : tensor<1xi64>} : (tensor<50x!pphlo.pfxp>) -> tensor<50x10x!pphlo.pfxp>
    %2642 = "pphlo.subtract"(%2639, %2641) : (tensor<50x10x!pphlo.pfxp>, tensor<50x10x!pphlo.pfxp>) -> tensor<50x10x!pphlo.pfxp>
    %2643 = "pphlo.exponential"(%2642) : (tensor<50x10x!pphlo.pfxp>) -> tensor<50x10x!pphlo.pfxp>
    %2644 = "pphlo.reduce"(%2643, %1) ( {
    ^bb0(%arg4: tensor<!pphlo.pfxp>, %arg5: tensor<!pphlo.pfxp>):  // no predecessors
      %2655 = "pphlo.add"(%arg4, %arg5) : (tensor<!pphlo.pfxp>, tensor<!pphlo.pfxp>) -> tensor<!pphlo.pfxp>
      "pphlo.return"(%2655) : (tensor<!pphlo.pfxp>) -> ()
    }) {dimensions = dense<1> : tensor<1xi64>} : (tensor<50x10x!pphlo.pfxp>, tensor<!pphlo.pfxp>) -> tensor<50x!pphlo.pfxp>
    %2645 = "pphlo.log"(%2644) : (tensor<50x!pphlo.pfxp>) -> tensor<50x!pphlo.pfxp>
    %2646 = "pphlo.broadcast"(%2645) {broadcast_dimensions = dense<0> : tensor<1xi64>} : (tensor<50x!pphlo.pfxp>) -> tensor<50x10x!pphlo.pfxp>
    %2647 = "pphlo.subtract"(%2642, %2646) : (tensor<50x10x!pphlo.pfxp>, tensor<50x10x!pphlo.pfxp>) -> tensor<50x10x!pphlo.pfxp>
    %2648 = "pphlo.subtract"(%2647, %2) : (tensor<50x10x!pphlo.pfxp>, tensor<50x10x!pphlo.pfxp>) -> tensor<50x10x!pphlo.pfxp>
    %2649 = "pphlo.multiply"(%271, %2648) : (tensor<50x10x!pphlo.pint>, tensor<50x10x!pphlo.pfxp>) -> tensor<50x10x!pphlo.pfxp>
    %2650 = "pphlo.add"(%2649, %2) : (tensor<50x10x!pphlo.pfxp>, tensor<50x10x!pphlo.pfxp>) -> tensor<50x10x!pphlo.pfxp>
    %2651 = "pphlo.reduce"(%2650, %1) ( {
    ^bb0(%arg4: tensor<!pphlo.pfxp>, %arg5: tensor<!pphlo.pfxp>):  // no predecessors
      %2655 = "pphlo.add"(%arg4, %arg5) : (tensor<!pphlo.pfxp>, tensor<!pphlo.pfxp>) -> tensor<!pphlo.pfxp>
      "pphlo.return"(%2655) : (tensor<!pphlo.pfxp>) -> ()
    }) {dimensions = dense<1> : tensor<1xi64>} : (tensor<50x10x!pphlo.pfxp>, tensor<!pphlo.pfxp>) -> tensor<50x!pphlo.pfxp>
    %2652 = "pphlo.negate"(%2651) : (tensor<50x!pphlo.pfxp>) -> tensor<50x!pphlo.pfxp>
    %2653 = "pphlo.reduce"(%2652, %1) ( {
    ^bb0(%arg4: tensor<!pphlo.pfxp>, %arg5: tensor<!pphlo.pfxp>):  // no predecessors
      %2655 = "pphlo.add"(%arg4, %arg5) : (tensor<!pphlo.pfxp>, tensor<!pphlo.pfxp>) -> tensor<!pphlo.pfxp>
      "pphlo.return"(%2655) : (tensor<!pphlo.pfxp>) -> ()
    }) {dimensions = dense<0> : tensor<1xi64>} : (tensor<50x!pphlo.pfxp>, tensor<!pphlo.pfxp>) -> tensor<!pphlo.pfxp>
    %2654 = "pphlo.multiply"(%2653, %0) : (tensor<!pphlo.pfxp>, tensor<!pphlo.pfxp>) -> tensor<!pphlo.pfxp>
    return %2654 : tensor<!pphlo.pfxp>
  }
}
